results/spinning_top/model_best.pt (torch, 877154 bytes, 90 tensors)

encoder.layers.0.self_attn.in_proj_weight f4 [24, 8]
00000000: cb2d 243e 6808 a5bd 66f6 833e 0e7b d3be
00000010: fec1 2c3e c82b a13e ac07 91be a40f 52bd
00000020: c616 66ba f106 bfbd 3ff4 86be 93ba a33d
00000030: 20b2 cb3d ca57 223e f068 86be 0870 2a3e
00000040: 4dd6 38be 1096 b13e f8b9 903e 194a 4b3e
00000050: 833f 4abe dcef f03d 5e12 0f3e 6248 12bd
00000060: 28f4 8abd 0d1a 0cbd cbac 403e 416a 44bd
00000070: ef8e 0cbe 1083 99be bc8a 853e 1125 a2be
00000080: 350d b0be 710a 3b3e 5ffb f3bd 3bd0 a3be
00000090: 826f b03e 87fd 34be 5756 d83c 524c 813e
000000a0: cf3e 3fbe 793d 2fbd c09a 6a3c 7e60 6ebe
000000b0: 9ca2 97be bffd 483e bd86 aebd b3e6 fb3e
000000c0: 1763 3fbe 00b3 d5be 69ce 96bd ee6a 95bd
000000d0: 7e98 553e 992f 82be d24b 32be 05a3 82bd
000000e0: 5a86 13bd 3afa 9abc d358 73bd e036 1a3e
000000f0: 92cd cbbe fda7 c5be 39b7 22bd c84f 50bb
00000100: e1ef 9cbe 9d29 7e3e 9829 7ebe 8b2e c4be
00000110: 69ec 193e 8da8 6fbe e260 d9be 3f60 953d
00000120: e810 ad3e 8a8f 013d d708 d0be 0917 80bd
00000130: af41 20be b019 85be 1cdf 2c3e a42b 8e3e
00000140: 6f9e c73e 738e d43e 5430 023c fab7 8ebe
00000150: 1014 32bd 2f7b b1be 434a 893e 47ae 21bd
00000160: 9f35 9f3e b55b 20bd b08b cabe 8af2 c03e
00000170: b7ff 6dbe e9fe 65bb acda 88be 2c9b 533d
00000180: b493 73bd 95e8 39be 93c6 9ebd e227 bbbe
00000190: c5e3 46bb 18ae 363e 96fd acbe a854 283b
000001a0: 9a53 c2be 35d6 cc3e 4e34 9e3e 42a9 153e
000001b0: 2ed4 153e a9ae 00be ff6c 1bbe e2e5 c63e
000001c0: c490 1ebe c926 1abe b46c 683e 6e1a c1ba
000001d0: d4c9 69be 36a3 b73e 7a9e af3e 9961 563e
000001e0: 8da1 163e 5e95 6a3c 9f61 86bd 132e 593c
000001f0: 3631 c93c fe7e a13e e734 5bbe 039f 153d
00000200: 2489 bf3e 1443 c8bc a26f f23e 9fd4 903e
00000210: ac92 a2be cf02 bebe b26b c8bb ca3b 9abe
00000220: bd61 c23e 0546 b63e 4354 5fbd ffcb 9ebe
00000230: c0ca 4a3e 777a b53e 6425 8a3e 30a5 8dbc
00000240: d807 a03e 5357 aebd 0689 a63e de3b fcbd
00000250: 81fb 723d 54d8 5abe d964 593e 9eca 8bbe
00000260: a1e5 1cbe 97df e4bc 3e8c 9b3e 6b11 28be
00000270: 52f1 78be e40b 6f3e 4942 a53e 7830 043e
00000280: 087e a23e 6a71 c63e da0a a93e d113 cf3e
00000290: 6249 cfbe 23d3 95be 7662 afbe b3b0 98be
000002a0: 5ba7 6fbd 2e46 fbbc 4505 9dbd c86c 3cbe
000002b0: eb0f 6ebe 2f21 63be ec8e 2c3e 5062 efbb
000002c0: 3d07 f6bc 6bc0 f83c 956f 1ebd 5ae7 21be
000002d0: f86e 20be 80bf 6fbc b528 9a3e ea39 cfbe
000002e0: fd1a bcbe aed3 ab3d 12eb bebe ca41 ec3d
000002f0: e53a 953e 3539 a23e db53 103c c932 793e
0.16033094 -0.08058244 0.25773925 -0.4130482 0.16870877 0.31478715 -0.28326166 -0.051284447
-0.0008777197 -0.09327496 -0.2635822 0.079945706 0.09946084 0.15853801 -0.26251936 0.16644299
-0.180505 0.346848 0.28266883 0.19852485 -0.1975079 0.117644995 0.1397185 -0.03571356
-0.0678485 -0.03420453 0.18815915 -0.047952894 -0.137264 -0.29982805 0.26082408 -0.31668904
-0.34385076 0.18265702 -0.119131796 -0.31994805 0.34460074 -0.17674838 0.026408358 0.2525354
-0.18676303 -0.042783234 0.014319122 -0.23278996 -0.2961625 0.19628046 -0.08521793 0.49199447
-0.18690144 -0.4173813 -0.07363588 -0.07295786 0.20858952 -0.2542694 -0.17411736 -0.0637875
-0.0360168 -0.018918145 -0.05941088 0.15059996 -0.39805275 -0.38604727 -0.039725516 -0.0031785835
-0.30651763 0.24820562 -0.24820554 -0.3831676 0.1503159 -0.23404141 -0.42456728 0.07293748
0.3380196 0.03163103 -0.40631744 -0.062543936 -0.15650056 -0.2599616 0.16881984 0.2776767
0.38988063 0.4151493 0.007946093 -0.27874738 -0.043476164 -0.34664294 0.2681447 -0.039472844
0.31095597 -0.03914996 -0.39559698 0.37685043 -0.23242079 -0.0035094565 -0.26729333 0.051661655
-0.059467033 -0.18155129 -0.07752719 -0.36553866 -0.0030348164 0.17839849 -0.3378722 0.0025685225
-0.37954408 0.40007177 0.3089928 0.14615348 0.14631721 -0.12566628 -0.15178297 0.38847262
-0.15484911 -0.15053858 0.22697717 -0.0014732608 -0.22830898 0.35866708 0.34300596 0.20935668
0.14710064 0.0143178385 -0.065615885 0.013255614 0.024559598 0.315422 -0.214069 0.0365286
0.37409317 -0.024446048 0.47350794 0.28287217 -0.31752527 -0.37111518 -0.006116354 -0.3012374
0.37965193 0.35600296 -0.054523718 -0.31015012 0.19803905 0.35444996 0.26981652 -0.017290682
0.31255984 -0.085127495 0.32526416 -0.12316106 0.059321884 -0.21371585 0.21229877 -0.27303022
-0.15321971 -0.027938647 0.30380434 -0.16412894 -0.24310806 0.2334438 0.32277134 0.12909114
0.3173678 0.38758403 0.33016092 0.40444806 -0.40485674 -0.29262647 -0.34254807 -0.2982231
-0.058509212 -0.030673113 -0.07667021 -0.18400872 -0.2324826 -0.22180627 0.16851395 -0.007305421
-0.030032748 0.03036519 -0.03868063 -0.1581091 -0.15667331 -0.0146330595 0.30109182 -0.40473872
-0.3673934 0.08389984 -0.3728872 0.11535986 0.29146495 0.3168427 0.008809055 0.24335779

encoder.layers.0.self_attn.in_proj_bias f4 [24]
00000000: 1c96 8bbb e9f3 b2bb 3e77 55bd d01d 433c
00000010: 8f7c febb 9b02 913c e5b4 febc 2682 f8bc
00000020: 5988 b8b0 448a b5b2 e24f c231 cf1e bdb3
00000030: d0d2 7f33 c5c7 fdb4 beae 5d32 009e 2a33
00000040: d08c 803c 3502 19bd 23c6 78bc 097f e93b
00000050: f332 753c 28c0 19bd 0644 9f3c 4297 31bc
-0.004259838 -0.0054612053 -0.05211567 0.011908963 -0.0077663134 0.017701438 -0.031092117 -0.030335497
-1.3426514e-09 -2.113405e-08 5.6552247e-09 -8.8066024e-08 5.9563547e-08 -4.7270274e-07 1.2903625e-08 3.972491e-08
0.015692145 -0.03735562 -0.015183958 0.0071257395 0.0149657605 -0.03753677 0.019441616 -0.010839285

encoder.layers.0.self_attn.out_proj.weight f4 [8, 8]
00000000: 29d3 94bd 73b5 babd 37cf 773e aefa adbe
00000010: c951 083e ad4b afbd 9621 62bc b353 8fbd
00000020: 9794 9d3e 5554 6abe 8059 123d 4047 be3e
00000030: dd09 6c3e 2bee 413e 5f3a 20be 560a 1b3e
00000040: e279 45be 939c 923e 2738 3ebe 9894 303e
00000050: 821a a93d 87d8 e6bd a6e5 893e 8667 94be
00000060: e92f edbd 2f09 f8bd 0e96 323e 8c8f 12be
00000070: 89f5 9c3e 35d4 2ebe a206 1bbd e87e f7bb
00000080: 0635 a1bd 45cc 77be ea70 2d3e a8e8 193e
00000090: 6b05 b0be 3ddb c43d 639b 0ebe 2e90 fbbd
000000a0: 3637 15be 12e7 913e 311e a73e 9802 73be
000000b0: f7f6 90bc b60d d63d 99e6 a53e c524 c53d
000000c0: 1190 7d3e 4b9c 6abd 0102 babd 26c8 303e
000000d0: d291 83be eb4c fd3d 7a09 b73d 9a44 9fbe
000000e0: a34b 08be dfe3 803e 0817 903e 2664 a03c
000000f0: be50 81be d1b1 603e 1eb1 75be f94e a3be
-0.07266838 -0.0911664 0.2420014 -0.33980316 0.13312449 -0.08559356 -0.013801953 -0.06998386
0.30777428 -0.22883733 0.035729885 0.37163734 0.23050638 0.1893851 -0.15647267 0.15140662
-0.19284776 0.28635082 -0.18576108 0.17244184 0.08257009 -0.11271768 0.2693302 -0.28985232
-0.11581404 -0.12111127 0.17440054 -0.14312571 0.30656078 -0.17073138 -0.037848122 -0.00755297
-0.078714415 -0.24199016 0.16937605 0.15030158 -0.34379134 0.09612129 -0.13926463 -0.122833595
-0.14571843 0.28496605 0.32640222 -0.23731458 -0.017695887 0.10451834 0.32402495 0.09626154
0.24761988 -0.05727796 -0.090824135 0.1726385 -0.2569719 0.123681866 0.089373544 -0.31107026
-0.13310103 0.25173852 0.2814257 0.019579004 -0.25256914 0.21942832 -0.23993346 -0.3189619

encoder.layers.0.self_attn.out_proj.bias f4 [8]
00000000: 2699 11bc 3bde 72bb 8f39 8d3c fde2 b53c
00000010: 784a 033d 565b 33b9 0917 943c d56f 33bd
-0.008886611 -0.003705873 0.01723936 0.022202963 0.03205344 -0.00017104796 0.01807739 -0.043807823

encoder.layers.0.linear1.weight f4 [2048, 8]
00000000: c2f6 493c a80a 28be 765e 683e 526a 8bbe
00000010: 4f10 0a3e 3c4d 953e 4a98 a1be fa8c 103d
00000020: 29a6 803e 86ce 74bd 5f58 58be a049 823e
00000030: a4a0 5ebe 29d3 2ebe 7955 333e 219d e2bd
00000040: fa38 173e 008c 913e f3cc 17be ebe3 4cbe
00000050: 53db 01be f600 44be e565 9dbe 602c 17be
00000060: 306d 3e3e 4a93 423e 8719 72be 57b0 29be
00000070: 16a2 43bd 0206 b0bd 1f01 003e eac1 18be
00000080: a993 3a3e 6141 82be 43e1 393e 4412 25bd
00000090: 2152 9a3e 70fd 353e 1be2 2e3e dc66 0fbe
000000a0: 63e5 4e3e 21f4 473e 7335 d3be e25a 513e
000000b0: 54a6 a23e a238 5bbe 5d80 a6be 01e2 423e
000000c0: 2b14 e73d a91a 953e 51b5 ba3d e176 36bd
000000d0: 871c 8d3d c024 abbe 92e0 1f3e 62cf 32be
000000e0: bc0f eebd bd67 75bd a392 8e3e 7945 4c3e
000000f0: 1281 703e 37e2 abbe b8b0 a03e b23e 0dbe
00000100: a92f 143e 25aa c3bd b01e c73e 71d0 19be
00000110: 0d10 e6bd 9700 bfbe aca8 3bbe b9a8 743e
00000120: 541c 9abe 81b8 22be 3133 4f3d 65a4 be3e
00000130: 8263 6dbe 31aa 373e 45c2 ee3d c871 373e
00000140: ff1f a83d d0ba 843e 8afc 383e 33f1 183e
00000150: 8a82 9c3d d6fd 9bbd 8e5d 783e e505 3fbd
00000160: f733 96be b020 1abd 016a 2dbe 5dcc 60bd
00000170: be7b 8b3e e83f dfbc 5721 cdbe a397 9d3e
00000180: 896b 0b3e bbe5 27be c3d6 363e a6a2 82be
00000190: 39f5 abbe 8d5e a03e 2768 4dbe 9990 51be
000001a0: 0583 8ebe 8f51 6b3e 19d2 533e a040 6c3e
000001b0: 7b71 b4be 93e9 a6be 1dda 243e 3065 513e
000001c0: e47f a1be 8801 2fbe dddf 9fbd 36cf 89bd
000001d0: 8749 223e a357 5a3e 6aea 5fbe c69a 4a3d
000001e0: fed4 d23d 4f14 80be 14fc d5be db9e 833e
000001f0: 1c81 223e 84f0 a7be 5890 65be 0c3b 803e
00000200: be64 473e 831b 8cbe 112f a83e 8c64 5abe
00000210: 59e8 653e 8d5f 133e 4365 92be b7a2 7ebe
00000220: 5774 5e3d 26b2 503d 75d1 85bd 77ad bfbc
00000230: 7feb a03e 4530 063e ce10 5f3e 4503 14bd
00000240: c828 1ebe 1fca 953e 90d5 6dbe 286b b1be
00000250: ec9c 87be 4be5 a3be 271d a5be 713b acbd
00000260: 9c1a 9f3e 4509 c43d 3b1d 733e 2b4d 263b
00000270: 72e1 90bd e512 b83e c90f 543d 17e6 403e
00000280: cfd3 4b3e 9313 663e 14c6 09be d566 18be
00000290: f925 c0bd 7d90 963e 3ea2 e5bd b2af 483e
000002a0: de36 e0bd fc9d a1be d6f2 37be 0256 54bd
000002b0: 7279 12bd 829b 603d 8c15 82be 6d28 4ebe
000002c0: 66bf b93d c071 2f3e ff7e 943e 7102 9a3e
000002d0: af65 873e 4e5b 263e 1de6 a2be 5fa2 8cbd
000002e0: c51a c03d 73d1 273e ee91 f7bd fb38 523e
000002f0: 4967 15be 934e 513e 6b08 403e cad2 13be
00000300: d8a7 983e 9094 813c 814d 653e f6c9 b93e
00000310: 2802 24be 5675 68bd 818c cfbb a93c 5a3e
00000320: ad6b 8b3d 6e1b 0bbe 38b9 833e 9746 adbe
00000330: d5d6 393e 7644 66bd d62c fdbd 112b bd3e
00000340: 6515 61bd ec6d 7b3e 9c5f 973d b192 edbd
00000350: 7877 323c 0b53 52be aa5b c23e a96e 03be
00000360: d799 013d bd0a 2bbe dbde a7be 180a 01be
00000370: 5ead 353e 3b00 9bbe 0962 30be 5c21 b0be
00000380: 3bfa b5bd 8aae 4cbe 99df 3e3e 65ed 7ebe
00000390: 3f25 813e f9bc b63d adca 89bd d6a9 a2bd
000003a0: bed4 81be 48f8 963e 556d 5abd 6c42 85bd
000003b0: 4539 fa3d 3fae 9e3e 01db adbd 08d8 7ebd
000003c0: 1671 26be 5815 373e 3466 423e b086 48be
000003d0: 9b18 b7bd ad9e 8d3e cfdc aa3c 713c 00be
000003e0: 55e3 2c3c 25f4 853c 8946 c2bd 72f2 95be
000003f0: b96f efbd c9a8 803e 9b08 193e 92c4 313d
0.012326898 -0.16410315 0.22692284 -0.27229553 0.13482784 0.29160488 -0.315615 0.035290696
0.2512677 -0.05976727 -0.21127461 0.25446796 -0.21740967 -0.17072739 0.17513074 -0.11065126
0.14767829 0.28427124 -0.14824276 -0.20008819 -0.12681322 -0.19140992 -0.30741802 -0.14763021
0.18596339 0.19001499 -0.2364255 -0.16571175 -0.047762 -0.08594896 0.12500428 -0.14917722
0.1822039 -0.25440505 0.18152337 -0.040300623 0.30140784 0.1777246 0.1707844 -0.14004081
0.20204692 0.19526722 -0.41251716 0.20444825 0.31767523 -0.21408322 -0.32519808 0.19031526
0.112831436 0.29121903 0.091166146 -0.044546966 0.06890207 -0.33426476 0.1561301 -0.17461923
-0.11624095 -0.059913386 0.2784625 0.19948377 0.23486736 -0.33571026 0.31384826 -0.13793448
0.14471306 -0.09553937 0.388906 -0.1502092 -0.1123353 -0.37305138 -0.18326062 0.23892488
-0.30099738 -0.15890695 0.05058593 0.37234798 -0.2318249 0.17936017 0.11658148 0.17914498
0.08209228 0.25923777 0.18065086 0.1493576 0.07642086 -0.07616775 0.24254438 -0.04663648
-0.2933652 -0.03762883 -0.16934969 -0.054882396 0.27242845 -0.027252153 -0.400645 0.30779752
0.1361524 -0.16396229 0.17855363 -0.25514716 -0.33585528 0.31322137 -0.20059262 -0.20465316
-0.27834335 0.22980331 0.20685615 0.23071527 -0.3524283 -0.32600078 0.16098829 0.20448756
-0.31542885 -0.17090428 -0.078063704 -0.067289755 0.15848361 0.21322493 -0.21866766 0.04946401
0.10294531 -0.25015494 -0.41793883 0.25707135 0.15869564 -0.32800686 -0.22418344 0.2504505
0.19472024 -0.2736474 0.3284841 -0.21327418 0.22451915 0.14391918 -0.28592882 -0.24866758
0.05431017 0.050951146 -0.065340914 -0.023398144 0.3142967 0.13104351 0.21783754 -0.03613593
-0.15445244 0.2925577 -0.23225999 -0.34652066 -0.2648691 -0.32010874 -0.32248804 -0.08409775
0.3107499 0.095720805 0.2374162 0.0025375586 -0.0707425 0.35951915 0.051772866 0.18837772
0.19905017 0.22468404 -0.13454467 -0.14882977 -0.09382243 0.2940711 -0.11212586 0.19598272
-0.10947965 -0.31565845 -0.17963728 -0.051839836 -0.03576035 0.054835804 -0.25407064 -0.20132609
0.090697095 0.17133236 0.2900314 0.30079988 0.26444766 0.16245767 -0.31816188 -0.06866907
0.09380106 0.16388492 -0.12088381 0.20529549 -0.14590181 0.2044013 0.18753211 -0.14435878
0.29815555 0.01581791 0.22392847 0.36286896 -0.16016448 -0.056752525 -0.006333888 0.21312203
0.06807647 -0.13584682 0.25727248 -0.33842918 0.18148358 -0.056217633 -0.123620674 0.3694692
-0.054952044 0.2455365 0.07391283 -0.11600245 0.010892741 -0.20539491 0.3796056 -0.12835182
0.031640854 -0.16703315 -0.32787213 -0.12601507 0.17741916 -0.30273613 -0.17224897 -0.3440045
-0.08885618 -0.19988456 0.18639983 -0.24895246 0.2522373 0.089227624 -0.067281105 -0.0794255
-0.25357622 0.294863 -0.053326923 -0.065068096 0.122179545 0.30992314 -0.08489037 -0.062217742
-0.16254076 0.17879236 0.189843 -0.19582629 -0.0894024 0.27660123 0.020857243 -0.12523057
0.010552247 0.016351769 -0.0948611 -0.29286534 -0.11691231 0.25128773 0.14944689 0.043400355

encoder.layers.0.linear1.bias f4 [2048]
00000000: fd66 0d3d 7043 6c3e b392 95bd 2380 153e
00000010: 1f42 b3be d32f 143e c3d1 cd3d 4fa7 66bd
00000020: 8091 083d a6f6 e7bc 1852 9c3e e554 863e
00000030: c8cd 1c3e 2a48 23be 206e b2bc a97a 2fbe
00000040: b329 673d 8e5f 96bc f627 fb3d 3034 57be
00000050: 497b 9e3e 6c97 983e e05b debd c366 5d3e
00000060: f8e6 9bbe feb1 00be ef34 a83d c25c f2bd
00000070: 7f27 4dbe d50c 03bd df9f b03e b00e 673e
00000080: 8cc8 acbe c2c6 933e 97d1 343e 2b39 733e
00000090: 6241 5abe b1c1 b4be 3587 e63c a178 8b3e
000000a0: ac8e 50be 698f 9ebe 1023 ac3d 5416 85bd
000000b0: 7ce1 7a3e 7832 45be 533d 8abe 4ae8 84bc
000000c0: 3a75 5abd d072 a83e 1e0f 9dbe 09de ad3e
000000d0: f435 75be 2c1f b13d e097 2e3e 7294 a63e
000000e0: a475 373e f644 9bbe 97e8 0abd d271 c13b
000000f0: 7016 26be e516 86be 536e 7ebc 1de0 4fbe
00000100: 847c 213e a865 e6bc 69d3 8a3e ce47 3cbe
00000110: fe13 bc3d 57e1 8fbd c95c 26bd 1d40 b03e
00000120: 04d1 86be 937d 9ebd 9963 ca3c 2101 893e
00000130: 9218 a3be d1c1 a4be 01b0 fabd cd5e a23e
00000140: f5c0 7bbd 39a5 a93e a69e 84bd a6ec a0be
00000150: bbbc af3e ea59 96be f1ab c03d c6ab 153e
00000160: 6c76 893e fb72 a0be 19e4 99be 422f 983e
00000170: b158 5dbe c0d7 e63d 64e2 ac3d 6041 07be
00000180: 1a0b dc3d e568 dcbc c672 ec3d cfc5 4d3e
00000190: 86de 30be 8aae 85be aea5 b8be b752 263e
000001a0: 73c3 5a3d 1596 2cbd 0ff0 d6bc 8927 f53d
000001b0: b520 a7be 8015 b6be cc75 7abe 6203 97bd
000001c0: a7bd 80be 6048 84bc 90f9 5bbe 478e 0c3e
000001d0: fb94 4b3e 5409 3b3e 27ea e0bd 9a3f d43d
000001e0: f503 b83e 5a8b 87bd 7abf 90bd 63e7 c5bd
000001f0: eb74 783e 1c9b 0a3e df36 3abe fc02 3dbe
00000200: 1f73 73be 3bad 8abe 558c fabd 9c55 3c3d
00000210: f4a3 b3be 2392 623d 03c6 0c3e f3f8 58be
00000220: 3494 75be 970e 523e c1b5 853d 8e67 adbe
00000230: 3726 02be 4ebe 873a e40c 703d 4636 573e
00000240: 7fb2 88be 7d50 a73e 57da 343d 5f18 3a3e
00000250: b697 1c3e d50d 0bbe 82d4 193d bcd3 803e
00000260: c773 483e 1cd8 aabe 4a70 873e 9edf 503e
00000270: 8acc 59be 2207 283e f5a8 193c 4604 ecbc
00000280: 90fe 663e fb6a abbd badf 42be 50dd 603e
00000290: d831 9f3e fba4 d4bd 4db8 52be 44e1 70be
000002a0: 2884 81bc acea 7f3e 28f7 af3c b356 803e
000002b0: c314 97bd 31c7 77bd 8278 9fbe 520c 5f3e
000002c0: c162 603e d727 8b3e ed83 44be 2a09 61be
000002d0: 1e47 b9bc e1f1 78be 2daf d33d 8c9a 91be
000002e0: a66a a33e 4670 b53e 5a5d 913e 8776 8dbe
000002f0: c2d9 8e3e 8d1a a7bc 12a4 653e 2255 d53c
00000300: 3921 b5be 16b6 16be 2077 8abe 413b 96be
00000310: 7c7f dd3d 8c4d 423e 265c 76bd 2b2b b6be
00000320: 9468 adbe 9f44 82bd b7bb 45be 3a8e 5a3d
00000330: db9a cf3d 01d2 8fbe 3612 a03e f0a8 833d
00000340: e61a 6dbe 6e1a 08be b189 54be 44f7 9c3e
00000350: 0a90 04be f532 39be cbb3 183d 712d a1be
00000360: bc58 41bd 2b61 6c3e 2123 23bd 2869 563e
00000370: f21c c43d c319 923e 643a fcbd c548 7d3d
00000380: 5584 e6bd 7934 843e 1a81 00be e513 563c
00000390: 1148 1cbc fa77 42bd a45f 31be 008d 43be
000003a0: c1e1 a8be 3fad 183e 4ac0 cf3c 6e0d b8be
000003b0: c374 97bd 86e9 16be 378b 9a3e df2a 653b
000003c0: 9a28 90bd 0761 bdbe 8da9 40be 5482 75be
000003d0: 0ebd 89be c728 61bd 48b4 b3bd c5d3 45be
000003e0: 8132 60be 7017 3bbd ade8 f6bd 0146 a33e
000003f0: 9041 65be 89cc 56be a68d febd 10e2 543d
0.034522045 0.230726 -0.07303371 0.14599662 -0.35011384 0.14471368 0.100497745 -0.0563119
0.033341885 -0.028315853 0.30531383 0.26236644 0.15312874 -0.15945497 -0.021781027 -0.17136635
0.05643625 -0.01835611 0.12263481 -0.21016002 0.30953434 0.29803026 -0.108573675 0.21621232
-0.30449653 -0.12567899 0.08213221 -0.118340984 -0.20034598 -0.03199466 0.34496972 0.22564197
-0.33746755 0.28862578 0.17658077 0.23752277 -0.21314004 -0.35304025 0.028140644 0.2724047
-0.20366925 -0.30968788 0.08405125 -0.064983994 0.24500078 -0.19257534 -0.26999912 -0.016224045
-0.053334452 0.32900095 -0.30675596 0.33958462 -0.23946363 0.08648524 0.17050123 0.3253513
0.1791597 -0.3032605 -0.03391322 0.005903461 -0.16219497 -0.26189342 -0.015529233 -0.20300336
0.15770155 -0.028124645 0.27114418 -0.18386766 0.09183501 -0.07025402 -0.04061583 0.34423915
-0.2633134 -0.07738795 0.024705695 0.26758674 -0.31854683 -0.3217912 -0.12240601 0.31712952
-0.061463315 0.33133867 -0.06475572 -0.31430548 0.34323677 -0.29365474 0.09407795 0.14616308
0.2684816 -0.31337723 -0.30056837 0.29723555 -0.21615864 0.1127162 0.08441618 -0.13208532
0.10744305 -0.026905486 0.11545329 0.20094989 -0.17272386 -0.26109725 -0.36063904 0.1624249
0.05340905 -0.042135317 -0.026237516 0.11970431 -0.3264214 -0.35563278 -0.24458998 -0.07373692
-0.25144693 -0.016147792 -0.2148192 0.1372615 0.1988105 0.18265277 -0.10982161 0.103636935
0.3594052 -0.06618376 -0.07067771 -0.09663274 0.2426335 0.13535732 -0.18184994 -0.1845817
-0.23774384 -0.2708529 -0.122337975 0.04598008 -0.35086024 0.055315148 0.1374741 -0.21188717
-0.23982316 0.20513378 0.065288074 -0.33868068 -0.1270989 0.0010356398 0.058606043 0.21016797
-0.26698682 0.32678595 0.044153538 0.1817336 0.15292248 -0.13579495 0.03755618 0.2516154
0.19575416 -0.33368003 0.26452857 0.20397803 -0.21269432 0.16408971 0.009378661 -0.028810631
0.22558045 -0.08370014 -0.19030657 0.21959424 0.31092715 -0.1038303 -0.20578118 -0.23523432
-0.015810087 0.24991864 0.021480158 0.25066146 -0.07377007 -0.060492698 -0.31146628 0.21782044
0.21912672 0.27178833 -0.1919095 -0.21976152 -0.02261692 -0.2431102 0.103361465 -0.28438222
0.31917304 0.3543722 0.28391534 -0.27629492 0.2790051 -0.020398403 0.22425869 0.026041571
-0.3537691 -0.14717898 -0.2704401 -0.29342082 0.10815331 0.18974894 -0.060146473 -0.3557981
-0.3386885 -0.06360745 -0.19309889 0.053358294 0.10136958 -0.28089908 0.31263894 0.06428707
-0.23154792 -0.13291332 -0.2075565 0.306574 -0.12945572 -0.18085845 0.03728084 -0.31479982
-0.047203764 0.23083942 -0.039828423 0.20938551 0.095758334 0.2853528 -0.12315825 0.061836977
-0.11255709 0.25821283 -0.12549248 0.013066267 -0.009538666 -0.0474777 -0.1732164 -0.19096756
-0.32984737 0.14909838 0.025360245 -0.35947746 -0.073953174 -0.1473752 0.30184337 0.003496818
-0.07038994 -0.36988088 -0.18814678 -0.23975497 -0.2690205 -0.05497053 -0.0877462 -0.19319065
-0.21894266 -0.04567665 -0.12056098 0.31889346 -0.22388291 -0.20976461 -0.12429361 0.051973403

encoder.layers.0.linear2.weight f4 [8, 2048]
00000000: d89b 0b3d a824 3cbc 5b57 6ebc 87da 053b
00000010: 585b 5e3a 0599 133d e208 8cbc a842 2abc
00000020: fe19 ac3c 32b7 4f3d 34e8 2db9 87d9 283d
00000030: b770 cf3b 6f10 053d 883b 4c3d 2104 443d
00000040: c92a 6f3a 280c 7c3a e375 a93c 272d 15bc
00000050: c850 643d ebe6 0a3c ff64 c4bb 3343 533c
00000060: 1866 153b 0686 1a3d 643f f23b 75e2 b43c
00000070: 96d5 013d e0db 1b3b 6389 b93b 4c66 d43c
00000080: abdd 8b3c a65e 363c 0e98 ae3c e329 06bc
00000090: 38be 08bd dec8 703c bc8e 6dbc 2cb2 263d
000000a0: 68ad 0f3d c430 1c3d 3d28 b7bc 09c2 843d
000000b0: 62e7 5d3c 949a 3a3d 0320 253d 80b7 0b3d
000000c0: 4d77 433d 6935 92bc ba9d 6f3d 2279 bfbc
000000d0: 286d 3cbc 1328 c03c 105d c13c 908e 0d3c
000000e0: 41b3 473b 4eb9 f73c 81a5 c63c 84e6 053c
000000f0: 0d99 f53c 3212 ce3b d54d 093c 91f9 b33c
00000100: 056b d63c 5817 883c f20f 443d 9307 e43c
00000110: 48ee 083d bc3a c73c 7a89 4c3d 7ceb 3d3c
00000120: 66f0 e73c d26f 9c3b b0c6 a73c 1e17 5d3b
00000130: 307d c93b 6104 703b 3e19 a23c aecc 293d
00000140: 038f bfbc e1ef 753d 5d6b 4c3a 966f 1f3d
00000150: d641 b63c 8889 983c 8494 843c 4eb1 79bb
00000160: ecd2 2c3d ff77 ac3b dc33 f6bc e4cb 4b3d
00000170: 49a9 083c 609b ebbc e65e 36bb 33c0 883c
00000180: f747 dabc 9045 edbc a3f3 353d 54f2 11bc
00000190: 328a 0e3d 3f59 7abc c502 1c3b c5d4 ba3c
000001a0: 12a6 cd3a 2696 463d dcfb c6bb 9658 b9ba
000001b0: 9747 803c 964c d63c fe5f 833c 8867 8c3c
000001c0: d0a1 ecbb b0b2 96bb 7352 873d 02b5 c83b
000001d0: 1b06 7e3c 5d13 2b3d 133f 543d bda3 1c3d
000001e0: 8391 443d cf43 80bc 9ddc 053d ca6f a13c
000001f0: fbd8 fa3c 60f9 ff3c 81c5 aaba b366 f73a
00000200: 2917 dc3c b9ed 4b3d 6dae fc3c 4f35 f13b
00000210: ef38 c23c c20e dc3a aaef 6bbc ece7 983a
00000220: fb17 a6bc af25 643a 35cd d43c 6517 8a3a
00000230: 96cf 893c a46b 013d 5a99 f23b 2922 f23c
00000240: 57c7 f3b9 a85c 173d 8f74 27ba 1898 fe3c
00000250: a3c2 cb3c 8b91 233d aa6e 053d eded b73c
00000260: 13dd 1f3d 7f4a 1bbd 697f d5bc c471 beba
00000270: 7314 64bb 428c d83b ae10 09bc 299a 063c
00000280: 1f8e 303c 8a95 1c3d 8d92 1e3d 42b6 4e3d
00000290: 2fe0 813b 3f22 3f3c f2f1 8a3c b449 0e3c
000002a0: 123e 0d3d 839f 8fbc af52 2c3d aa03 613d
000002b0: e43d 563c 9e95 523d 030a 8e3d ea59 233d
000002c0: 6098 6dbc 9509 0fbc cec3 6c3b fa02 933d
000002d0: a5bd 303b 5ec3 4f3c f10d 56bc 104b 893d
000002e0: 9a39 213d 7c25 1c3d 4841 a8bc 48a2 973c
000002f0: 7560 d03b 4e04 83b9 fa18 323d 133d 373c
00000300: b66e 323c 20c1 ac3b 805b 043d 6d85 703d
00000310: 0fb2 223d 9825 a03b b6ce 043d cf04 08bd
00000320: be12 56bc 5f80 603c e98c 233d 1b28 863c
00000330: 16f0 0d3d 87b1 053d c97d 793c 9821 143d
00000340: 3d0f 71bb c1c3 1b3d d180 c5bc 171b 973c
00000350: b85b 9a3d 494f e73a 8bd3 a03c d1d6 d8bb
00000360: 71af 1f3d 55fc a33c b46a 8a3d 600d 5d3c
00000370: 4ccc 913c 71a6 9bbc e4af 2e3d fce6 863c
00000380: f2b5 103d 6a1d 973c 8e00 7d3d a8bb 073d
00000390: a8bb 5f3d 9cd7 063b c20e 9abb 177d eb3c
000003a0: 0d91 953d 8a4f 2a3d 2a7b 1a3b 3efd 403d
000003b0: 7a4f 0c3d e5f4 39bb 8768 223d e596 86bb
000003c0: faa9 423d 55c2 fa3c a99a 123c 7cb1 603c
000003d0: 3372 783d 3d97 083d 1337 853b 677d 06bd
000003e0: ba89 0a3d 5205 3b3d caf4 7b3d 59cb 173d
000003f0: 29d4 473d 4739 7bbb 8909 23bc f886 943d
0.03408417 -0.011483349 -0.014547194 0.0020424442 0.0008482239 0.036034603 -0.01709408 -0.010391869
0.021008488 0.050711818 -0.00016585068 0.041223075 0.0063305753 0.032486375 0.04986146 0.0478555
0.0009123502 0.00096148485 0.020686096 -0.009105003 0.0557411 0.008477907 -0.005993485 0.0128944395
0.0022796448 0.03772547 0.0073928107 0.02208064 0.031697832 0.0023782179 0.0056621297 0.025927685
0.017073473 0.011130964 0.02131274 -0.0081886975 -0.03338453 0.014696328 -0.014499363 0.04069726
0.035077482 0.038132444 -0.022358054 0.06482322 0.0135439355 0.045557573 0.040313732 0.034110546
0.047721196 -0.017847734 0.05850003 -0.02337319 -0.011500634 0.023456609 0.023603946 0.008639947
0.0030471834 0.030239727 0.02424884 0.008172635 0.029980207 0.00628879 0.008380373 0.021969588
0.026174078 0.016612694 0.04786677 0.027835643 0.033430368 0.024319999 0.049935795 0.011591788
0.028312873 0.004774072 0.020480484 0.0033735703 0.0061489567 0.0036623704 0.019787427 0.041454963
-0.023383623 0.06004322 0.0007797981 0.038924776 0.02224819 0.018620268 0.016184099 -0.0038100067
0.04219334 0.005263328 -0.030054025 0.049754992 0.008341142 -0.028760612 -0.002782756 0.01669321
-0.026645644 -0.028963834 0.044421803 -0.008907873 0.034799762 -0.015280067 0.0023805362 0.022806535
0.0015689752 0.048483036 -0.0060725044 -0.001414078 0.015659137 0.026159566 0.016036984 0.017139211
-0.007221438 -0.004598938 0.06607523 0.0061250934 0.015504385 0.041766513 0.051817965 0.03824209
0.047990333 -0.015657334 0.032681096 0.019706625 0.030621042 0.031246841 -0.0013028831 0.0018875211
0.026866512 0.049787257 0.030844891 0.007361091 0.023708789 0.0016789066 -0.014400402 0.0011665798
-0.020275107 0.0008703125 0.025976757 0.0010535537 0.016822618 0.031596795 0.007403535 0.029557304
-0.00046497092 0.0369536 -0.0006387913 0.031078383 0.024873083 0.039933722 0.03257624 0.022452319
0.039029192 -0.037912842 -0.02606173 -0.0014529754 -0.0034802228 0.006608517 -0.008365793 0.008215466
0.010776072 0.03822855 0.03871398 0.050466783 0.0039634923 0.01166588 0.016961072 0.008684564
0.034483023 -0.017532116 0.04207104 0.054935135 0.013076279 0.051412217 0.06935503 0.03988067
-0.014501661 -0.008730312 0.003612745 0.07178302 0.0026968506 0.0126808565 -0.013064847 0.0670377
0.039361574 0.038121685 -0.020538941 0.018509999 0.006359155 -0.00024989474 0.04348085 0.011183995
0.010890653 0.0052720457 0.032313824 0.058720995 0.03972059 0.004887294 0.032423697 -0.03320771
-0.013065992 0.013702481 0.039929304 0.016376546 0.034652792 0.032640006 0.015227743 0.03616485
-0.0036782764 0.038028482 -0.024109276 0.018445535 0.07537025 0.001764753 0.019632122 -0.006617405
0.038985673 0.020017782 0.06758633 0.013491958 0.017797612 -0.019000264 0.04264821 0.016467564
0.035329767 0.018446643 0.061768107 0.033137947 0.054622322 0.002057529 -0.0047014663 0.02874617
0.07303057 0.04157976 0.0023571947 0.04711651 0.034255482 -0.0028374728 0.039650466 -0.0041073435
0.047525384 0.030610243 0.008948007 0.013714191 0.060655784 0.033347357 0.0040654032 -0.032834437
0.033822753 0.04565937 0.061512746 0.03705916 0.048786316 -0.00383337 -0.009951004 0.07252306

encoder.layers.0.linear2.bias f4 [8]
00000000: a15e e53b 25f8 4a3c 2a26 d63b 7938 56bc
00000010: 2490 47bd 07e5 0d3c 0cda bb3c f8b0 2cbd
0.006999806 0.012388264 0.006535311 -0.013074988 -0.048721448 0.008660561 0.022931121 -0.042160958

encoder.layers.0.norm1.weight f4 [8]
00000000: 43e7 6e3f 7804 833f c007 8f3f a2cd 703f
00000010: d049 823f 5153 7f3f f89d 863f affe 7a3f
0.9332163 1.0235739 1.117424 0.9406377 1.0178776 0.99736506 1.0516958 0.98044866

encoder.layers.0.norm1.bias f4 [8]
00000000: 674e 0fbd d180 783c 6ee2 b33c c9de ba3c
00000010: 70a3 efbc eb70 1dbc 85ac 0f3d 4ec5 4fbc
-0.03498688 0.015167431 0.021958556 0.02281131 -0.029252738 -0.009609441 0.035076637 -0.012681318

encoder.layers.0.norm2.weight f4 [8]
00000000: cc31 7b3f 66e2 733f c2a6 8d3f 3062 6c3f
00000010: 4ab3 7f3f afd7 803f 95dd 7d3f cff2 8e3f
0.9812286 0.9526733 1.1066515 0.9233732 0.9988295 1.0065821 0.9916623 1.1167849

encoder.layers.0.norm2.bias f4 [8]
00000000: 1aa5 263c 06d5 3a3c c2b3 c33c eeac 153d
00000010: f763 dabb 9b70 053d 386e d73b eef0 44bd
0.010171199 0.011403328 0.023889426 0.03654187 -0.006664749 0.032578092 0.0065744184 -0.04808133

encoder.layers.1.self_attn.in_proj_weight f4 [24, 8]
00000000: 80cd 393e 25cb 86bd 750f 673e bdd2 f0be
00000010: 48f1 673e 3640 a93e ee3f 98be c07b 2ebd
00000020: 01dc 963c 8b4c 9fbd b6a7 a0be c990 173d
00000030: 9de1 143e 21e5 233e c636 90be 8ffa 243e
00000040: 3b2e 4dbe e27e ce3e a190 9a3e a478 503e
00000050: 790a 40be f8cb d13d 90be 013e a8c0 db3a
00000060: 17e0 a0bd cbcd 1abe 24d9 173e 69a9 b4bd
00000070: 82ec e4bd 1822 95be 438f 533e cccc a8be
00000080: 3614 b2be 27db 5f3e 096f 15be 5c64 a1be
00000090: bf8e c83e 44d7 48be d664 373c 3149 933e
000000a0: adcb 4dbe 12dc 4ebc 39f6 e33a 9438 80be
000000b0: db25 9abe dedb 3e3e aa16 a5bd aded ee3e
000000c0: 915e 10be b671 f1be 24e7 bdbd 9e79 adbd
000000d0: ab75 9c3e da10 22be 8843 42be f296 47be
000000e0: 1a65 aebc e99d a23d 354d 4ebc 8b55 563e
000000f0: 7210 eabe 9287 ecbe 2d0f 64bc c6cb 763d
00000100: 2cfb a2be 5838 573e 0cdf 6ebe fa5c d5be
00000110: 69f7 153e 3b63 52be 7582 dfbe 7382 c23d
00000120: 4c74 c63e 6828 57bd b67b e9be 903f fabd
00000130: 1035 efbd 07ea 8abe 8820 e23d 1eda ba3e
00000140: 83a6 b23e cde2 e53e 509f e53c efd5 8abe
00000150: 5979 58bd 9020 b0be 7016 983e 38b3 69bd
00000160: b288 8d3e ac09 27bd a279 c5be cc64 c03e
00000170: a05b 86be 2c7f 1e3c 9274 78be 69b3 313d
00000180: 6334 debc 1e3b 7bbe 4d74 1fbe 7667 d6be
00000190: 4f27 fc3c 29f7 103e 84f7 cbbe 089b c23d
000001a0: 26aa b5be ef3c ba3e b42f 843e 0e88 fd3d
000001b0: 8b80 3c3e 9a61 20be 3981 48be db07 f13e
000001c0: 3b24 6bbe 90f2 bdbd 1534 9d3e b421 733d
000001d0: 0d66 9abe d0c6 c83e 5cbb cf3e 0658 ef3d
000001e0: 8334 7a3e e6d0 57bd 1ce5 1bbe a621 57bd
000001f0: 335a c03d ccf6 8c3e d2bb 98be 5faa 0d3e
00000200: bd4a a73e 88e5 0bbe 6643 8e3e d1a4 623e
00000210: 9534 6ebe 7b53 e6be d986 1bbe ea12 5cbe
00000220: f15c db3e 2460 e83e 67fd d33c ff58 7fbe
00000230: 72cd 413e 7935 b23e 6bb2 9e3e 095b b3bb
00000240: 8da3 973e a155 babc eba0 a13e 137a c9bd
00000250: 76be 223e 2bcc 50be 5d61 6f3e 613d 63be
00000260: 3b38 6dbe fbf8 28be 6c9e aa3d e793 4abe
00000270: 4eda 7bbe af44 163e 42c4 483e 0a3f 403e
00000280: 4183 aa3e c088 a63e 2529 af3e 734f a63e
00000290: 1183 debe 0e27 97be 8101 a3be f5c2 9ebe
000002a0: 3258 0ebe 9e36 6ebd e81a 35be 10d5 03be
000002b0: 811d 33be 91b6 82be 7bc8 fb3d 3444 043d
000002c0: 7759 a7bc 769d 1c3d e728 273d 42dd 32be
000002d0: d9a7 74be b8fe 46bd fdb3 9c3e 85d7 e8be
000002e0: 77ae 95be f883 043e 0ec6 7ebe 613f 373e
000002f0: 02d8 be3e d96b cc3e be35 ce3d ac8d 9b3e
0.18144798 -0.065817155 0.2256449 -0.4703578 0.22650635 0.33056802 -0.29736274 -0.042598486
0.018415453 -0.07778271 -0.31377953 0.037003312 0.1453919 0.16005374 -0.2816679 0.16111206
-0.20037167 0.4033118 0.30188468 0.20358521 -0.18753995 0.10243982 0.1267035 0.001676579
-0.07855242 -0.15117566 0.14828926 -0.08821375 -0.11177923 -0.29127574 0.20660119 -0.32968748
-0.34781045 0.21860944 -0.14593138 -0.3152188 0.39171407 -0.19613367 0.011193475 0.28766778
-0.20097227 -0.012625711 0.0017392106 -0.25043166 -0.30107006 0.1863856 -0.080609635 0.46665707
-0.14098574 -0.47157067 -0.09272602 -0.08470462 0.30558524 -0.15826741 -0.18971074 -0.19491175
-0.021288443 0.07940275 -0.01259165 0.2093107 -0.45715672 -0.46197182 -0.013919634 0.060252927
-0.31832254 0.21017587 -0.23327273 -0.41672498 0.1464516 -0.20545666 -0.43654218 0.094975375
0.38760602 -0.05252877 -0.45602196 -0.12219155 -0.11680043 -0.27131674 0.11041361 0.36494535
0.34892663 0.44899598 0.028030068 -0.27116343 -0.0528501 -0.34399843 0.29704618 -0.057055682
0.27643353 -0.04078071 -0.3856936 0.37576902 -0.2624178 0.009673875 -0.24263218 0.04338399
-0.02712459 -0.2453427 -0.15571709 -0.4187581 0.030780463 0.14156784 -0.39837277 0.09502226
-0.35481375 0.36374614 0.25817645 0.12379466 0.1840841 -0.15662232 -0.19580545 0.47076306
-0.2296304 -0.09274781 0.30703798 0.059358314 -0.30155984 0.39214182 0.4057263 0.11686711
0.24434094 -0.052689455 -0.15224117 -0.052522324 0.09392204 0.2753204 -0.29830796 0.13834523
0.32674208 -0.13661778 0.27785796 0.22133185 -0.23262246 -0.44985566 -0.15188159 -0.2149159
0.42844346 0.4538585 0.025877668 -0.24936293 0.18926027 0.3480642 0.30995497 -0.0054734987
0.29616967 -0.02274591 0.31568083 -0.09837737 0.15892968 -0.20390384 0.23376985 -0.22191383
-0.23165981 -0.16501229 0.08330998 -0.19782983 -0.24594995 0.14674638 0.19606116 0.18774047
0.33303264 0.32526207 0.34211078 0.3248249 -0.4345937 -0.29521984 -0.31837085 -0.31008115
-0.13900831 -0.058157556 -0.17686045 -0.12874246 -0.17491724 -0.25529912 0.12294098 0.032291606
-0.020428402 0.038236104 0.040810492 -0.17467216 -0.23892154 -0.048582762 0.3060607 -0.45476928
-0.2923467 0.12940967 -0.2488024 0.17895271 0.37274176 0.3992603 0.10068844 0.30381525

encoder.layers.1.self_attn.in_proj_bias f4 [24]
00000000: a14a 393d 3cd3 413d ba46 693c 6696 313b
00000010: 4d84 b43b fa6c a53c 5f50 eabc 208c 563d
00000020: 0f72 1cb4 3841 37b4 cd5a fab4 9b8b 22b4
00000030: d06d abb3 5006 2333 03ec da35 ba79 02b6
00000040: d57f 72bd 5048 cf3c 028b 6dbd 80e9 b9bd
00000050: 1c6b 193d 213e c7bd 10a5 573d 160f b53c
0.045237187 0.04732059 0.014238054 0.00270977 0.0055089355 0.020193566 -0.028602777 0.052379727
-1.4570126e-07 -1.706693e-07 -4.6632195e-07 -1.5138214e-07 -7.982783e-08 3.7957136e-08 1.6310954e-06 -1.9442364e-06
-0.05920394 0.025303036 -0.057993896 -0.0907774 0.037455663 -0.09728647 0.05264765 0.02210192

encoder.layers.1.self_attn.out_proj.weight f4 [8, 8]
00000000: 28b3 14be 7a04 243b 26cd 313e 6e60 a0be
00000010: 8902 923d f5bc 2bbe 1bad febd 4226 993b
00000020: 470d 803e 9b81 8cbe af5b 713d aabd 9b3e
00000030: 8a64 153e 6db0 313e 0e45 25be 8f2f 3b3e
00000040: 0d9e 18be b92d 8f3e 8361 92bd 1b36 283e
00000050: 8938 2f3e 8c72 dbbd fc08 c73e 41db c4be
00000060: fca9 9abd 5d77 66bd c8a4 833e 6ea6 1fbe
00000070: 4e45 b33e abff 1bbe d993 3c3d ad83 adbd
00000080: 8d3b 4ebd a6b6 55be 54f8 f13d 5e0e 243e
00000090: 3eaf a0be c347 9c3d 337f 39be e79c 9cbd
000000a0: 1de5 cbbd 4e9c 943e 8e40 ab3e dbf3 3dbe
000000b0: d10d 943d 8912 543d 566c cb3e fa23 873d
000000c0: 97eb 7a3e 77f9 2dbe e885 cabd 53a7 073e
000000d0: d95e 70be 12e1 283e 3a36 013e f7d0 afbe
000000e0: 5155 48be b35c 823e 9118 3a3e 187f 933c
000000f0: e6f8 b6be e677 6f3e b4c3 a4be f771 6fbe
-0.14521468 0.0025027082 0.17363414 -0.3132357 0.0712939 -0.167713 -0.12435361 0.00467375
0.2501013 -0.2744263 0.058925327 0.3041814 0.14589134 0.17352457 -0.16139624 0.18279861
-0.14904042 0.2796457 -0.07147505 0.1642689 0.1711141 -0.107152075 0.38874042 -0.38448527
-0.07551953 -0.056266177 0.25711656 -0.15590832 0.35013813 -0.15234248 0.046039436 -0.08472381
-0.05034976 -0.20870456 0.11814943 0.16021106 -0.313837 0.07630875 -0.18114929 -0.07647114
-0.09955809 0.290255 0.3344769 -0.18550055 0.07229198 0.05177549 0.3973109 0.06598659
0.24503933 -0.16989695 -0.09888822 0.13247423 -0.23473682 0.16492108 0.12618342 -0.34339115
-0.19563796 0.2546135 0.18173434 0.018004939 -0.3573677 0.23385581 -0.3218056 -0.23383318

encoder.layers.1.self_attn.out_proj.bias f4 [8]
00000000: a7f0 25ba 7f84 d2bc 7c55 993d 4d63 393d
00000010: 1ea1 33bd 9e23 333d a190 973c 0ded a0bd
-0.00063301105 -0.025697945 0.07487008 0.045260716 -0.043854825 0.04373514 0.018501582 -0.07857714

encoder.layers.1.linear1.weight f4 [2048, 8]
00000000: b79c f33b c275 2abe d254 643e c49a 8bbe
00000010: 1898 2e3e f78f 723e 4362 bcbe 6305 b63d
00000020: 06c8 8a3e 0ca5 c1bd 5eed 70be 6589 6c3e
00000030: 7b8f 4abe 8afc 1bbe 0dc8 323e df70 00be
00000040: 3cb1 473e 9588 9b3e daff 15be 72ba 1abe
00000050: a59e 12be cf3c 4cbe dfb4 a8be 18e2 3cbe
00000060: a718 853e fda9 133e bef6 a6be c604 09be
00000070: f49d cfbc facc 89bd 7698 173d 3458 04be
00000080: d261 203e f40b 89be d96c 333e 1391 0abd
00000090: 08d4 a63e 6524 373e 12ec 173e 7e70 0abe
000000a0: 360d 1d3e 8f02 643e e10a b1be 04fa 3e3e
000000b0: cf8e a13e 45ba 70be 54f0 84be 2ad6 383e
000000c0: 1de2 403e 4ed4 8c3e 8515 dc3b 16a9 1fbc
000000d0: 20df 903d 3873 a7be 9a7f c63d ac24 30be
000000e0: 57d7 69bd 8bf7 acbd 0b7a 5f3e cfcf 5e3e
000000f0: 8c64 803e e862 91be 9143 743e 111f 39be
00000100: a05e 2d3e 7429 14be f742 9b3e 4e9e 0abe
00000110: eae6 c0bd 7378 aebe 31de 78be 0ede 8d3e
00000120: 7a6c 90be 3740 15be dcdf 303e 430a ce3e
00000130: 0fb6 bbbe 9905 4b3e 1ff9 2f3e 4f1e 813d
00000140: 633a cc3d de5f 4d3e 67bb a93d 0c11 233e
00000150: 1ed9 e33d a4ef 3abd 4ec4 3e3e 4553 27bd
00000160: 6187 d0be 8a6f 5abb 493d 92bd de11 d5bd
00000170: 6ecd 9e3e 4cc3 5bbd 1246 91be 4530 a43e
00000180: d938 393e df6d 2ebe 818c 8b3e a68a 69be
00000190: 012d cebe fe28 b63e 2ce9 25be e4ae a9be
000001a0: d4e0 80be dcb9 2f3e ee42 de3d 61ac 7f3e
000001b0: 8412 b1be 9359 90be 8ac1 a63d f50c 733e
000001c0: 343c a6be 7387 2abe a3a1 b5bd 00da 2bbd
000001d0: 3938 073e f7dd 5b3e a42e 66be 54dc 9e3d
000001e0: 35ed 6f3d 9ffd 59be 1906 b2be 7d82 533e
000001f0: c91b 153e 93f6 b2be 7f11 3abe cb56 953e
00000200: 84ba 393e 75c0 8abe 50a2 823e eba3 40be
00000210: afcd 903e 7b77 ec3d 691d b9be c06a 46be
00000220: 119c 05bd 32b7 ca3d 1c57 a6bc dcbd 7cbd
00000230: a309 a93e 954a a13d ce66 8f3e 79e6 e43c
00000240: 7fcd e9bd c32b 893e e8ba aabe 182d aabe
00000250: bc2f 85be 521f 9abe b9a6 c1be 1230 26bd
00000260: 360c 9e3e 2994 b73d f077 ad3e 8c69 99bc
00000270: dcd9 45be e660 b93e c174 c13d 052b b13d
00000280: 62f0 8e3e 6f99 7e3e 2f3b f3bd c84a bcbd
00000290: 286e fdbd 4226 973e d250 ffbd 35e7 013e
000002a0: 6376 15be 3ea1 98be d233 52be 1045 61bd
000002b0: 5597 ca3c 98ef 283c 5519 98be 829d 24be
000002c0: b1b6 f03d 6820 4e3e c809 bb3e 991f a13e
000002d0: d422 693e b56f 103e 088c a7be 60b1 d9bd
000002e0: 2c0f a03d 93d5 3e3e 8c21 f7bd 7897 4d3e
000002f0: 5e01 22be 0f03 353e 0fa8 4f3e d8c7 14be
00000300: 6d75 9f3e e9e8 d83c f35c 463e 1888 b93e
00000310: 9ce0 47be 7392 aebd f68b 29bd 17a3 833e
00000320: 2880 aebc 8778 e8bd 102c af3e b1f7 b0be
00000330: 1202 413e 88ed 93bd f608 63bd 6d55 bb3e
00000340: 3935 b8bc f125 253e 3545 05bd 7b06 b5bd
00000350: 51f4 963c bf1b 11be 3e5c a33e 338b 20be
00000360: 0d6a 20bd 855c acbd dc06 83be ea43 22be
00000370: 6d01 173e a7f1 b5be f329 d3bd d93d acbe
00000380: c935 14be 48da 14be 3925 323e dce1 8abe
00000390: c889 8a3e d967 db3c 0f0d cdbc ea33 843c
000003a0: e60e 62be c272 983e 0790 d6bb 186b 0abd
000003b0: edf7 993d bef6 aa3e d2b1 9cbd 4a7b 05be
000003c0: e5c9 cbbd cf75 283e 60c2 3b3e c7c9 25be
000003d0: 515f e5bd 8aaa a63e 60b3 653b 2833 50be
000003e0: 3591 3b3d b022 923d d6e9 cebd 0f43 85be
000003f0: 10cd fdbd dd73 6c3e 7f8e 0e3e d142 183d
0.0074344533 -0.16646484 0.22297981 -0.27266514 0.17050207 0.2368773 -0.36793718 0.08887746
0.2710573 -0.09455308 -0.23528048 0.23099287 -0.19781296 -0.15233055 0.17459126 -0.12543057
0.19501203 0.3037764 -0.14648381 -0.15110186 -0.1431833 -0.19945072 -0.32950494 -0.18445623
0.2599537 0.14420314 -0.32610124 -0.13380727 -0.025343873 -0.06728549 0.037010632 -0.12924272
0.15662315 -0.26766932 0.17521991 -0.03382976 0.32583642 0.17884977 0.14836147 -0.13519475
0.15337071 0.22266601 -0.34578612 0.18650061 0.31554267 -0.23508556 -0.25964606 0.18050447
0.18836255 0.27505726 0.0067164325 -0.009744903 0.07073808 -0.32705092 0.09692307 -0.17201489
-0.05709013 -0.084456526 0.218239 0.2175896 0.2507671 -0.28395772 0.238539 -0.18078257
0.16930628 -0.14468938 0.30324528 -0.13536951 -0.09419043 -0.3407627 -0.2430351 0.27708477
-0.2820776 -0.14575277 0.17272896 0.40242204 -0.36662337 0.19826354 0.17184876 0.06304609
0.09972074 0.20056102 0.08287697 0.15924472 0.11125396 -0.045638695 0.18629572 -0.040850896
-0.40728286 -0.0033330643 -0.071405955 -0.104037985 0.31016105 -0.053653046 -0.28373772 0.32068077
0.18088092 -0.170341 0.27255633 -0.22806796 -0.4026871 0.3557815 -0.1620223 -0.33141243
-0.2517153 0.17160743 0.108526096 0.24968101 -0.3458444 -0.2819334 0.081423834 0.23735411
-0.32467806 -0.16653232 -0.088687204 -0.041955948 0.13205041 0.21471392 -0.2247873 0.07756868
0.058575828 -0.21288155 -0.34770277 0.20655246 0.1456138 -0.34953746 -0.18170737 0.2916778
0.18137556 -0.27099958 0.2551446 -0.1881253 0.28281924 0.115462266 -0.3615525 -0.1937666
-0.03261954 0.09898223 -0.020305209 -0.0617045 0.33015165 0.078755535 0.2800812 0.02794193
-0.114161484 0.267912 -0.33345723 -0.3323753 -0.2601298 -0.3010202 -0.37822512 -0.040573187
0.3086869 0.08963806 0.33880568 -0.018727086 -0.19321388 0.3620674 0.09446097 0.086507834
0.27917773 0.24863218 -0.11876523 -0.09193951 -0.12374526 0.29521376 -0.12466587 0.12685855
-0.14595942 -0.29810518 -0.2052758 -0.054997504 0.024730364 0.01031103 -0.29706827 -0.1607571
0.117535956 0.2012955 0.365309 0.3146942 0.22767192 0.14105113 -0.32724023 -0.10629535
0.07815394 0.1863616 -0.120669454 0.20077312 -0.15820834 0.17676948 0.20278953 -0.1452936
0.31144276 0.026478248 0.19371395 0.36236644 -0.19519275 -0.08524027 -0.041393243 0.25710365
-0.021301344 -0.11351114 0.34213305 -0.34563974 0.18848446 -0.0722304 -0.055428468 0.36588612
-0.022486316 0.16127755 -0.032536704 -0.08839127 0.018427046 -0.1417074 0.31906313 -0.156781
-0.039163638 -0.08416084 -0.2559117 -0.1584622 0.14746638 -0.3553593 -0.103107356 -0.33640936
-0.14473642 -0.14536393 0.17397012 -0.27125442 0.27058244 0.026782917 -0.02503064 0.016138036
-0.22075996 0.29775053 -0.006547931 -0.03379354 0.07517991 0.33391374 -0.07651104 -0.13035312
-0.09950618 0.1645119 0.18335867 -0.16190253 -0.11199821 0.32551986 0.0035049543 -0.20332015
0.045792777 0.07135522 -0.101031944 -0.26027724 -0.12392628 0.23091073 0.13921545 0.037173096

encoder.layers.1.linear1.bias f4 [2048]
00000000: cac7 463c 0063 7d3e 54ef 14bd 833c 023e
00000010: c974 b2be 133b 133e 3b9e 9c3d 89e2 cfbd
00000020: 62ab 5db9 333c 773d 576e 793e 3015 863e
00000030: fcd0 543e c255 46be 7423 3fbd b025 03be
00000040: 57d1 023d 7782 86bc 33e9 ba3d 3707 7cbd
00000050: 953f a43e a5b6 603e 2ee0 d8bd 0733 663e
00000060: 1e9c 87be 351f 14be 147f 0b3d 428b eabd
00000070: da0a 61be 30c2 54bd a513 b23e db2c 6e3e
00000080: c9bd b8be 1010 7b3e 9055 113e 462b 573e
00000090: 0ed7 4abe cc57 b6be 0771 943d 5cca 3e3e
000000a0: 7bd0 78be 86c4 aebe 0693 c13d 6fdd febc
000000b0: 5564 763e 2281 57be b1c2 78be dfae 17bc
000000c0: ad0d 0cbe 0125 c83e 183a a5be 49cd c23e
000000d0: 90bf 62be 661e 993d 6efb 0b3e 3cdc a83e
000000e0: dd0c 1a3e 6e4c 96be 543a 15be 8a98 8c3d
000000f0: 312a 05be cc07 8abe c11d 193b 37eb 68be
00000100: 4bf5 343e 111b 5dbd 3dc6 4d3e 35c9 70be
00000110: cb1f 6a3d b514 a8bd 377f 72bd 4ce0 9c3e
00000120: 9c1b 9fbe e9ec 0fbe 2706 bc3d 8a9a 9a3e
00000130: 012e babe 048f 67be 3385 fcbd 0a3f 993e
00000140: 1ed7 cbbd e47e a63e 35b4 b2bd 902e 9ebe
00000150: dc19 aa3e f35a 9cbe 7122 163d 1011 dd3d
00000160: 980a 7d3e d55f acbe 1c99 9dbe 88cf 943e
00000170: 7d6b 4bbe ab4c 003e 207d 913d 0a77 1abe
00000180: ddb9 2b3e 3f00 9a3d 1b19 8f3d 84da 5b3e
00000190: 1f3d 4abe 5700 6dbe 0475 a4be 6188 2b3e
000001a0: 5198 783c caae f4bc f37a be3d ee11 b83d
000001b0: 741b 6cbe de5f a3be da5a 95be e199 c33b
000001c0: 34b9 4bbe e967 523d d679 85be 7539 a43d
000001d0: e83e 2f3e 18a9 0c3e c5d1 05be 118a c03d
000001e0: 1873 963e da1f f2bd ea3a 25bd 6fd7 7abd
000001f0: 5450 7a3e b926 383e 63fc 32be 98cc 46be
00000200: fa94 6ebe c6ba 76be 180a 41be 970e 0a3d
00000210: 726a a2be dea8 423c 377d 2f3e 96f9 60be
00000220: ac18 e2bd 370e 0f3e 2af8 b83d 37cf 9ebe
00000230: eaf1 26be 315a 3fbd 1c7b c63b 6575 6f3e
00000240: db17 95be 835b a63e f443 d03d 5f42 123e
00000250: ed91 483e 9b9b 0dbe ad7b f53c c3fb 3a3e
00000260: fc84 343e 2eb2 abbe 51f7 7c3e 90ad 2f3e
00000270: cba1 76be f283 2c3e 5216 683d 1ae8 463c
00000280: 75d4 6f3e 01cd 37bd 6092 4ebe 24f8 703e
00000290: 98b7 733e 364f e4bd 2be7 53be c1b8 5cbe
000002a0: 066a 303c 4e1a 613e 1918 4c3d 3f3e 673e
000002b0: dada aabd 4c93 6dbd a600 8cbe 0eac 683e
000002c0: 1037 3b3e 768d 843e 89b1 38be 6432 53be
000002d0: eafa 49bd 25eb 9dbe fc99 dc3d ef06 95be
000002e0: 307f 803e c41f 9d3e 2895 963e 077c 71be
000002f0: ea9c 6e3e 61ab 80bc 8fbe 7c3e 2b5d 953c
00000300: 754f b6be e00c 9bbd c9dc 93be ced5 9fbe
00000310: 8791 123e 5417 e33d 84fb 80bd 8f27 62be
00000320: 459c bfbe 0cf1 70bd 15e3 41be 5363 b53d
00000330: 1ee8 943d 8902 82be 907f a13e 750a 873d
00000340: 1d47 89be bd72 13be c512 8cbe 0393 843e
00000350: 6013 1dbe 2aff 6dbe a3dc 793c d00b 30be
00000360: 56cb 41bd 4e92 5b3e d7ec 37bd ba6b 643e
00000370: 35b3 013e 4faf aa3e 42d2 e6bd 67c3 1a3b
00000380: d1c8 aebd d268 803e 86f8 4dbd 5baa bc3c
00000390: 31af 343c 2f65 a0bd 5880 47be b1f6 3cbe
000003a0: 9ece a5be ba3e 1b3e 0dc8 943d 0211 b2be
000003b0: 5532 10be ad40 1dbe 2769 813e 0625 41bd
000003c0: 1000 11be 97aa b3be ea64 02be 774e 43be
000003d0: 1a47 a7be 394a bfbd af68 1dbe bca1 0cbe
000003e0: 4243 5ebe 6563 c2bd 2ab9 1abe 094e 943e
000003f0: 6bbe 70be bfbf 67be a536 05be 855e 193d
0.012132594 0.24744797 -0.036361054 0.12718396 -0.34854725 0.14378004 0.076473676 -0.1015063
-0.00021140047 0.060360145 0.24358498 0.2618804 0.20782846 -0.19368652 -0.04666467 -0.12807345
0.031937923 -0.016419632 0.091265105 -0.061530318 0.3207976 0.21944673 -0.10589634 0.22480403
-0.26486295 -0.1446503 0.034056738 -0.114523426 -0.21976796 -0.051943004 0.34780613 0.23259299
-0.36082295 0.24517846 0.14192796 0.21012601 -0.198086 -0.3561386 0.07248121 0.18631881
-0.24298279 -0.3413431 0.094518706 -0.031111447 0.24061711 -0.21045354 -0.24293019 -0.009258001
-0.13677092 0.39090732 -0.32270885 0.38047245 -0.22143388 0.07476501 0.13670132 0.32980525
0.1504397 -0.29355186 -0.14573032 0.06865032 -0.13004376 -0.26959074 0.0023363682 -0.22745977
0.17671697 -0.05398089 0.20095153 -0.23514254 0.057159226 -0.082070746 -0.059203353 0.30639875
-0.31075752 -0.14055218 0.09180861 0.3019603 -0.36363223 -0.2261315 -0.12330093 0.29930907
-0.0995314 0.32518685 -0.08725778 -0.308949 0.33222854 -0.3053814 0.03665394 0.1079427
0.24711072 -0.33666864 -0.30780876 0.29064584 -0.19865222 0.12529247 0.07103944 -0.15084472
0.1677012 0.07519578 0.0698721 0.21470076 -0.19749878 -0.23144661 -0.32120526 0.16751243
0.015173034 -0.029868502 0.093007945 0.08987795 -0.23057348 -0.31909078 -0.29170877 0.0059692715
-0.19894868 0.051368628 -0.26069516 0.080187716 0.1711384 0.13736379 -0.13068302 0.09401334
0.29384685 -0.118224815 -0.040339388 -0.06124061 0.24444705 0.17983522 -0.1747909 -0.19413984
-0.23299018 -0.24094686 -0.18851507 0.03370532 -0.31721836 0.011881081 0.1713761 -0.2197021
-0.11039862 0.13970266 0.090317085 -0.31017467 -0.1630322 -0.046716873 0.0060571562 0.23384626
-0.29119763 0.32491693 0.10169211 0.14283131 0.19586916 -0.1382889 0.0299662 0.18260102
0.17628855 -0.33534378 0.24703719 0.17156053 -0.24085157 0.16847208 0.05666191 0.012140298
0.2342089 -0.04487324 -0.20173025 0.23532158 0.23800504 -0.11147921 -0.20693652 -0.21554853
0.010767465 0.2198269 0.04982767 0.22582339 -0.08342524 -0.0580018 -0.27344245 0.22721884
0.18282723 0.25889176 -0.18036474 -0.20624691 -0.049311556 -0.30843464 0.10771558 -0.29106852
0.25097036 0.30688298 0.29410672 -0.23582469 0.23302045 -0.01570672 0.24682067 0.018232903
-0.35607496 -0.07570815 -0.28879383 -0.31217808 0.14313327 0.11088434 -0.06297973 -0.22085403
-0.37423912 -0.05882363 -0.18934281 0.08856835 0.07270835 -0.2539256 0.31542635 0.065937914
-0.26812068 -0.14399238 -0.2735807 0.2589341 -0.15339422 -0.23241869 0.015250358 -0.17192006
-0.047313057 0.2144253 -0.044903602 0.2230672 0.12666018 0.33336875 -0.11270572 0.0023615004
-0.085343964 0.25079972 -0.05028584 0.02303045 0.011028097 -0.07831799 -0.19482553 -0.1845348
-0.323842 0.15160647 0.07264719 -0.347786 -0.140817 -0.15356703 0.25275537 -0.04715445
-0.1416018 -0.35091087 -0.12733808 -0.190729 -0.32671434 -0.09340329 -0.15371965 -0.13733572
-0.21705344 -0.09491614 -0.15109697 0.28965786 -0.23510139 -0.22631739 -0.13009126 0.037443656
