results/spinning_top/model_best_corrected.pt (torch, 877154 bytes, 90 tensors)

encoder.layers.0.self_attn.in_proj_weight f4 [24, 8]
000000 8c 2e 24 3e e4 06 a5 bd c9 f6 83 3e a7 7a d3 be
       0.16033381 -0.08057955 0.2577422 -0.41304514
000010 e9 c1 2c 3e c4 2b a1 3e 74 07 91 be bc f8 51 bd
       0.16870846 0.31478703 -0.28326 -0.051262602
000020 50 d3 61 ba 3b 00 bf bd de f2 86 be 67 c1 a3 3d
       -0.0008614557 -0.09326216 -0.26357168 0.07995873
000030 47 b0 cb 3d b6 57 22 3e bb 68 86 be 00 86 2a 3e
       0.099457316 0.15853772 -0.26251778 0.1665268
000040 47 d6 38 be 17 96 b1 3e 06 ba 90 3e 26 4a 4b 3e
       -0.1805049 0.34684822 0.28266925 0.19852504
000050 bc 3f 4a be 78 ef f0 3d 2f 12 0f 3e ea 25 12 bd
       -0.19750875 0.11764425 0.1397178 -0.03568069
000060 43 f7 8a bd 71 21 0c bd 72 ab 40 3e a2 71 44 bd
       -0.06785443 -0.03421158 0.18815401 -0.04795993
000070 b7 8e 0c be 1a 83 99 be 95 8a 85 3e 21 2a a2 be
       -0.13726316 -0.29982835 0.26082292 -0.31672767
000080 f1 0c b0 be 11 0b 3b 3e 90 fa f3 bd f1 cf a3 be
       -0.34384874 0.1826594 -0.119130254 -0.31994584
000090 85 6f b0 3e 94 fd 34 be da 54 d8 3c 49 4c 81 3e
       0.34460083 -0.17674857 0.026407648 0.25253513
0000a0 64 3d 3f be 54 37 2f bd 51 b5 6a 3c 17 5f 6e be
       -0.18675762 -0.042777374 0.014325456 -0.23278461
0000b0 cd a2 97 be 9d fd 48 3e c8 87 ae bd 03 ef fb 3e
       -0.29616395 0.19627996 -0.08521992 0.4920579
0000c0 ee 5e 3f be 58 b1 d5 be 63 c4 96 bd dc 60 95 bd
       -0.18688557 -0.41736865 -0.073616765 -0.07293865
0000d0 f1 97 55 3e 8a 2f 82 be 2a 4b 32 be 87 5c 82 bd
       0.20858742 -0.25426894 -0.17411485 -0.063653044
0000e0 a7 82 13 bd b2 f1 9a bc 0b 55 73 bd b3 37 1a 3e
       -0.03601327 -0.018914077 -0.059407275 0.1506031
0000f0 92 cd cb be fd a7 c5 be b6 b6 22 bd 92 f1 4e bb
       -0.39805275 -0.38604727 -0.039725028 -0.0031577093
000100 e5 ef 9c be a1 29 7e 3e a5 29 7e be 8b 2e c4 be
       -0.30651775 0.24820568 -0.24820574 -0.3831676
000110 58 ec 19 3e 65 a8 6f be e6 60 d9 be f2 53 95 3d
       0.15031564 -0.23404081 -0.4245674 0.07291402
000120 c9 10 ad 3e 12 8f 01 3d df 08 d0 be 1d 17 80 bd
       0.3380187 0.031630583 -0.40631768 -0.062544085
000130 b3 41 20 be 47 19 85 be 43 df 2c 3e e5 2d 8e 3e
       -0.15650062 -0.25995848 0.16882043 0.2776939
000140 60 9e c7 3e 6e 8e d4 3e b1 2a 02 3c 00 b8 8e be
       0.38988018 0.41514915 0.007944749 -0.27874756
000150 e1 11 32 bd f4 7a b1 be 1a 4a 89 3e 07 b0 21 bd
       -0.043474082 -0.34664118 0.26814348 -0.039474513
000160 9f 35 9f 3e cd 5a 20 bd ab 8b ca be 8d f2 c0 3e
       0.31095597 -0.039149094 -0.39559683 0.37685052
000170 3c ff 6d be 38 35 66 bb 70 da 88 be 64 cc 54 3d
       -0.23241895 -0.0035126936 -0.26729155 0.051952735
000180 9e 90 73 bd df e7 39 be aa c4 9e bd 80 27 bb be
       -0.05946409 -0.18154858 -0.077523544 -0.36553574
000190 b3 b9 46 bb 4e b0 36 3e 4e fd ac be 1a ab 2a 3b
       -0.0030323088 0.17840692 -0.33787006 0.0026041926
0001a0 6c 53 c2 be 78 d6 cc 3e 91 34 9e 3e e1 a9 15 3e
       -0.3795427 0.40007377 0.3089948 0.14615585
0001b0 d7 d4 15 3e f8 ac 00 be d7 6c 1b be 0f f0 c6 3e
       0.14631973 -0.12565982 -0.15178238 0.38855025
0001c0 94 90 1e be b0 26 1a be d8 6c 68 3e 96 14 c1 ba
       -0.1548484 -0.1505382 0.2269777 -0.0014730867
0001d0 da c9 69 be ac a2 b7 3e 45 9e af 3e 0e 39 56 3e
       -0.22830907 0.35866296 0.34300438 0.20920202
0001e0 98 a1 16 3e f2 94 6a 3c 96 61 86 bd f8 2d 59 3c
       0.1471008 0.014317738 -0.06561582 0.013255589
0001f0 0f 30 c9 3c df 7e a1 3e dd 34 5b be 48 7c 15 3d
       0.024559049 0.31542107 -0.21406884 0.036495477
000200 16 ac c0 3e 76 61 b6 bc 86 76 f3 3e 3f e6 91 3e
       0.3763129 -0.02226327 0.47551364 0.28495976
000210 01 f4 a2 be 3a 04 bd be 37 a6 73 bb 86 f8 9b be
       -0.31826785 -0.36917287 -0.003717793 -0.30463046
000220 39 9d c5 3e c8 a1 b9 3e f0 56 44 bd c6 81 9b be
       0.38596514 0.36256242 -0.047934473 -0.30372447
000230 01 63 4d 3e b6 ae b5 3e a5 f9 8b 3e 1c 27 75 bc
       0.20057298 0.35484856 0.273389 -0.014962938
000240 d2 ed 98 3e 4e 6a cb bd ac 7b 9f 3e 54 2b 0c be
       0.29868942 -0.099323854 0.31149042 -0.13688403
000250 06 8a 6b 3d ab 19 60 be d4 cc 4d 3e e2 02 89 be
       0.057504676 -0.21884792 0.20097667 -0.26760012
000260 06 51 0f be e6 63 6c bc 03 42 a2 3e 83 a0 1a be
       -0.13995752 -0.0144281145 0.31690988 -0.15100293
000270 f1 40 77 be ec 00 74 3e 42 2b aa 3e dc d5 00 3e
       -0.24145867 0.23828477 0.33236128 0.12581581
000280 14 5f 99 3e 64 20 bd 3e 2b cb 9f 3e 6f e7 c5 3e
       0.2995535 0.36938775 0.31209692 0.38653132
000290 13 c8 d0 be c8 a7 97 be ad 78 b4 be 4b b6 99 be
       -0.40777645 -0.29620194 -0.35248318 -0.3002189
0002a0 04 84 62 bd 62 b9 e0 bc 8c 60 96 bd 8a 18 39 be
       -0.05530168 -0.027432147 -0.073426336 -0.18075767
0002b0 0c 65 6d be a2 9c 62 be 63 91 2d 3e 5a 50 95 bb
       -0.23183078 -0.22130063 0.16949992 -0.004556698
0002c0 8d ce aa bc 60 18 23 3d 44 ac f0 bc b8 85 18 be
       -0.020850444 0.039818168 -0.029379018 -0.1489476
0002d0 83 b6 1e be 82 db 46 bc b4 bd 9d 3e 15 01 d1 be
       -0.1549931 -0.012137296 0.30808794 -0.40821138
0002e0 b9 03 c4 be 5d 80 8b 3d e2 e6 c6 be 51 9b cc 3d
       -0.3828409 0.06811593 -0.38848025 0.09990562
0002f0 c3 d8 93 3e ca 22 a0 3e ff 02 b0 ba b9 66 7b 3e
       0.28876314 0.31276542 -0.0013428627 0.24550904

encoder.layers.0.self_attn.in_proj_bias f4 [24]
000000 c1 16 8a bb 19 05 af bb bd 56 55 bd 68 fc 41 3c
       -0.0042141383 -0.005341184 -0.052084673 0.0118399635
000010 c9 69 fe bb c9 36 91 3c 65 cf fc bc d2 30 f8 bc
       -0.0077640754 0.017726319 -0.030860612 -0.030296717
000020 a0 6c b9 b0 b3 88 b5 b2 8f 8d b9 31 dd e9 bc b3
       -1.3491395e-09 -2.1133337e-08 5.400302e-09 -8.796972e-08
000030 f5 fb 7f 33 5d cb fd b4 59 bc 5e 32 33 19 2b 33
       5.9600968e-08 -4.7272889e-07 1.2964926e-08 3.983696e-08
000040 16 0c 9e bb 1f 98 ed bc 25 51 85 bd b9 8e 82 3d
       -0.004823218 -0.029003201 -0.06509618 0.063748784
000050 55 95 9a 3c 95 5b 68 bd c5 e9 9d 3d 22 53 64 bd
       0.018870035 -0.056727964 0.077106036 -0.055743344

encoder.layers.0.self_attn.out_proj.weight f4 [8, 8]
000000 f1 c8 a7 bd ba 0d c8 bd 01 b1 75 3e b9 b9 af be
       -0.081926234 -0.09768243 0.23993303 -0.34321383
000010 83 a2 fa 3d 3e a7 a6 bd bb bd 55 bc 28 e8 86 bd
       0.12238028 -0.08137368 -0.013045724 -0.06587249
000020 be 2f ac 3e dc cb 47 be 81 c7 3e 3b 7e 39 d0 3e
       0.33630174 -0.1951136 0.0029110613 0.40668863
000030 ac ef 83 3e 91 87 55 3e 48 76 32 be 91 04 24 3e
       0.25768793 0.20852496 -0.17427933 0.16017367
000040 ac fe 68 be 79 29 85 3e 1c 40 1d be 5f d0 14 3e
       -0.227534 0.26008204 -0.15356487 0.14532612
000050 62 8f 6a 3d b0 d0 17 be 07 4d 9e 3e a5 88 a3 be
       0.057265647 -0.14825702 0.30918142 -0.3194019
000060 7f 80 bf bd 21 47 bb bd e3 75 0c 3e c7 a4 e6 bd
       -0.093506806 -0.09144426 0.13716845 -0.112618975
000070 77 7f a4 3e 3b 80 0b be f6 2c 89 bd 58 d9 7d 3c
       0.32128498 -0.13623135 -0.06698029 0.015493713
000080 2f 87 b7 bd d9 d2 83 be bc 35 47 3e f5 78 05 3e
       -0.08961331 -0.25746801 0.19454092 0.13034423
000090 2c 6e b1 be 5e 09 ac 3d 03 08 06 be 75 d5 fe bd
       -0.34654367 0.08400224 -0.13088994 -0.124430574
0000a0 5a 9a 08 be 96 6d 8c 3e 7b 28 a6 3e 47 bd 75 be
       -0.1334013 0.27427357 0.3245276 -0.23997985
0000b0 e7 52 63 bc b0 77 d5 3d 65 06 9e 3e a1 ed db 3d
       -0.013874746 0.10423219 0.30864254 0.107386835
0000c0 ad 18 60 3e f7 1c 99 bd 96 3d 5d bd 89 f7 14 3e
       0.21884413 -0.07476228 -0.05401381 0.14547552
0000d0 41 77 8c be 66 a3 b7 3d f7 90 02 3e 7e a4 af be
       -0.27434734 0.08966713 0.12750612 -0.34305185
0000e0 ab e9 d1 bd a0 50 89 3e 1e df 84 3e 73 b8 17 3d
       -0.10249647 0.26819324 0.25951475 0.03704114
0000f0 90 15 71 be a8 2e 72 3e d1 5f 8a be e0 9c 9b be
       -0.23543382 0.2365061 -0.27026227 -0.30393124

encoder.layers.0.self_attn.out_proj.bias f4 [8]
000000 c8 90 87 bb 5c 94 f8 3c 3b 4e ac 3d 02 5c 74 bc
       -0.0041371323 0.03034418 0.08413359 -0.0149145145
000010 e5 72 3e 3d 31 4b d5 bb c6 90 86 3d 6b 08 b6 bd
       0.04649629 -0.0065092077 0.06570582 -0.08888324

encoder.layers.0.linear1.weight f4 [2048, 8]
000000 dc ac 49 3c fe fb 32 be 3b 63 62 3e cc 1d 8a be
       0.012309279 -0.1747894 0.22108166 -0.26975858
000010 4c c1 18 3e 59 7a 9b 3e 7b a8 a6 be a2 a3 d3 3c
       0.14917487 0.3036678 -0.32550415 0.025834862
000020 1c 8c 80 3e 5d 9d 72 bd 1c cc 57 be 50 06 82 3e
       0.25106895 -0.059232105 -0.21073955 0.2539544
000030 fb a6 5f be b3 55 2f be e1 f2 33 3e a5 41 e1 bd
       -0.21841042 -0.17122535 0.1757312 -0.10998849
000040 cd 3b 17 3e df 97 91 3e 76 a6 17 be e6 d7 4c be
       0.14768906 0.2843618 -0.14809594 -0.20004234
000050 c1 f3 01 be 20 12 44 be bf 5f 9d be b0 5d 17 be
       -0.12690641 -0.19147539 -0.3073711 -0.14781833
000060 8c 47 3e 3e 5e e2 42 3e ee d9 71 be 74 03 2a be
       0.1858198 0.19031665 -0.2361829 -0.1660288
000070 29 56 46 bd 24 7f b0 bd ad 59 00 3e 73 31 18 be
       -0.048422012 -0.08618 0.12534209 -0.14862613
000080 38 df 3a 3e d3 33 79 be c3 6c 3f 3e 99 22 2c bd
       0.18249214 -0.24336176 0.18693833 -0.042025182
000090 7c b5 92 3e e8 5a 29 3e f1 f4 38 3e 24 51 05 be
       0.28654087 0.16538584 0.18062188 -0.13019234
0000a0 01 e5 4e 3e 12 c5 42 3e 2f 69 d4 be 5c c2 52 3e
       0.20204546 0.19020489 -0.414865 0.20581955
0000b0 1d 95 a6 3e c3 6b 55 be 52 cd a8 be 84 44 3e 3e
       0.3253564 -0.20841889 -0.32969147 0.18580824
0000c0 06 21 e7 3d 19 2c 95 3e c4 1d bb 3d ec d9 36 bd
       0.112855956 0.29135206 0.09136537 -0.04464142
0000d0 70 a5 8c 3d b1 2d ab be a4 f1 1f 3e 63 d0 32 be
       0.06867492 -0.33433297 0.15619522 -0.17462306
0000e0 c8 e6 ed bd 4b f3 79 bd 4e a7 8e 3e 02 43 4c 3e
       -0.11616284 -0.061023038 0.27862018 0.19947436
0000f0 5c 0b 71 3e 84 a7 ab be 7b b7 a0 3e 56 70 0d be
       0.2353949 -0.33526242 0.31389984 -0.13812384
000100 e9 2f 14 3e 0b 6d c3 bd fa 1f c7 3e 9f cd 19 be
       0.14471401 -0.09542283 0.38891584 -0.15019844
000110 65 21 e6 bd c6 07 bf be be 9c 3b be e0 8d 74 3e
       -0.11236838 -0.37310618 -0.18321511 0.23882246
000120 54 1d 9a be df a0 22 be 7f dd 4e 3d 43 94 be 3e
       -0.301005 -0.1588168 0.050504204 0.3722249
000130 32 68 6d be 5f 9e 37 3e 13 88 ee 3d d1 c7 37 3e
       -0.23184279 0.17931508 0.11647048 0.17947318
000140 cf 15 a8 3d bb a7 84 3e e9 de 38 3e 18 bf 18 3e
       0.08207285 0.25909218 0.18053783 0.14916646
000150 52 f1 9c 3d f6 92 9b bd e5 52 78 3e 4b 9d 3e bd
       0.07663216 -0.0759639 0.24250372 -0.046536725
000160 d2 2c 96 be dc e6 38 bd 7f 39 31 be dd 96 58 bd
       -0.2933107 -0.04514204 -0.1730709 -0.05287825
000170 a8 e2 90 3e 38 d6 9a bc fc 85 d0 be c4 4a 9a 3e
       0.28297925 -0.018900976 -0.40727222 0.30135167
000180 94 46 0b 3e d8 2d 32 be b7 ee 31 3e 0e ab 81 be
       0.13601142 -0.174003 0.17376219 -0.25325817
000190 74 e7 a4 be b7 08 a6 3e d7 4c 56 be d8 d0 5a be
       -0.32207835 0.32428524 -0.2092775 -0.2136873
0001a0 2d 7e 8e be 50 85 6b 3e 38 2c 54 3e 03 5d 6c 3e
       -0.2783064 0.23000073 0.20719993 0.23082356
0001b0 df 7b b4 be 10 fd a6 be 45 0d 25 3e 51 bf 50 3e
       -0.35250756 -0.32614946 0.16118343 0.20385481
0001c0 60 ad a1 be 56 07 2b be 1d ca 9e bd 84 73 8a bd
       -0.31577587 -0.16702017 -0.07753394 -0.06760314
0001d0 8e 6b 1d 3e b2 d4 57 3e 20 a6 5e be ca 27 55 3d
       0.1537306 0.2107723 -0.21743059 0.0520399
0001e0 77 42 d3 3d 8d aa 74 be 40 47 d3 be 26 d4 82 3e
       0.103154115 -0.23893185 -0.41265297 0.2555248
0001f0 a9 74 13 3e 72 46 ae be 45 d5 5b be 8c 4f 85 3e
       0.14399971 -0.3403812 -0.21468075 0.26037252
000200 75 74 47 3e e0 0d 8d be f1 ea a7 3e 18 4d 5a be
       0.19478019 -0.27549648 0.32796434 -0.21318471
000210 18 a1 68 3e b3 26 15 3e 18 f7 92 be 37 f4 7f be
       0.22717702 0.14565544 -0.28704143 -0.24995504
000220 31 e9 5d 3d 23 e5 49 3d 38 f4 86 bd 56 6f c0 bc
       0.054177467 0.049290787 -0.0658955 -0.02349059
000230 95 54 a2 3e fe 4e 08 3e 30 ad 5d 3e 1e 89 19 bd
       0.31705156 0.13311383 0.21648097 -0.03748428
000240 96 2f 1e be 83 c5 95 3e c7 d0 6d be ce 71 b1 be
       -0.1544784 0.29252252 -0.23224173 -0.3465714
000250 58 8f 87 be 99 e4 a3 be cc 1b a5 be 68 5f ac bd
       -0.2647655 -0.32010344 -0.3224777 -0.08416635
000260 6c 17 9f 3e 5c f5 c3 3d 33 0b 73 3e 58 2e 25 3b
       0.31072557 0.09568283 0.23734741 0.0025204625
000270 fd b6 90 bd 8a 16 b8 3e 75 f8 53 3d 5e f5 40 3e
       -0.07066152 0.35954696 0.05175062 0.188436
000280 c9 c5 4b 3e e8 4a 59 3e db ad 10 be bc 35 15 be
       0.19899668 0.2121998 -0.1412882 -0.1457128
000290 ae fb 9d bd de 7f 9d 3e 80 9c fc bd 49 2a 3d 3e
       -0.0771402 0.30761617 -0.123345375 0.18473162
0002a0 30 c4 df bd 7c 36 9f be e8 be 36 be 53 e6 53 bd
       -0.10926092 -0.31096256 -0.17846262 -0.051733326
0002b0 ba 04 2b bd b9 c1 4c 3d d5 9e 80 be 7a ff 4a be
       -0.041752554 0.049989436 -0.2512118 -0.19824019
0002c0 d3 e4 b9 3d 74 b7 3a 3e 05 8b 97 3e d4 d1 98 3e
       0.09076848 0.18234044 0.2959825 0.29847586
0002d0 21 16 7f 3e 79 a7 19 3e 39 b7 9d be 84 9d 6f bd
       0.24910785 0.15005292 -0.3080385 -0.058499828
0002e0 fb 53 c0 3d d6 87 21 3e 02 11 fe bd f4 ff 53 3e
       0.09391018 0.15774474 -0.12405588 0.20703107
0002f0 8b be 0b be 59 28 58 3e 0a 7c 3a 3e 0a 66 19 be
       -0.13646905 0.21109141 0.1821138 -0.14980331
000300 83 a6 98 3e be 65 81 3c 1c 49 65 3e d0 c6 b9 3e
       0.29814538 0.015795585 0.2239117 0.36284494
000310 da f0 23 be 13 4a 68 bd 14 d4 ce bb 08 24 5a 3e
       -0.16009846 -0.056711268 -0.006311903 0.21302807
000320 b6 3c 8b 3d 18 e6 08 be db f5 83 3e 33 09 ad be
       0.06798689 -0.13369024 0.2577351 -0.3379608
000330 a5 59 36 3e 3e ea 6f bd e4 75 fa bd 13 12 be 3e
       0.17807634 -0.058573 -0.12229517 0.37123165
000340 e7 7d 60 bd 15 79 7b 3e 88 a5 97 3d c7 64 ed bd
       -0.05480757 0.24557908 0.074046195 -0.115914874
000350 3d fe 2e 3c 86 49 52 be cb 52 c2 3e 67 9f 03 be
       0.010680732 -0.2053586 0.3795379 -0.12853776
000360 68 65 02 3d 68 1f 29 be d7 9e a7 be fa 00 01 be
       0.03183499 -0.16515887 -0.32738373 -0.12598029
000370 02 fe 32 3e 04 28 9c be 1f eb 2e be 71 84 af be
       0.17479709 -0.3049928 -0.17081879 -0.34280732
000380 88 56 b5 bd b1 d0 53 be 9e 66 3b 3e d8 31 7d be
       -0.08854395 -0.20685078 0.18300864 -0.24726045
000390 d8 7e 86 3e 13 c7 c5 3d a5 89 95 bd c5 88 af bd
       0.2626865 0.09657111 -0.07301644 -0.085710086
0003a0 20 d5 81 be fc cc 9d 3e 8c d5 3d bd f4 05 8b bd
       -0.25357914 0.30820453 -0.046346232 -0.06788245
0003b0 84 51 d7 3d f9 53 97 3e 75 d2 95 bd 1e a6 4e bd
       0.10513595 0.29556254 -0.07315532 -0.05045139
0003c0 d5 49 26 be 14 5b 2c 3e 02 61 3d 3e 70 3f 46 be
       -0.16239102 0.16831619 0.18494037 -0.19360137
0003d0 0c f6 99 bd be 43 93 3e 1d 6f 48 3c 41 a6 09 be
       -0.07517633 0.2876262 0.012233523 -0.13442327
0003e0 34 cb 2d 3c 62 47 b0 3b ef 5a ce bd 0e 9e 94 be
       0.010607529 0.0053796032 -0.10075938 -0.29026836
0003f0 01 40 d0 bd b1 db 86 3e e6 de 0e 3e 60 28 08 3d
       -0.10168458 0.26339486 0.13952217 0.03324163

encoder.layers.0.linear1.bias f4 [2048]
000000 34 bc 36 3d 9d a8 6b 3e d4 56 95 bd e8 13 15 3e
       0.04461308 0.2301354 -0.07291952 0.14558375
000010 37 a5 b8 be fc 25 19 3e 85 ca cd 3d 0a 0b 65 bd
       -0.3606355 0.14955896 0.10048393 -0.05591873
000020 ae 87 08 3d 41 b9 e8 bc 55 39 9c 3e 03 e3 89 3e
       0.03333252 -0.028408648 0.3051249 0.2693101
000030 23 99 26 3e 39 1a 23 be 4d 54 c8 bc c4 ff 39 be
       0.16269355 -0.15927972 -0.02445426 -0.18163973
000040 f9 5c 6d 3d 0c 6c 89 bc 82 1b fb 3d fc 3e 57 be
       0.057949994 -0.016775154 0.12261106 -0.2102012
000050 83 92 a4 3e 4c af 96 3e e3 20 f4 bd 66 3c 63 3e
       0.3214303 0.29430616 -0.11920335 0.22191009
000060 27 ed 9b be 6b 8e 02 be 66 5e a8 3d 1a 8b f5 bd
       -0.3045437 -0.1274964 0.0822113 -0.11989422
000070 0d 88 46 be ea 6c 36 bd bf 90 b5 3e f2 f0 71 3e
       -0.19387837 -0.044537462 0.35461995 0.2362707
000080 74 17 b1 be f4 ad 99 3e fd d1 3f 3e 09 23 7e 3e
       -0.34588206 0.30015528 0.18732448 0.24818052
000090 74 05 5a be ce d1 b4 be fb ed 02 3d 39 6a 94 3e
       -0.21291143 -0.35316318 0.031965237 0.2898729
0000a0 e2 6f 50 be 14 00 a1 be 13 88 ac 3d d9 45 44 bd
       -0.2035518 -0.31445372 0.084243916 -0.047918174
0000b0 47 b1 7a 3e 3f 13 45 be 1c 5f 87 be e7 f0 85 bc
       0.24481688 -0.19245623 -0.2643975 -0.016350223
0000c0 6e 42 5a bd 68 67 a9 3e 1d 07 9d be 09 60 ac 3e
       -0.05328601 0.33086705 -0.3066949 0.3366702
0000d0 fe de 74 be 5a b7 a8 3d a2 50 3c 3e 2c 66 ac 3e
       -0.2391319 0.082380965 0.18390134 0.336717
0000e0 1c 1e 37 3e 86 36 9b be d9 ee 09 bd d5 53 36 3c
       0.1788258 -0.30315036 -0.03367505 0.011128386
0000f0 f8 0f 25 be 78 18 86 be f3 4d 53 bc 12 d5 4f be
       -0.16119373 -0.26190543 -0.0128970025 -0.20296124
000100 50 7d 2d 3e b0 2b f2 bc b9 4c 92 3e 9a 77 41 be
       0.16942334 -0.029561847 0.2857416 -0.1889328
000110 b8 29 bc 3d cd 38 6f bd 47 0e 23 bd d6 61 af 3e
       0.09187645 -0.05840378 -0.039808538 0.3425433
000120 e4 bd 86 be ff 5b 9e bd 06 f1 db 3c 45 53 86 3e
       -0.2631675 -0.077323906 0.026848327 0.26235405
000130 10 16 a3 be 1c cb a4 be aa ad fb bd ae 5e a8 3e
       -0.3185277 -0.3218621 -0.12288983 0.32884735
000140 54 5e 7b bd 70 a4 a9 3e 70 c4 a2 bd 9f 75 a0 be
       -0.061369255 0.33133268 -0.07947624 -0.31339738
000150 86 a9 b6 3e 2c d4 93 be c0 af c0 3d f7 cc 16 3e
       0.3567621 -0.28872812 0.09408522 0.14726625
000160 9b 86 89 3e 3a 69 a2 be 87 ec 99 be 09 b3 a0 3e
       0.26860508 -0.31720906 -0.3006327 0.31386593
000170 ce 3c 56 be 98 65 d1 3d 3f 4a 9c 3d ca 44 07 be
       -0.20921633 0.102244556 0.07631349 -0.13209835
000180 77 4d cd 3d 53 d7 e3 bc a1 a4 01 3e 52 47 4e 3e
       0.10024541 -0.027812636 0.12660457 0.20144394
000190 94 bd 30 be e5 55 88 be 01 a9 b8 be 89 9b 2f 3e
       -0.17259818 -0.26628032 -0.3606644 0.17149176
0001a0 1f cf 32 3d 82 95 2d bd 29 42 01 bd cf b0 fc 3d
       0.043654557 -0.04237891 -0.031557236 0.12338411
0001b0 c9 21 a7 be de 14 b6 be a6 6b 7a be cf 84 77 bd
       -0.32642964 -0.35562795 -0.24455127 -0.06042939
0001c0 85 ad 80 be 33 01 69 bc db dc 5b be ad 08 1a 3e
       -0.25132385 -0.014221477 -0.21470968 0.15042372
0001d0 ab 98 4e 3e b9 4e 48 3e b6 2f e2 bd 58 4d f0 3d
       0.20175426 0.1956128 -0.110442564 0.11733502
0001e0 e2 f8 b7 3e 35 11 8a bd 1f 35 b1 bd 69 fc c5 bd
       0.3593207 -0.06741563 -0.0865271 -0.09667284
0001f0 ee 61 78 3e e0 68 16 3e d6 a1 4a be f8 07 3d be
       0.24256107 0.14688444 -0.19788298 -0.18460071
000200 23 75 73 be 9b 18 8a be 16 05 de bd 15 d7 3b 3d
       -0.23775153 -0.26971897 -0.10840814 0.045859415
000210 70 5c b9 be 9e ea 65 3d 94 7f 0a 3e 58 07 59 be
       -0.36203337 0.05613195 0.1352523 -0.21194208
000220 0d 16 7d be a1 9d 62 3e 0c de 96 3d 91 3c aa be
       -0.24715443 0.22130443 0.07366571 -0.33249334
000230 51 18 02 be 7c c5 2c 3c 40 34 70 3d 8c 6e 60 3e
       -0.12704588 0.010545131 0.05864358 0.2191717
000240 0a d5 8d be dc 84 af 3e 27 b4 34 3d a7 24 47 3e
       -0.27701598 0.3428105 0.04411712 0.19447576
000250 c2 3e 13 3e dc 29 0b be dd 0a 1a 3d 9c c7 88 3e
       0.14379409 -0.13590187 0.037608016 0.2671479
000260 73 37 4d 3e c7 d5 aa be 03 20 87 3e 85 d6 56 3e
       0.20040683 -0.33366224 0.2639161 0.2098027
000270 77 90 59 be 34 c1 2a 3e 1c 11 d4 3b ae 5f b9 bc
       -0.21246515 0.16675264 0.006471766 -0.022628631
000280 7f ad 6f 3e 3f 2d 93 bd db da 42 be e5 c2 70 3e
       0.23406027 -0.071863644 -0.19028799 0.23511846
000290 ee 28 9f 3e f6 41 dc bd d6 b2 5d be f2 04 70 be
       0.31085914 -0.107547686 -0.21650252 -0.23439386
0002a0 d0 2d d8 bb 88 bf 86 3e f2 34 76 3c 6f 44 80 3e
       -0.006597258 0.26318002 0.015027272 0.2505221
0002b0 33 0a 97 bd 95 db 8d bd 29 6a 9f be aa d0 71 3e
       -0.07374992 -0.069266476 -0.3113568 0.23614755
0002c0 7a aa 6b 3e 07 a5 91 3e 45 84 44 be 2b 32 61 be
       0.2301425 0.28446218 -0.19191082 -0.21991794
0002d0 6e 9d b8 bc e6 cd 78 be 03 d5 d1 3d bb 94 91 be
       -0.022536006 -0.24297294 0.10245707 -0.28433785
0002e0 d4 15 a8 3e 40 61 b5 3e 69 02 91 3e fe 77 8d be
       0.32829154 0.35425758 0.2832215 -0.2763061
0002f0 65 06 95 3e 9b 32 a6 bc 76 eb 73 3e 98 8b 9d 3c
       0.2910644 -0.020287802 0.2382029 0.019231603
000300 23 38 ba be b0 c3 16 be a0 ea 8e be 8e 41 92 be
       -0.36370954 -0.14723086 -0.2791338 -0.2856564
000310 07 1f e2 3d a0 5a 42 3e c2 eb 83 bd d1 38 b6 be
       0.11041074 0.18979883 -0.064414516 -0.35590222
000320 d3 fb ad be 9d fb 81 bd 21 a7 45 be 7c f8 63 3d
       -0.3398119 -0.063468195 -0.19302036 0.055656895
000330 11 f4 e2 3d 71 81 91 be 15 94 9f 3e 45 c2 62 3d
       0.11081708 -0.28419068 0.31167665 0.05536105
000340 bf 0c 6d be 02 3a 0d be 84 2b 54 be 6e 22 a2 3e
       -0.23149393 -0.1379166 -0.20719725 0.31666893
000350 b2 d8 0a be de 86 3a be 0d ad 18 3d 80 04 a1 be
       -0.13559225 -0.1821551 0.03727441 -0.31448746
000360 37 dd 5b bd e5 7a 75 3e 63 01 c4 bc e3 de 59 3e
       -0.053677764 0.23972662 -0.023926442 0.21276431
000370 46 34 cf 3d bb 2f 90 3e de 24 fc bd b9 ad 33 3d
       0.10117392 0.28161415 -0.12311719 0.043866847
000380 ab 3d e3 bd cc 69 8a 3e 61 83 f7 bd 65 80 55 3c
       -0.110957466 0.27033842 -0.120856054 0.0130311
000390 f7 c0 11 bc de e9 42 bd 93 28 31 be a0 6c 44 be
       -0.008896104 -0.047586314 -0.17300634 -0.19182062
0003a0 27 df a8 be cf c5 18 3e 4d 4a cf 3c dc ff b7 be
       -0.32982752 0.14919208 0.025303984 -0.35937393
0003b0 6c 59 97 bd 33 f1 16 be c8 4d 9d 3e f5 9e 67 3b
       -0.07390103 -0.14740448 0.30723405 0.0035342549
0003c0 fa a4 59 bd 13 61 bd be 10 c6 40 be 4e aa 70 be
       -0.05313585 -0.36988124 -0.18825555 -0.23502466
0003d0 85 c4 87 be cb 1e 61 bd 1e aa b3 bd cf e5 55 be
       -0.2651712 -0.054961007 -0.08772682 -0.20888446
0003e0 e4 1d 60 be ba 5e 3a bd 1c 65 f6 bd 4d 47 a3 3e
       -0.21886402 -0.045500495 -0.12031004 0.31890336
0003f0 18 7e 6b be d7 e7 55 be 7e 67 00 be c9 e6 56 3d
       -0.2299732 -0.20889221 -0.12539479 0.052466188

encoder.layers.0.linear2.weight f4 [8, 2048]
000000 fb 69 7a 3d c3 90 37 bc bb d2 66 bc 36 52 09 3b
       0.061136227 -0.0112039475 -0.014088328 0.0020953543
000010 52 dd c7 3c 4a 4c 83 3d 5e a6 93 bc 3d c8 66 bc
       0.024397526 0.06411035 -0.018023666 -0.014085826
000020 11 2d b2 3c 92 48 4f 3d ec fb f2 ba 63 75 8f 3d
       0.021750005 0.050606318 -0.0018538213 0.070048116
000030 a3 0e 02 3d 3a 19 09 3d 9f c0 9f 3d 7b bb 90 3d
       0.03175224 0.033471324 0.078004114 0.07067009
000040 1c d1 cd 3c 34 fa c9 3c 54 82 af 3c f7 e6 15 bc
       0.025124125 0.024655439 0.02142445 -0.009149305
000050 2b 92 a2 3d 19 4b 07 3d 37 ec b6 3c 5a 4d f1 3c
       0.079380356 0.033030603 0.022329433 0.02945583
000060 f8 81 2d 3b e6 61 25 3d 30 5f c9 3b 1d e9 43 3d
       0.0026475172 0.040376566 0.0061453804 0.047829736
000070 d0 29 69 3d 4e 67 ec 3c 2e c2 f2 3c ea cf 37 3d
       0.05692464 0.028857853 0.029633608 0.044876017
000080 57 eb 31 3d e6 a6 04 3d b0 93 41 3d 21 2d 53 bb
       0.04343733 0.03238573 0.047259986 -0.0032222944
000090 f9 10 09 bd a9 a3 70 3c 42 6d 1c 3c e7 9a 80 3d
       -0.033463452 0.014687457 0.0095475335 0.06279545
0000a0 70 14 10 3d 22 a3 7a 3d f0 ec c5 bc 6c 27 b2 3d
       0.03517574 0.06119073 -0.024160832 0.086989254
0000b0 82 4e 62 3c 2a 3a 3b 3d 87 ac 7e 3d 62 95 0c 3d
       0.013812663 0.045709766 0.062176254 0.03432215
0000c0 2a c2 43 3d 99 cd 1b 3c 95 29 70 3d b0 33 88 3b
       0.04779259 0.0095094675 0.058633406 0.0041565523
0000d0 09 87 ee b9 be fd 4f 3d ee 85 41 3d 9d f7 fd 3c
       -0.00045495506 0.050779097 0.047246866 0.03100186
0000e0 03 c4 a5 b8 10 85 f8 3c 69 e8 c5 3c af 94 ef 3c
       -7.904323e-05 0.030336887 0.024158673 0.029245703
0000f0 26 55 20 3d f2 f7 cc 3b 41 d9 0a 3d 3b 23 b8 3c
       0.039143704 0.0062551433 0.033898596 0.022477737
000100 64 4a 4a 3d 7a 77 e0 3c 5e ec 95 3d 9e 5e 57 3d
       0.04938735 0.02740072 0.07320474 0.05258047
000110 6b 5a 09 3d 43 38 04 3d 26 d5 92 3d 0b 2d 18 3d
       0.033533495 0.032280218 0.07169561 0.03715233
000120 ad 9f ea 3c b5 f4 9c 3b bf f7 26 3d dc 39 e7 3c
       0.028640592 0.0047899135 0.040763613 0.028225832
000130 e0 0f 28 3b ff d4 63 3b ac 96 3e 3d 62 af 84 3d
       0.0025644228 0.0034764407 0.04653041 0.06478764
000140 54 64 bb bc de fe 77 3d d4 92 eb 3c e2 67 61 3d
       -0.022874989 0.060545795 0.028756537 0.05503071
000150 c5 c5 4e 3d b6 80 31 3d f8 93 55 3c 94 49 99 3c
       0.050481576 0.04333564 0.013035767 0.018711843
000160 7d 32 31 3d ab 38 1c 3c 10 48 f5 bc 1c cf 96 3d
       0.04326104 0.009534995 -0.029941589 0.07363722
000170 24 20 05 3d 7b 94 49 bb 0f ad c8 3c 11 0b 89 3c
       0.032501355 -0.0030758667 0.024496583 0.01672891
000180 b0 9e 12 bc 13 0a f3 bc 58 15 8f 3d b8 02 15 bc
       -0.008948967 -0.02966789 0.06986493 -0.0090948865
000190 ab 42 0f 3d b1 67 c2 3b 80 2f 24 3b 91 e2 4b 3d
       0.03497569 0.005932771 0.0025052726 0.049776617
0001a0 58 06 df 3c e4 d0 45 3d 93 06 9e 3c a4 fe 62 3a
       0.027224705 0.048294917 0.019290244 0.000865916
0001b0 15 d4 80 3c f5 f6 d5 3c 23 3a 86 3c 5c 82 21 3d
       0.015726129 0.026118735 0.016385144 0.03943096
0001c0 32 6a ef bb 87 08 f4 3b d7 b3 87 3d dd f5 eb 3c
       -0.0073063606 0.0074473056 0.066260986 0.02880376
0001d0 3d bd 2c 3d 1d a3 80 3d 05 94 68 3d 8f a0 7b 3d
       0.04217266 0.062811114 0.056781787 0.061432417
0001e0 9c 53 46 3d 14 32 90 bc 80 c1 78 3d a0 c6 9d 3c
       0.04841958 -0.017602004 0.06073141 0.01925975
0001f0 eb c8 fd 3c 84 01 64 3d 2c 2e c6 3c 95 4d bc 3a
       0.030979594 0.055665508 0.024191938 0.0014366383
000200 df e0 dd 3c ec a5 8b 3d 4e a7 3c 3d 73 94 e8 3b
       0.027084766 0.068187565 0.04605799 0.0070977747
000210 c9 10 45 3d f2 4c d9 3c 8d 74 10 3c d7 b4 83 3a
       0.04811171 0.026525948 0.00881685 0.0010048401
000220 79 d5 25 3b 00 13 af 3c e2 74 4b 3d 06 fd ca 3c
       0.0025304242 0.021371365 0.049672015 0.024778854
000230 48 68 89 3c 8c 87 6a 3d 1f 5b 01 3c 87 e3 64 3d
       0.016773358 0.057258174 0.00789526 0.05588105
000240 4e 56 c6 3c a0 41 77 3d 2b e4 e3 b9 bb b7 4d 3d
       0.024211075 0.06036532 -0.00043466812 0.050224047
000250 be cf 5a 3d f0 54 20 3d 4f f1 07 3d ec f7 e5 3c
       0.053420775 0.039143503 0.033189114 0.02807232
000260 73 0f 31 3d 48 94 1c bd 4a 93 8a ba 20 6e d5 3c
       0.043227624 -0.03822735 -0.001057246 0.026053488
000270 1d 45 58 bb 8e 59 06 3d 56 fb 95 3c 0d 6d 07 3d
       -0.003300018 0.03280025 0.018308323 0.033062983
000280 4b df 1e 3d 48 6d 71 3d ad 8d 1e 3d 63 f3 99 3d
       0.038787168 0.05894211 0.03870933 0.075171255
000290 75 f2 c9 39 c6 f1 0e 3d f7 8d 3b 3d a1 0f 26 3c
       0.00038518352 0.034898542 0.045789685 0.010135562
0002a0 12 0e 6a 3d fd 0d a9 3b 30 bd 8d 3d a5 42 62 3d
       0.057142325 0.0051591382 0.0692085 0.05523934
0002b0 e5 53 4d 3c f1 ab 82 3d 4b 1d 8e 3d cf 7e 80 3d
       0.012532209 0.063804515 0.06939181 0.06274187
0002c0 1b 14 fa 3a 5c 66 78 3c 5b ac 6f 3b fe e8 91 3d
       0.0019079478 0.015161123 0.0036571238 0.07124518
0002d0 ad ad 2d 3b 5b 56 29 3c 5d 01 2f 3c 6b e4 89 3d
       0.0026501224 0.01033553 0.010681477 0.067330204
0002e0 f0 2a 8b 3d 97 f1 1d 3d 60 3a 2c bc 4d 95 97 3c
       0.06795299 0.038560476 -0.010511965 0.01850381
0002f0 34 20 e8 3c a0 6d 70 3a 0c 2d 90 3d 2d b4 19 3d
       0.028335668 0.0009171609 0.07039842 0.037525345
000300 8d 66 12 3d 47 01 a9 3b 07 c5 73 3d 8f 3f a1 3d
       0.03574233 0.005157623 0.05951407 0.07873451
000310 34 45 86 3d b6 77 2f 3b 01 07 35 3d a5 65 06 bd
       0.06556168 0.0026774234 0.044196133 -0.03281178
000320 a5 d3 62 bb 8a d7 5d 3c 98 e2 23 3d 27 6e 34 3d
       -0.0034611013 0.013540158 0.04001102 0.044050362
000330 a6 b7 7c 3d 67 ea 58 3d 50 be 82 3c f3 95 7f 3d
       0.06169858 0.05295792 0.015959889 0.062398862
000340 96 8b 64 bb bf 89 86 3d 11 ea cf bc fe 53 f3 3c
       -0.0034873239 0.06569242 -0.025380166 0.029703137
000350 2c 0c d4 3d 08 33 c9 3c ab 7d 9e 3c c4 82 2f bb
       0.10353884 0.024560466 0.019347033 -0.0026780823
000360 ad 9f 3e 3d 85 66 3b 3d d4 7f b8 3d 08 87 83 3c
       0.046538997 0.045752067 0.09008756 0.016055599
000370 87 d4 22 3d 37 c1 9f 3b fd 8e 2f 3d 41 51 39 3d
       0.039753463 0.004875328 0.042860974 0.045243505
000380 a0 67 60 3d 0b 1d 2d 3d ee ea 7d 3d c4 05 08 3d
       0.054786325 0.042264026 0.061991625 0.033208624
000390 03 67 a7 3d fe f3 93 3a 2e 40 62 bb 41 a5 ec 3c
       0.08173945 0.0011287925 -0.0034523117 0.028887393
0003a0 b5 99 95 3d c6 f7 2b 3d 49 3f 2f 3b f3 f0 41 3d
       0.07304708 0.041984342 0.0026740602 0.047348928
0003b0 47 46 08 3d a3 2a 4b bb 08 99 89 3d 86 16 b3 bb
       0.033270147 -0.0031000755 0.067186415 -0.0054653315
0003c0 f8 f1 85 3d 68 b3 fb 3c 87 77 16 3c c0 0c 17 3d
       0.065402925 0.030725196 0.009183771 0.036877394
0003d0 f5 2d ae 3d 7b a6 05 3d 0d 56 51 3b 63 10 be bb
       0.08504859 0.03262947 0.003194216 -0.0058002933
0003e0 48 61 0b 3d f3 c6 3f 3d e6 39 7d 3d b2 cb 1a 3d
       0.03402832 0.046820592 0.061822794 0.037791915
0003f0 36 4d 76 3d 78 3c 88 bb 2e 39 2b bc bf 6a 98 3d
       0.060132228 -0.004157599 -0.010450644 0.07442235

encoder.layers.0.linear2.bias f4 [8]
000000 a6 18 06 3d b6 bd d3 3c 71 ae 04 3d cc e8 38 3c
       0.03273835 0.025847297 0.032392923 0.011285972
000010 25 b5 88 bd 0b c0 81 3c a9 6f 99 3c 41 38 83 bd
       -0.066751756 0.015838644 0.018730002 -0.06407214

encoder.layers.0.norm1.weight f4 [8]
000000 cf 3c 6e 3f b2 65 86 3f eb 06 8d 3f b5 1b 68 3f
       0.93061537 1.0499785 1.1017736 0.9066728
000010 fd 4f 7c 3f 8d 34 76 3f 4b 25 83 3f 0d 07 7e 3f
       0.9855955 0.96173936 1.0245756 0.9922951

encoder.layers.0.norm1.bias f4 [8]
000000 d0 c6 d7 bc 4e 59 d2 bb 5c b0 76 3d 1b 80 48 bc
       -0.026339918 -0.0064193374 0.060226783 -0.012237574
000010 c7 be 5d bd 7e cb 19 bd e3 f4 8f 3d 8b 97 a9 b9
       -0.054137018 -0.03754758 0.0702913 -0.000323471

encoder.layers.0.norm2.weight f4 [8]
000000 31 74 7d 3f aa f8 6d 3f 3b 97 88 3f 64 88 62 3f
       0.9900542 0.92957556 1.0671152 0.88489366
000010 fb 27 77 3f 7b ae 83 3f cd 7f 80 3f 1b 30 8c 3f
       0.9654538 1.0287622 1.0039002 1.0952181

encoder.layers.0.norm2.bias f4 [8]
000000 64 c0 09 3c 0d 0c 95 3c 56 0f 29 3d 19 2c 7c 3d
       0.008407686 0.018194223 0.04127439 0.061565492
000010 e6 86 18 bd 20 61 dd 3d 2c 75 08 bc c3 da a1 bd
       -0.037238024 0.10809541 -0.008328717 -0.079030536

encoder.layers.1.self_attn.in_proj_weight f4 [24, 8]
000000 89 4e 3b 3e bc 9c 88 bd ba e4 65 3e 99 e9 f0 be
       0.18291678 -0.0667052 0.22450534 -0.4705322
000010 76 10 69 3e 2b 03 a9 3e be b4 98 be 34 61 2a bd
       0.22760186 0.3301023 -0.29825395 -0.041596606
000020 ee 57 8f 3c 95 76 9e bd 1e 2c a0 be ad c8 17 3d
       0.017497983 -0.077374615 -0.3128366 0.037056614
000030 81 28 14 3e 41 6c 24 3e a4 e6 8f be 95 18 24 3e
       0.14468576 0.1605692 -0.28105652 0.16025002
000040 9c 44 52 be 3a 2e d0 3e 3e 26 9c 3e 0e 5b 50 3e
       -0.20533985 0.40660268 0.30497926 0.20347235
000050 48 e2 42 be a4 8c d4 3d e7 d8 04 3e 75 3e 8c ba
       -0.19031632 0.103783876 0.12973367 -0.0010699766
000060 8e 95 ac bd fa b9 17 be 55 46 1b 3e 94 be b3 bd
       -0.08426963 -0.14817038 0.15163548 -0.08776584
000070 2a 52 ea bd 94 4f 94 be f5 5a 56 3e 3e 03 aa be
       -0.11441453 -0.28966963 0.20933135 -0.332056
000080 31 2c b3 be 04 d1 60 3e 28 2f 15 be 6b 19 a1 be
       -0.34994653 0.21954733 -0.1456877 -0.31464705
000090 d1 5c c8 3e 1b 62 48 be ee bc 40 3c 8c 2c 93 3e
       0.39133313 -0.19568674 0.011763794 0.28744924
0000a0 7a a2 4f be 51 11 46 bc 7c cc 32 3b 1a 51 7f be
       -0.20276824 -0.0120890895 0.0027282527 -0.24933282
0000b0 50 71 9a be 13 83 3f 3e 01 31 a5 bd ea 88 ee 3e
       -0.30164576 0.18702345 -0.080659874 0.46588832
0000c0 49 03 0d be 63 a7 f1 be a0 a6 c0 bd 7b 16 ae bd
       -0.13770784 -0.47198018 -0.09406781 -0.085003816
0000d0 f2 a3 9c 3e c7 b2 22 be 8d c5 43 be 76 55 47 be
       0.3059383 -0.1588851 -0.19118328 -0.19466195
0000e0 f4 17 b9 bc 12 fd a0 3d 5d a0 4d bc ef ad 56 3e
       -0.02259443 0.07860769 -0.012550441 0.20964788
0000f0 dc 7a e9 be c5 42 ec be a4 7a 5c bc fe ae 75 3d
       -0.45601547 -0.4614469 -0.013456974 0.05998134
000100 d1 10 a3 be 45 cc 57 3e b3 24 6f be b2 8e d5 be
       -0.31848767 0.21074016 -0.23353843 -0.4171043
000110 3e a7 16 3e 91 51 52 be fe 9d df be f3 da c1 3d
       0.14712235 -0.20538928 -0.43675226 0.094655894
000120 cf 16 c6 3e 12 57 53 bd 6f 61 e9 be 2b 77 fb bd
       0.38689277 -0.05159671 -0.45582148 -0.12278589
000130 98 56 ec bd f3 14 8b be 5d 51 e1 3d 2f 8a ba 3e
       -0.11539954 -0.2716442 0.11001847 0.3643355
000140 70 ec b5 3e 73 61 e4 3e 2d 59 e8 3c a8 ee 89 be
       0.3553195 0.44605598 0.028362835 -0.26939893
000150 e7 f9 81 bd ae bf b0 be cc b2 9b 3e 3d ba 64 bd
       -0.06346493 -0.3452124 0.3040985 -0.055841673
000160 cb 05 8f 3e 2a 17 2d bd 20 57 c5 be 48 b7 c0 3e
       0.27934107 -0.04225842 -0.38543034 0.37639832
000170 f5 65 89 be 22 38 1c 3c 3f 3b 74 be 05 e4 32 3d
       -0.268356 0.0095348675 -0.23850726 0.043674488
000180 3d a0 e7 bc f9 9f 7c be cb 95 1f be 29 ab d6 be
       -0.02827465 -0.246704 -0.15584485 -0.4192746
000190 a6 d5 ff 3c 40 6b 12 3e 54 78 cb be 1b a3 c3 3d
       0.031229805 0.14298725 -0.3974024 0.09552594
0001a0 00 dc b5 be 3e 6d ba 3e 0a 15 84 3e 6c d3 fc 3d
       -0.3551941 0.3641147 0.25797302 0.12345013
0001b0 e7 90 3d 3e 30 c3 1f be 39 f6 48 be 4f ae f0 3e
       0.18512307 -0.15601802 -0.19625176 0.47007987
0001c0 b9 fc 68 be a9 ff bf bd d2 0c 9d 3e 47 5f 71 3d
       -0.22752656 -0.09374935 0.30673844 0.058928754
0001d0 e8 71 9b be 06 a8 c8 3e 01 ac cf 3e 5e 0b f4 3d
       -0.3036034 0.39190692 0.40560916 0.119162306
0001e0 a7 fd 78 3e c3 91 55 bd 46 77 1b be 5f e5 55 bd
       0.2431551 -0.052140962 -0.15182218 -0.0522207
0001f0 2f 44 c2 3d 0b e2 8c 3e cd 7b 98 be 89 22 0c 3e
       0.09485661 0.27516207 -0.29781953 0.13685049
000200 a3 89 b1 3e 3b d1 17 be 49 f8 86 3e 98 11 5e 3e
       0.3467532 -0.14825909 0.26361302 0.21686399
000210 14 e4 7a be 30 73 ee be b0 4a 19 be 01 8b 45 be
       -0.24501067 -0.46572256 -0.14969897 -0.19291307
000220 09 1b eb 3e 09 60 da 3e ee 47 b6 3b 7a 6c 77 be
       0.45919064 0.42651394 0.005562774 -0.24162474
000230 4d 7b 55 3e f5 26 ae 3e 69 f6 93 3e 60 cb 7e 3b
       0.20847817 0.34014097 0.28898934 0.0038878545
000240 61 33 8c 3e 95 b2 ac ba fc 9e a8 3e e5 fc c9 bd
       0.2738295 -0.001317578 0.32933795 -0.09862689
000250 55 9b 21 3e 32 6a 47 be 74 05 78 3e 70 22 74 be
       0.1578191 -0.19474104 0.2422083 -0.23841262
000260 b2 ba 84 be 29 91 10 be 21 d6 f1 3d 05 73 33 be
       -0.25923687 -0.14117874 0.1180842 -0.17524345
000270 7e ee 8c be 53 e0 34 3e 09 d2 66 3e db 30 1d 3e
       -0.27525705 0.17663698 0.2254106 0.15350668
000280 76 d7 b6 3e 39 77 97 3e 84 0d a9 3e 51 76 98 3e
       0.3571126 0.29583147 0.33018124 0.29777768
000290 fe e2 d8 be 21 91 a1 be 6d c0 ab be 54 96 93 be
       -0.4236068 -0.31556037 -0.33545247 -0.2882563
0002a0 73 ed 2b be e9 2e 15 bd b3 bb 16 be 7e 45 d4 bd
       -0.16789798 -0.03642169 -0.14720039 -0.10364817
0002b0 b5 aa 4c be e2 2a 60 be 19 5d 1d 3e ae 2e eb bb
       -0.19986995 -0.21891358 0.15367545 -0.0071771955
0002c0 ee 13 a6 3c 26 1e 01 3c 9d 0e e5 3c d8 5e 43 be
       0.020273175 0.007880723 0.02796107 -0.19079149
0002d0 18 ff 67 be 54 9d a1 bd ac 07 90 3e a0 44 e1 be
       -0.22655904 -0.07891336 0.28130853 -0.4399767
0002e0 e2 03 8b be 1d 6c d7 3d 0f c3 7f be 30 57 2a 3e
       -0.271514 0.10518668 -0.24976753 0.16634822
0002f0 54 87 b9 3e 0a ef c9 3e 79 d8 d5 3d ee be 9f 3e
       0.3623606 0.39440185 0.104416795 0.31200355

encoder.layers.1.self_attn.in_proj_bias f4 [24]
000000 31 e8 3d 3d 9e b1 3f 3d 11 7d 2b 3c da d8 b3 ba
       0.046364013 0.04680025 0.01046683 -0.0013721243
000010 87 3f 94 3b 8c c6 a4 3c 8a dd e3 bc 41 71 5a 3d
       0.0045241746 0.020114206 -0.027815599 0.053330664
000020 70 7c 1c b4 05 20 37 b4 4e 2d fc b4 b3 c1 23 b4
       -1.4573902e-07 -1.7054852e-07 -4.697162e-07 -1.5251025e-07
000030 ea bf af b3 e7 cd 24 33 0f b4 da 35 0f 6f 02 b6
       -8.1839815e-08 3.8371493e-08 1.629467e-06 -1.9436154e-06
000040 08 2c 56 bd 3f 79 80 3d d7 e0 a3 bd 73 f0 f2 bd
       -0.052288085 0.06273126 -0.08001869 -0.11862268
000050 da e1 84 3d 55 96 e9 bd 09 96 b7 3d ac 41 50 3d
       0.0648839 -0.11405627 0.08964164 0.05084388

encoder.layers.1.self_attn.out_proj.weight f4 [8, 8]
000000 a8 f3 09 be cd b2 06 3d 1f 7a 07 3e 41 b1 ad be
       -0.13471854 0.03288536 0.13230179 -0.33924296
000010 44 09 01 3d 3d 0d 34 be 3a 6f 32 be a1 07 6a 3b
       0.031502977 -0.17583175 -0.17425242 0.0035710114
000020 3a 48 66 3e b3 21 8e be 37 06 6f 3d 04 81 af 3e
       0.2248849 -0.27760085 0.058355536 0.3427812
000030 11 fe 1b 3e 1a 42 3b 3e 87 ff 1a be 49 d9 41 3e
       0.15233637 0.18286934 -0.15136538 0.18930544
000040 25 e0 01 be 75 3a 93 3e 56 3d 8c bd ee 13 0d 3e
       -0.1268316 0.28755537 -0.068476364 0.13777134
000050 50 e6 17 3e 79 59 03 be 08 46 b8 3e 5e 55 c8 be
       0.14833951 -0.128271 0.3599093 -0.3912763
000060 b9 7e 1c bd ca 40 1b bd 38 91 7a 3e 3d 93 3b be
       -0.03820679 -0.037903585 0.24469459 -0.18317886
000070 66 88 b2 3e f3 04 1c be 3a a8 09 3d 10 03 de bd
       0.3486969 -0.15236263 0.0336077 -0.10840428
000080 4b 38 91 bd c0 24 74 be 54 fd 0e 3e 0e d6 2c 3e
       -0.07090815 -0.23842144 0.13963825 0.1687853
000090 41 fb 8f be f7 7a c1 3d f6 62 1e be 35 8c 6a bd
       -0.2812138 0.09447282 -0.15467438 -0.057262618
0000a0 fb 27 3a bd 2b 7f a3 3e 59 ff b4 3e 09 0a 55 be
       -0.045448285 0.3193296 0.35351065 -0.2080461
0000b0 5b 5a c5 3d 5a 58 14 3d e7 2a da 3e 2b 4e da ba
       0.096363746 0.03621707 0.42610857 -0.0016655376
0000c0 03 cd 85 3e 72 26 27 be 1b f4 e6 bd 2c 4e d6 3d
       0.26132974 -0.1632326 -0.11277028 0.10464129
0000d0 b8 62 7b be e8 e7 25 3e a6 94 b9 3d ca c6 ab be
       -0.24549377 0.16201746 0.090615556 -0.33550102
0000e0 89 b8 7f be 9c 66 62 3e c8 12 45 3e 72 23 4f 3d
       -0.24972738 0.22109455 0.19245446 0.050570913
0000f0 c4 63 bb be 2a cc 7e 3e df 31 a0 be a7 6a 35 be
       -0.36599553 0.2488257 -0.3128805 -0.17716466

encoder.layers.1.self_attn.out_proj.bias f4 [8]
000000 af c4 02 3a fa 51 8e bd f9 2c ea 3d 10 1f 90 3d
       0.00049884146 -0.069492295 0.11434359 0.07037175
000010 b1 ca 93 bd 0e 98 d2 3d 05 1a 27 3d b2 b7 e7 bd
       -0.07216395 0.102829084 0.0407963 -0.11314334

encoder.layers.1.linear1.weight f4 [2048, 8]
000000 a1 aa 2a 3c b4 4c 2b be eb 15 5f 3e 7f f7 8b be
       0.010416658 -0.16728479 0.21785705 -0.27337262
000010 78 ed 30 3e 40 a0 6f 3e b6 3f bd be 6a 65 c1 3d
       0.17278087 0.23400974 -0.3696267 0.09443171
000020 64 ad 91 3e 65 c6 db bd d6 de 7e be c4 e4 6c 3e
       0.284526 -0.107312 -0.24889693 0.23134142
000030 c0 08 41 be 9f 8b 22 be 0f 6c 2b 3e 63 63 e6 bd
       -0.18850994 -0.15873574 0.1674044 -0.11249425
000040 7b 27 4d 3e ce c9 99 3e 2c 4d 1a be 7d f7 1a be
       0.20034592 0.30036777 -0.15068501 -0.15133472
000050 d4 d7 10 be f5 92 4e be 99 91 a9 be b8 7f 38 be
       -0.14144832 -0.20173247 -0.33118895 -0.18017471
000060 e8 b7 87 3e c1 aa 10 3e 03 bb a9 be 02 3d 09 be
       0.26507497 0.14127637 -0.3315049 -0.13402179
000070 cb 7d b7 bc f4 7b 8e bd 87 1e 0d 3d 97 db fe bd
       -0.02239885 -0.06957236 0.03445294 -0.12444227
000080 ea 15 20 3e 94 af 88 be ce 17 2d 3e ae 05 0b bd
       0.1563336 -0.26696455 0.16903612 -0.033940963
000090 1b 10 a9 3e 5b 06 35 3e a9 35 15 3e 82 2a 04 be
       0.330201 0.17678206 0.14571251 -0.1290684
0000a0 a7 09 16 3e 45 43 68 3e ec db ad be ca 0f 3f 3e
       0.1465212 0.22681911 -0.3395685 0.18658367
0000b0 c3 05 a0 3e eb 95 6d be 9c 91 83 be e1 2e 33 3e
       0.31254396 -0.2320172 -0.2569703 0.17498352
0000c0 a5 98 47 3e fb 17 8b 3e 01 2a 82 bb 85 a6 32 bc
       0.19491823 0.27166733 -0.0039722924 -0.010903959
0000d0 f0 93 9d 3d d1 91 a9 be 47 a7 bd 3d 33 01 26 be
       0.076942325 -0.33119062 0.09260421 -0.16211395
0000e0 f2 a1 6a bd d3 7e ab bd 09 9c 5a 3e 70 d4 5d 3e
       -0.05728335 -0.08373799 0.21348585 0.2166307
0000f0 3f 44 82 3e 39 0d 92 be a3 0e 72 3e c2 26 34 be
       0.25442693 -0.28525713 0.23638396 -0.1759291
000100 27 fe 2f 3e b0 a3 15 be b1 f7 99 3e 10 93 0a be
       0.17186795 -0.14613223 0.30071786 -0.13532662
000110 f6 34 be bd d6 fb ae be 5d 13 7a be 4e ed 8e 3e
       -0.09287445 -0.3417651 -0.24421449 0.27915424
000120 7f a9 90 be 60 1c 16 be 4e 72 33 3e d8 75 ce 3e
       -0.28254315 -0.14659262 0.17524073 0.40324283
000130 0c 54 bc be 0d ac 4c 3e 1a e3 30 3e 5f 4b 76 3d
       -0.36782873 0.19987507 0.17274132 0.060130473
000140 e8 41 e0 3d 03 7e 44 3e 02 b4 92 3d a0 4b 23 3e
       0.109500706 0.19188695 0.0716324 0.15946817
000150 5a 73 f1 3d 54 82 4d bd 16 2e 3a 3e c6 6e f8 bc
       0.1178958 -0.05017312 0.18181643 -0.030326258
000160 31 4c d5 be 76 3b 30 3b b9 e1 81 bd c0 d8 d4 bd
       -0.41659692 0.002689091 -0.06341881 -0.10392904
000170 44 f0 9c 3e 55 b3 49 bd 74 70 8f be d9 42 a0 3e
       0.30652058 -0.04924329 -0.28015482 0.31301
000180 bd 1f 3a 3e b0 1d 2d be 75 25 8d 3e d1 63 6a be
       0.1817617 -0.16905856 0.2756764 -0.2288964
000190 d7 98 cf be 2e bc b5 3e 40 dd 24 be cc ed aa be
       -0.40546295 0.35495132 -0.16100025 -0.3338455
0001a0 67 9f 80 be 9b 6a 30 3e c8 f7 d7 3d 17 74 7e 3e
       -0.25121614 0.17228167 0.105453074 0.24848972
0001b0 0e df af be 80 f0 90 be 95 5d a4 3d 6a c8 75 3e
       -0.34349865 -0.28308487 0.08025662 0.24002233
0001c0 5d ff a6 be b7 da 28 be 33 3a b5 bd ec a7 2d bd
       -0.32616702 -0.16489683 -0.08848991 -0.04239647
0001d0 69 a2 06 3e 54 98 5b 3e cc b8 65 be cf a3 9f 3d
       0.13147892 0.21444827 -0.22433776 0.07794916
0001e0 2d 0c 43 3d 1d c1 52 be 10 07 ad be 3d a6 53 3e
       0.047619034 -0.2058148 -0.3379445 0.20668884
0001f0 d3 5b 10 3e 0a 26 b0 be 76 79 35 be 88 a3 90 3e
       0.14097528 -0.34404022 -0.17722115 0.28249764
000200 f9 03 43 3e 31 4e 8e be 5c e3 7a 3e 82 32 40 be
       0.19044484 -0.2779403 0.24500793 -0.18769267
000210 35 15 94 3e bd bd e3 3d 11 c9 bb be 70 e1 3c be
       0.2892243 0.11120174 -0.3667684 -0.18445373
000220 1e bf 01 bd cc eb c9 3d 4c 58 b1 bc 0f d4 7c bd
       -0.031676404 0.09859428 -0.021648549 -0.061725672
000230 57 93 a9 3e 1d f3 a0 3d 49 1e 8f 3e 72 a9 e7 3c
       0.33120224 0.0785887 0.27952793 0.02827904
000240 5f fd ea bd f6 59 89 3e 64 07 aa be 80 2c aa be
       -0.11474108 0.26826447 -0.33208764 -0.33237076
000250 34 ae 85 be 78 f4 99 be 62 75 c1 be 5c 86 29 bd
       -0.2610947 -0.30069327 -0.37784868 -0.0413879
000260 1e a5 9c 3e cf 74 b0 3d 31 71 b0 3e 0f 36 84 bc
       0.30594724 0.086160295 0.34461358 -0.016139058
000270 98 8b 47 be a1 1a bc 3e 37 c4 c5 3d ff 24 a4 3d
       -0.19486845 0.36739066 0.09656566 0.08014869
000280 e1 40 93 3e 71 74 79 3e 41 8c 04 be d5 6c be bd
       0.28760436 0.24360825 -0.12944128 -0.09298102
000290 7e 9d f1 bd d5 32 94 3e 50 c4 03 be a7 fb 0c 3e
       -0.117976174 0.28945032 -0.12867856 0.13767873
0002a0 1e 43 10 be d5 59 9a be d4 44 5a be d9 c7 5f bd
       -0.14088103 -0.3014666 -0.21315318 -0.05463395
0002b0 b1 8a f3 3c ab 0f f3 3b 53 ca 99 be 16 cb 1d be
       0.02972922 0.0074176393 -0.30037174 -0.15409502
0002c0 1b b2 ef 3d ae 96 4c 3e 24 32 bd 3e 1f 10 a2 3e
       0.11703893 0.19979355 0.36952317 0.31652924
0002d0 26 f0 65 3e f2 2c 13 3e 0c 72 a6 be d1 4d e4 bd
       0.2245489 0.14372614 -0.32508886 -0.11147655
0002e0 51 c7 9e 3d ff 94 3f 3e 01 16 fd bd 71 fc 4c 3e
       0.0775286 0.18709181 -0.123577125 0.20018174
0002f0 0d 44 1f be 0a f4 33 3e 25 27 4e 3e a1 85 11 be
       -0.15553303 0.17573562 0.2013212 -0.14211132
000300 a7 e5 a3 3e de 54 ae 3c b4 4a 3b 3e b1 cb b8 3e
       0.32011148 0.021280702 0.18290216 0.36092904
000310 f5 e6 40 be 35 37 b8 bd 66 46 3d bd e5 be 88 3e
       -0.18838103 -0.08994905 -0.046209715 0.2670814
000320 1e 0a d3 bc 76 5b e3 bd 49 50 b1 3e 54 fd b0 be
       -0.02576166 -0.11101429 0.34631565 -0.34568274
000330 a8 62 3e 3e b7 46 90 bd cb b1 58 bd 1c 86 b9 3e
       0.18592322 -0.07044738 -0.05290393 0.3623513
000340 1f f5 c4 bc b2 53 23 3e 67 b3 fd bc 7e ee b1 bd
       -0.024042664 0.15949896 -0.030969335 -0.08688067
000350 09 97 98 3c 4c 94 0e be 85 ba a3 3e 55 dc 22 be
       0.018626707 -0.13923758 0.3197824 -0.15904362
000360 d4 83 29 bd c6 b2 a9 bd 23 1a 82 be b2 38 22 be
       -0.041385487 -0.082860515 -0.25410566 -0.1584194
000370 21 70 16 3e e2 78 b5 be 86 15 d2 bd 3c 1f ad be
       0.14691211 -0.3544379 -0.102580115 -0.33812892
000380 ed 38 14 be b0 28 15 be 1c 1b 32 3e 10 e2 8a be
       -0.1447484 -0.14566302 0.17393154 -0.27125597
000390 d7 94 8a 3e ae 9e da 3c a4 8b ca bc de b6 84 3c
       0.2706668 0.026686992 -0.024724789 0.01620048
0003a0 ea 98 63 be 86 07 97 3e 25 82 9c bb 6e 67 ff bc
       -0.22226301 0.29497927 -0.0047762566 -0.031177249
0003b0 a0 22 99 3d 50 b0 ac 3e 5d ae 9a bd 80 70 08 be
       0.07477307 0.33728266 -0.075527884 -0.13324165
0003c0 42 62 cc bd a4 7a 28 3e 89 bd 3a 3e c8 06 26 be
       -0.09979679 0.16453034 0.18236364 -0.16213524
0003d0 77 b3 e2 bd ab 63 a6 3e 5b fe 41 3b 50 e9 4e be
       -0.110693865 0.32497916 0.002960107 -0.20206189
0003e0 c7 63 73 3d f9 7d 6b 3d 21 be e8 bd 01 6c 84 be
       0.059421327 0.057493184 -0.11364389 -0.2586365
0003f0 a3 eb ec bd 0c a6 66 3e 34 b2 07 3e 9d 31 49 3d
       -0.11568382 0.2252428 0.13251573 0.04911958
