results/vanila/model_best.pt (torch, 575330 bytes, 90 tensors)

encoder.layers.0.self_attn.in_proj_weight f4 [15, 5]
0	0x3eb79445	0.35855308
1	0xbd2ba5c7	-0.041906144
2	0xbe1f3d2c	-0.15550679
3	0xbec953f5	-0.39321867
4	0x3d50516e	0.050858907
5	0x3e295169	0.16534962
6	0x3ed4e9bc	0.41584575
7	0xbe9911e8	-0.29896474
8	0xbd35b402	-0.044361122
9	0xbe65220a	-0.22376266
10	0xbe27b89b	-0.16379015
11	0xbe4890ff	-0.19586562
12	0x3eadf5ce	0.33976597
13	0xbf159cb0	-0.5844221
14	0xbf01bced	-0.506789
15	0x3ec033ac	0.37539423
16	0xbb8cd37a	-0.004297671
17	0x3ec85132	0.39124447
18	0x3ed02105	0.40650192
19	0xbde632ee	-0.11240183
20	0x3dff31c8	0.12460667
21	0xbe8f5743	-0.27996263
22	0xba8a205d	-0.001053821
23	0xbe4f39f8	-0.20236957
24	0xbe14aaa8	-0.14518225
25	0xbee1b8c2	-0.44086272
26	0x3e859801	0.26092532
27	0xbf6f00d7	-0.93360656
28	0x3cd56047	0.026046885
29	0xbeebe169	-0.46070412
30	0xbeb3d98c	-0.35126913
31	0x3d1aaaee	0.037760668
32	0x3dc33738	0.095320165
33	0xbcbb4954	-0.022862114
34	0x3e2d3708	0.16915524
35	0x3ed4f258	0.41591144
36	0x3ebc17fa	0.36737043
37	0xbd87e31c	-0.066351146
38	0x3e27d1a5	0.16388567
39	0xbec7cff2	-0.39025837
40	0xbe88f69f	-0.26750657
41	0x3e9655a7	0.29362223
42	0x3ef0a08b	0.46997485
43	0xbe4ba936	-0.19888768
44	0xbd2da3c4	-0.042392507
45	0xbe4bc98b	-0.19901101
46	0x3e2b1f60	0.16711187
47	0x3ed72d5c	0.42026794
48	0x3e7abe8f	0.24486755
49	0x3f02452a	0.50886786
50	0xbdf9d2a5	-0.121983804
51	0xbe993561	-0.29923537
52	0xbe9b663d	-0.3035144
53	0xbc941d85	-0.018080482
54	0xbcd2676d	-0.025684083
55	0x3e2971c6	0.16547307
56	0xbed7eb57	-0.42171738
57	0x3e2703d1	0.1631005
58	0x3eea468c	0.45756948
59	0x3e6ab53c	0.22920698
60	0xbec6762b	-0.3876203
61	0x3e2532b9	0.1613263
62	0x3c4d46ad	0.012529057
63	0xbf13c67d	-0.57724744
64	0x3d1db9c9	0.038507257
65	0xbeb89505	-0.36051193
66	0xbd995151	-0.07486213
67	0x3f11fe2f	0.5702848
68	0x3e070e28	0.13188994
69	0x3e821c4a	0.25412208
70	0x3f3a1206	0.7268375
71	0xbe72cb9f	-0.23710488
72	0x3f384306	0.7197727
73	0x3ef4f9a3	0.47846708
74	0x3e347e8d	0.176264

encoder.layers.0.self_attn.in_proj_bias f4 [15]
0	0xbdf67c11	-0.120353825
1	0x3c427959	0.011869752
2	0xbe48fa5d	-0.19626756
3	0xbd99b0ba	-0.07504411
4	0xbeaf3285	-0.3421823
5	0x3c38554e	0.011250807
6	0x3c9ae432	0.01890764
7	0x3d11a240	0.035555124
8	0xbd84f89d	-0.06492732
9	0x3bcbc969	0.0062190783
10	0xbc300248	-0.010742731
11	0x3e5d5282	0.21613505
12	0x3f0ce334	0.55034184
13	0xbeadc6e5	-0.33940807
14	0xbee3d9da	-0.44502145

encoder.layers.0.self_attn.out_proj.weight f4 [5, 5]
0	0xbecd23a9	-0.4006627
1	0x3de85e80	0.113461494
2	0xbf82f727	-1.0231675
3	0x3e9a3ba8	0.3012364
4	0x3f40fee4	0.7538893
5	0xbd3331d7	-0.043748703
6	0x3e19d8bd	0.15024085
7	0xbe1414a4	-0.14460999
8	0xbc5988e4	-0.013277266
9	0xbf1bb91a	-0.6082932
10	0xbed33644	-0.4125234
11	0xbee014d7	-0.437659
12	0xbf0d5c99	-0.5521942
13	0x3d87043c	0.065926045
14	0x3ef986be	0.48735613
15	0x3eee255a	0.46512872
16	0xbd97046a	-0.07373889
17	0x3f034fb1	0.51293474
18	0xbda3bc3b	-0.079948865
19	0xbf43d801	-0.7650147
20	0x3ec50a3c	0.3848437
21	0xbef47fd1	-0.47753766
22	0x3ea0e595	0.31425157
23	0x3e540fe4	0.20709187
24	0x3e1aa386	0.15101442

encoder.layers.0.self_attn.out_proj.bias f4 [5]
0	0xbd93b6f9	-0.07212634
1	0x3ee61ad0	0.4494233
2	0xbf07d2af	-0.5305585
3	0x3ef3315c	0.47498596
4	0xbe674e62	-0.22588494

encoder.layers.0.linear1.weight f4 [2048, 5]
0	0x3e5e7253	0.21723299
1	0xbf960188	-1.1719217
2	0x3e46b1fa	0.1940383
3	0xbebf990a	-0.37421447
4	0xbec3e900	-0.38263702
5	0x3e122d45	0.14275081
6	0xbf221aaa	-0.63321936
7	0x3f7ea5fa	0.9947201
8	0xbed78b81	-0.4209862
9	0xbe609a91	-0.21933962
10	0x3d05cb29	0.03266445
11	0xbf23fda4	-0.640589
12	0x3f48525d	0.78250676
13	0x3db2826c	0.08716282
14	0xbef20362	-0.47268206
15	0x3f3fe078	0.7495189
16	0x3f10e3cc	0.5659759
17	0xbe05dd66	-0.13072738
18	0x3c2bdcb2	0.01048963
19	0xbf61cb79	-0.882011
20	0x3d884051	0.066528924
21	0xbee39c1f	-0.44455048
22	0x3e8e5f69	0.27807167
23	0xbf2cde92	-0.67527115
24	0x3e1b397e	0.1515865
25	0x3f1e2c62	0.6178647
26	0x3f00b6a2	0.50278676
27	0xbdaea7f5	-0.08528129
28	0xbd9d9be8	-0.076957524
29	0xbf30c358	-0.6904807
30	0x3ee292e4	0.44252694
31	0x3e7d3c73	0.24730091
32	0xbd8f8365	-0.070074834
33	0xbe0e515e	-0.13898227
34	0xbec02c74	-0.37533915
35	0xbc90eefa	-0.017692078
36	0xbf2301e2	-0.6367475
37	0x3ede7a37	0.43452618
38	0xbf2f5aef	-0.6849813
39	0x3dcaa37f	0.09894466
40	0xbe0eb0a6	-0.13934574
41	0xbe87daa2	-0.2653399
42	0xbeb6124c	-0.35560834
43	0x3e563c2a	0.20921388
44	0x3f04d2ef	0.5188436
45	0x3e3ac035	0.18237384
46	0x3f692d04	0.91084313
47	0xbf45cb2f	-0.7726316
48	0x3eb959a7	0.36201212
49	0x3e8ceea0	0.27525806
50	0xbe95b841	-0.29242137
51	0xbc8ee70b	-0.017444154
52	0xbed8ab41	-0.42318156
53	0x3f1543c0	0.58306503
54	0x3ec2eaaa	0.3806966
55	0x3cb47f5b	0.022033384
56	0x3d3bfdfb	0.04589651
57	0xbec32309	-0.38112667
58	0xbe6b50f5	-0.22980101
59	0x3f12f93a	0.5741154
60	0x3f156678	0.5835948
61	0x3be405e3	0.0069587096
62	0xbd65f782	-0.056144245
63	0xbdf57477	-0.119851045
64	0xbf253448	-0.645329
65	0x3e1d5111	0.15362956
66	0xbefc99bc	-0.4933604
67	0x3f4ac00f	0.7919931
68	0xbf1719cc	-0.5902374
69	0xbe9bccc6	-0.30429667
70	0xbf0b8db1	-0.5451308
71	0xbe10f299	-0.14155044
72	0xbecf3039	-0.40466478
73	0x3e85d4c2	0.26138884
74	0x3ed69ee1	0.4191809
75	0xbebbfa2d	-0.36714306
76	0xbe2573e0	-0.16157484
77	0xbf168ec6	-0.58811605
78	0x3e89be6d	0.26903096
79	0x3eb2427f	0.34816357
80	0x3d1ed264	0.038774863
81	0xbf073c60	-0.528265
82	0x3f3d5e82	0.7397233
83	0xbe5600be	-0.2089872
84	0x3da60725	0.081068315
85	0xbe85028f	-0.25978515
86	0x3de69558	0.11258954
87	0x3f81c8a4	1.0139356
88	0x3e18e0e6	0.14929542
89	0x3e958d4f	0.29209372
90	0x3f036398	0.51323843
91	0xbf11df6c	-0.5698154
92	0x3edfd58c	0.4371761
93	0xbf13dd0d	-0.5775917
94	0xbc919277	-0.017770035
95	0xbd89b4b3	-0.06723919
96	0xbf3f5d9a	-0.747522
97	0x3f227953	0.63466376
98	0xbdbc9ef1	-0.09210003
99	0x3d7e0615	0.06201752
100	0x3e42fe76	0.19042382
101	0xbf59ef95	-0.851312
102	0x3f27f730	0.65611553
103	0xbf2e2e89	-0.68039757
104	0xbdca9f12	-0.098936215
105	0xbe0ebdda	-0.1393961
106	0x3edbb13a	0.4290865
107	0xbccc6af2	-0.02495334
108	0x3e8cd870	0.2750888
109	0x3ee5ce13	0.44883785
110	0xbe557a61	-0.20847465
111	0xbe1a9f75	-0.1509989
112	0xbe81b5a5	-0.25333896
113	0x3ec91716	0.39275426
114	0x3efd1f3d	0.49437895
115	0x3d98662a	0.07441361
116	0x3f12036d	0.5703648
117	0xbf29793e	-0.66200626
118	0x3edc8e2c	0.4307722
119	0xbe578b28	-0.21049178
120	0xbe126bee	-0.14298984
121	0xbe264cb0	-0.16240191
122	0xbf1b340f	-0.6062631
123	0xbd15f33e	-0.036608927
124	0x3f220b93	0.6329891
125	0x3f18f97a	0.5975567
126	0x3f48b6a2	0.78403676
127	0xbe4369aa	-0.19083276
128	0x3e002319	0.12513389
129	0xbf299a45	-0.6625102
130	0x3ef1ba8f	0.47212645
131	0xbe4eba1d	-0.20188184
132	0xbdefe666	-0.11713867
133	0x3e752c6c	0.23942727
134	0xbf056d6d	-0.52120095
135	0xbf29c0dd	-0.6630991
136	0x3f8f5448	1.1197596
137	0xbf3e5c09	-0.74359185
138	0x3ec37157	0.3817241
139	0x3dafd315	0.085851826
140	0x3e98553e	0.29752535
141	0xbf5d82f1	-0.86527926
142	0x3f010028	0.50390863
143	0xbf76a310	-0.96342564
144	0x3d93433c	0.07190558
145	0xbddeae87	-0.10873132
146	0xbf1c1a12	-0.6097728
147	0x3f2a6bf0	0.6657095
148	0x3e6726b1	0.22573353
149	0xbef30b01	-0.47469333
150	0x3e869f2f	0.26293322
151	0x3cc26020	0.023727477
152	0xbe439773	-0.19100742
153	0xbebe8a35	-0.3721482
154	0xbee49ae6	-0.44649428
155	0x3ce30921	0.027714314
156	0xbe1d5e26	-0.15367946
157	0x3ed1745d	0.4090909
158	0x3d85aa68	0.06526643
159	0x3e92a7ea	0.28643733
160	0xbd234b9c	-0.03986703
161	0x3ef7b3e3	0.4837943
162	0xbf1c6f69	-0.611075
163	0x3f2ededa	0.68308794
164	0xbe7b8d82	-0.245657
165	0x3cb284a5	0.021791765
166	0x3f597468	0.84943247
167	0xbf60f1c2	-0.87868893
168	0x3eee6f5e	0.4656934
169	0x3dabda16	0.08391206
170	0xbdb9ada3	-0.09066322
171	0xbf1e02db	-0.6172311
172	0x3ef5a33e	0.47976106
173	0xbe70aa21	-0.23502399
174	0xbe557dd9	-0.20848788
175	0x3e470d9b	0.19438784
176	0x3eb67f34	0.35643923
177	0x3ee9bf93	0.45653972
178	0xbe5032ea	-0.20331922
179	0xbecbe2c5	-0.3982145
180	0xbe9f7e6f	-0.3115115
181	0xbd4546ef	-0.04816335
182	0xbe5e4a62	-0.21708062
183	0x3e5f5af9	0.21812047
184	0x3f15c573	0.5850441
185	0xbe7b980b	-0.24569719
186	0x3ef29da1	0.47385886
187	0xbf2abf44	-0.666981
188	0x3eecf8a7	0.46283457
189	0xbd21a0f0	-0.039460123
190	0x3e284c00	0.16435242
191	0xbd6baca0	-0.057537675
192	0x3e71a9d6	0.23599944
193	0xbf30b05f	-0.6901912
194	0xbe0cea80	-0.1376133
195	0xbd5fc806	-0.054634117
196	0xbf731362	-0.9495145
197	0x3e99270a	0.29912597
198	0xbedcfb3c	-0.43160427
199	0xbe1c6e5d	-0.15276475
200	0x3eed662d	0.46367016
201	0x3f124196	0.57131326
202	0xbee2f694	-0.4432875
203	0xbf1cf564	-0.61311936
204	0xbf0c9620	-0.5491657
205	0xbd984e91	-0.0743686
206	0xbde5e043	-0.11224415
207	0x3d54d333	0.051959228
208	0xbe1de5d0	-0.15419698
209	0xbe239a06	-0.15976724
210	0x3e8d9905	0.27655807
211	0xbc59612c	-0.0132677965
212	0x3f0bef27	0.5466179
213	0xbe9b9751	-0.30388883
214	0x3ea4f9e5	0.32221904
215	0x3e46b636	0.19405445
216	0xbe48b3b0	-0.19599795
217	0x3f64575f	0.8919582
218	0x3d89c66e	0.067273006
219	0x3e5e49a5	0.2170778
220	0xbda071fe	-0.07834242
221	0xbf0bdc2d	-0.54632837
222	0xbe479ce4	-0.19493443
223	0xbe45d7d5	-0.19320615
224	0x3e8755bf	0.26432607
225	0x3ec36ad3	0.38167438
226	0x3c722824	0.014780078
227	0xbd44b059	-0.04801974
228	0x3e898019	0.26855543
229	0x3d92fa16	0.07176606
230	0xbe8b2c17	-0.27182075
231	0x3ca437e5	0.020046184
232	0xbf283678	-0.6570811
233	0x3f0f3d6c	0.559531
234	0x3eff5f36	0.49877328
235	0xbe47682d	-0.19473334
236	0xbf326cd1	-0.6969729
237	0x3f02db38	0.5111575
238	0xbe9a4205	-0.30128494
239	0xbd2cb704	-0.042166725
240	0xbdc0c8dc	-0.09413311
241	0xbf6fbdb7	-0.93648857
242	0x3f215910	0.63026524
243	0xbdf01e68	-0.117245495
244	0xbf00c3d7	-0.5029883
245	0x3cc8e0e2	0.024521295
246	0xbf0d4eea	-0.5519854
247	0x3e935429	0.28775147
248	0xbefb228b	-0.49049792
249	0x3eadf4a2	0.33975703
250	0x3f14c3c6	0.58111227
251	0x3df56933	0.11982956
252	0x3e66f9bb	0.22556202
253	0x3dfa04eb	0.12207969
254	0xbe9eb0c5	-0.3099424
255	0xbec1246f	-0.3772311

encoder.layers.0.linear1.bias f4 [2048]
0	0xbdcd96a2	-0.100384966
1	0x3f1a60be	0.60303867
2	0x3d55e8e0	0.05222404
3	0x3e6512e2	0.22370484
4	0x3d3da50b	0.046299975
5	0xba3e25ee	-0.0007253577
6	0xbe7300cb	-0.23730771
7	0x3def2874	0.11677638
8	0xbd911c6f	-0.070855014
9	0x3f4de5e4	0.8042891
10	0x3e9955c7	0.29948255
11	0xbf142ec2	-0.57883847
12	0x3efb89d5	0.49128595
13	0xbd182a77	-0.037149873
14	0x3d4af278	0.049547642
15	0xbe9d1f43	-0.30687913
16	0x3e83003a	0.2558611
17	0xbc8cce44	-0.017188199
18	0x3e1e1815	0.15438874
19	0x3f054e7c	0.5207288
20	0x3f096fe5	0.5368636
21	0xbe8447eb	-0.2583612
22	0x3d82844b	0.06372889
23	0xbd671bce	-0.056423
24	0x3d6a4525	0.057194848
25	0xbe012912	-0.12613323
26	0x3f1969df	0.5992717
27	0x3e28a92e	0.16470787
28	0x3f1b2a49	0.606114
29	0xbe947432	-0.289949
30	0xbea60f96	-0.32433766
31	0xbe8977d5	-0.26849237
32	0xbdfcc27b	-0.12341782
33	0x3f023502	0.50862134
34	0xbda69823	-0.081344865
35	0x3e17fa19	0.14841498
36	0x3e41334c	0.18867224
37	0xbea6e3f0	-0.32595778
38	0xbdb4ec5d	-0.08834145
39	0x3e00fbf1	0.12596108
40	0x3f1154e4	0.5677016
41	0xbeffb17a	-0.4994009
42	0xbece4193	-0.40284404
43	0x3e4fd69b	0.20296709
44	0xbec69bb1	-0.38790658
45	0xbf362a1d	-0.7115801
46	0x3f34d8c5	0.70643264
47	0x3e2d5c03	0.16929631
48	0x3e5c75c7	0.21529303
49	0x3ec21a00	0.3791046
50	0x3e5bd476	0.21467766
51	0x3df5d7bc	0.12004039
52	0x3e8f0be1	0.2793875
53	0xbf090aaa	-0.535319
54	0x3de70461	0.11280132
55	0xbe81b90c	-0.25336492
56	0x3ea07a4f	0.31343314
57	0x3f6808e2	0.90638554
58	0x3eb4a450	0.3528161
59	0x3d372cb9	0.044720385
60	0x3d9bc62d	0.076061584
61	0xbf01b3b9	-0.5066486
62	0xbf2140b4	-0.62989354
63	0x3d907985	0.07054428
64	0xbea7da43	-0.32783708
65	0x3eb52100	0.3537674
66	0x3f456a2d	0.77115136
67	0xbe7887c6	-0.24270543
68	0xbeceb092	-0.40369087
69	0x3e796c60	0.24357748
70	0x3ea00771	0.31255677
71	0x3e380086	0.1796895
72	0x3e449e23	0.1920095
73	0xbf06dc12	-0.5267955
74	0x3cbb65a2	0.02287561
75	0xbf0aadbf	-0.54171365
76	0xbd58ac1a	-0.052898504
77	0xbea9dc6f	-0.3317599
78	0x3f50129c	0.81278396
79	0xbed6abfc	-0.4192809
80	0xbc6b015a	-0.014343584
81	0xbe593613	-0.21212034
82	0xbe991567	-0.2989914
83	0xbe54d988	-0.20786107
84	0x3ecd27bf	0.40069386
85	0x3bccfdf9	0.006255862
86	0x3f1a6e40	0.6032448
87	0x3e42943b	0.19001858
88	0xbd4c2a8b	-0.04984526
89	0xbc271451	-0.010197715
90	0x3f23c400	0.6397095
91	0xbd021375	-0.031756837
92	0x3edbf329	0.42958954
93	0x3ea0a057	0.3137233
94	0x3e2c8b1d	0.16849943
95	0x3e833eaf	0.2563376
96	0x3f51fb09	0.82023674
97	0xbe6a79f0	-0.22898078
98	0x3eb5a98c	0.35480917
99	0xbe859353	-0.26088962
100	0x3e360908	0.17776883
101	0x3eeeb225	0.46620288
102	0xbddaf942	-0.106920734
103	0x3e7abe1e	0.24486586
104	0xbdd62ee9	-0.10458166
105	0x3e188f37	0.14898382
106	0x3e1f3a13	0.15549497
107	0xbe39d44c	-0.18147391
108	0xbd8d68c0	-0.06904745
109	0xbf227f59	-0.6347557
110	0xbdb4e676	-0.088330194
111	0xbe7cd2ea	-0.24689832
112	0xbefe344f	-0.49649283
113	0xbeef4e3a	-0.4673937
114	0x3f183a21	0.594637
115	0x3f31a2fe	0.6938933
116	0xbd06d524	-0.03291811
117	0x3dfd11e6	0.123569295
118	0xbea16459	-0.31521872
119	0x3edda90d	0.43293038
120	0xbf131596	-0.5745481
121	0x3f51c0c0	0.8193474
122	0xbf20f0f4	-0.62867665
123	0xbcfc1240	-0.030770421
124	0x3d6923f3	0.05691905
125	0x3f82bc4c	1.0213714
126	0xbe9f1124	-0.31067765
127	0x3eef3eeb	0.4672769
128	0x3ac374c4	0.0014912118
129	0x3d96574d	0.0734087
130	0xbde7496e	-0.112933025
131	0xbf087e56	-0.53317773
132	0x3ddb5d6b	0.107111774
133	0x3f2f9162	0.6858121
134	0x3d165020	0.036697507
135	0x3f27e001	0.6557618
136	0x3e8152a9	0.25258377
137	0x3e139595	0.1441253
138	0x3e3a70bb	0.18207066
139	0x3eb39401	0.35073856
140	0x3c61ebae	0.013789101
141	0x3ec26584	0.37968075
142	0x3e7c3e75	0.246332
143	0x3cc3f3b2	0.023919914
144	0xbf283a3b	-0.6571385
145	0xbee25c4a	-0.44211036
146	0xbed0ed32	-0.40805966
147	0x3dac64f3	0.08417692
148	0x3ebd9612	0.37028557
149	0x3f0fa77b	0.5611493
150	0xbe0b7dfb	-0.13622276
151	0x3f2ead59	0.6823326
152	0xbeae9491	-0.34097722
153	0x3eb8590d	0.3600544
154	0x3f754d1f	0.958208
155	0x3e8ffe4a	0.28123695
156	0x3e1f2ba4	0.15543991
157	0x3ec79f72	0.38988835
158	0xbe202402	-0.15638736
159	0x3e296ca3	0.16545348
160	0xbedf05ec	-0.43559206
161	0xbe103d64	-0.14085919
162	0x3de71489	0.11283214
163	0x3e83156b	0.25602278
164	0xbe77f97d	-0.24216266
165	0x3e38eab7	0.18058287
166	0xbe00c32d	-0.12574454
167	0x3ea11d0e	0.3146748
168	0xbed4f64a	-0.41594154
169	0x3c4eff9e	0.012634186
170	0xbe65c69e	-0.22439048
171	0x3eff8f10	0.49913836
172	0xbd20a652	-0.039221115
173	0xbd83f983	-0.06444075
174	0x3e84438b	0.2583278
175	0x3ed990d5	0.4249331
176	0x3e4f81b0	0.20264316
177	0xbeeb73f8	-0.45986915
178	0xbe8621f2	-0.26197773
179	0xbec879bd	-0.3915538
180	0xbe512c4f	-0.20427059
181	0xbdc3bbb5	-0.09557287
182	0x3d680564	0.056645766
183	0xbef8db62	-0.48604876
184	0xbe513559	-0.20430507
185	0xbedfdc6a	-0.4372285
186	0xbcbe4782	-0.023227457
187	0xbd674fac	-0.056472465
188	0xbd8e8df4	-0.06960669
189	0x3ece23d2	0.40261704
190	0x3f1ef68d	0.62094957
191	0xbdc4ceb6	-0.096097395
192	0x3c8a2dd2	0.016867552
193	0x3de6445c	0.11243507
194	0x3e8234b6	0.2543084
195	0x3f813ef2	1.0097334
196	0xbed348ce	-0.41266483
197	0x3d97dfb4	0.07415715
198	0xbe376fff	-0.17913817
199	0xbf403328	-0.7507806
200	0xbe9433f1	-0.28945878
201	0xbe98911c	-0.2979821
202	0xbe978619	-0.29594496
203	0x3f521e2e	0.820773
204	0xbeacb16b	-0.3372911
205	0x3da857b9	0.08219857
206	0x3e2ddbe9	0.1697842
207	0xbebdd986	-0.3708002
208	0x3f0172f7	0.5056605
209	0x3e46a98a	0.19400612
210	0xbe759e5b	-0.23986189
211	0x3e0b3e32	0.13597944
212	0x3e82fe85	0.25584808
213	0x3e3479e1	0.17624618
214	0x3f20947e	0.6272658
215	0x3e8bede7	0.27329943
216	0xbf08b727	-0.5340447
217	0xbdeaf767	-0.114729695
218	0xbebd769f	-0.37004563
219	0xbed4ebf7	-0.41586277
220	0x3f762660	0.96152306
221	0x3ea0a826	0.31378287
222	0x3dfb1a18	0.12260836
223	0xbc3dcac1	-0.011583985
224	0x3e8d9cbe	0.27658647
225	0x3e1d38c5	0.15353687
226	0x3e0bea78	0.13663661
227	0xbe8d23aa	-0.27566272
228	0x3f4872eb	0.7830035
229	0xbe856f0f	-0.26061293
230	0xbf2b248f	-0.6685266
231	0xbe7ccdff	-0.24687956
232	0xbd407886	-0.04698994
233	0x3df87eb8	0.12133545
234	0xbc7dec5a	-0.015498245
235	0x3e516373	0.20448093
236	0x3e849b3e	0.2589969
237	0xbe1f0da8	-0.15532553
238	0x3dc91070	0.09817588
239	0x3e0faa15	0.14029725
240	0x3e379775	0.1792887
241	0x3e6b9af8	0.23008335
242	0x3d179682	0.03700877
243	0x3e8fb052	0.2806421
244	0xbeca5ffb	-0.39526352
245	0x3ebbe1e8	0.3669579
246	0xbf1c36cf	-0.6102113
247	0xbe6672ac	-0.22504681
248	0x3edc37ac	0.43011224
249	0x3e85088d	0.25983086
250	0x3e9b54c6	0.30338115
251	0x3f319fa1	0.693842
252	0x3e0ef9e2	0.1396251
253	0x3dd728ea	0.105058506
254	0xbea9bf93	-0.33153972
255	0x3c64e833	0.013971376

encoder.layers.0.linear2.weight f4 [5, 2048]
0	0x3f074a95	0.5284818
1	0x3cbda347	0.023149146
2	0x3eccd242	0.40004164
3	0x3e8f4863	0.27984914
4	0x3ec14c89	0.37753704
5	0x3dd49ae1	0.10381103
6	0x3eadf500	0.33975983
7	0x3ee96553	0.45585117
8	0x3d588085	0.05285694
9	0x3ea05752	0.3131662
10	0x3da18d54	0.07888284
11	0x3db9acbd	0.0906615
12	0xbe5c69d8	-0.21524751
13	0x3e77ee3e	0.24211976
14	0x3e421256	0.18952307
15	0x3ef6d9a3	0.4821292
16	0x3e7bf94f	0.24606822
17	0x3ea84e78	0.32872367
18	0x3d077c66	0.03307762
19	0x3ea94e4a	0.33067542
20	0xbdecd3ae	-0.11563812
21	0x3ef6ca85	0.48201385
22	0x3dc54b36	0.09633486
23	0x3ed6b898	0.4193771
24	0x3ef4ceac	0.47813928
25	0x3ec7e249	0.3903983
26	0x3d0723c7	0.032993104
27	0x3f150d36	0.58223283
28	0x3e190e67	0.149469
29	0x3ece2963	0.4026595
30	0x3e2ad030	0.1668098
31	0xbe0ff446	-0.14058027
32	0x3f0ccd9e	0.55001247
33	0x3f01b985	0.50673705
34	0x3ede23e3	0.43386754
35	0xbdf06e34	-0.117397696
36	0x3c760630	0.015016124
37	0x3f31884e	0.6934861
38	0xbdc03daf	-0.09386765
39	0x3e42dc13	0.19029264
40	0x3d316d19	0.043316934
41	0x3b0a82b9	0.0021135046
42	0xbd8ea0a8	-0.069642365
43	0x3ea1c1cf	0.31593177
44	0xbe052609	-0.1300279
45	0xbe3435df	-0.17598675
46	0x3e7ec88d	0.24881192
47	0x3eac9b4c	0.33712232
48	0x3f0a01ba	0.53908885
49	0x3ef17418	0.47158885
50	0x3e3e82ae	0.18604538
51	0x3f20ddff	0.6283874
52	0x3f14e1c7	0.5815701
53	0x3ee4ef1d	0.4471368
54	0x3e72909d	0.23687978
55	0x3ed83259	0.42225912
56	0x3ec1de46	0.37864894
57	0x3ec07260	0.3758726
58	0x3f3d28d5	0.7389043
59	0x3cc33557	0.023829145
60	0x3f2acc4e	0.66717994
61	0xbe1d3d43	-0.153554
62	0x3d02746f	0.03184932
63	0x3ed6f2ce	0.4198212
64	0xbdf420e2	-0.119203344
65	0x3e61e1d4	0.22058803
66	0x3f264d1d	0.64961416
67	0x3c745cac	0.014914673
68	0x3dd57fcb	0.10424765
69	0x3e0922e9	0.13392223
70	0x3eec9ca4	0.46213257
71	0x3f4d089a	0.8009125
72	0x3e8f90ef	0.28040263
73	0x3e0b7092	0.13617161
74	0xbda82a69	-0.08211214
75	0x3e07f44f	0.1327679
76	0x3ed24c70	0.41073942
77	0x3dbad9fe	0.0912361
78	0x3f0de66c	0.5542972
79	0x3dea391a	0.114366725
80	0x3eb9c5e8	0.36283803
81	0x3ec010cb	0.37512812
82	0x3e7d23b3	0.2472065
83	0x3d9db6c7	0.07700878
84	0x3ef4b6ae	0.47795624
85	0x3e241057	0.16021858
86	0x3e4b791e	0.19870421
87	0x3d7a8fea	0.061172403
88	0x3ed121e9	0.40846184
89	0x3ef2b14a	0.47400886
90	0x3f2958ae	0.6615094
91	0x3e79374e	0.24337503
92	0x3df06843	0.11738636
93	0x3df98b07	0.121847205
94	0x3e9c023d	0.30470458
95	0x3e4a199b	0.1973633
96	0x3f1eaafa	0.6197964
97	0x3cdc33ba	0.026880134
98	0x3ea2450e	0.3169331
99	0x3e1a4d6e	0.150686
100	0x3ed0b962	0.40766436
101	0x3e0899ea	0.13339964
102	0x3d85fdd6	0.06542556
103	0x3d258312	0.0404082
104	0x3ed8c958	0.42341113
105	0x3f3c37e9	0.7352281
106	0x3eb02501	0.34403232
107	0x3e33d041	0.17559911
108	0x3e9936dd	0.2992467
109	0x3d99ecdd	0.07515881
110	0x3ea2ea03	0.31819162
111	0x3e0bf5c1	0.13667966
112	0x3cdce8eb	0.026966533
113	0xbd0fccef	-0.03510755
114	0x3e6e6b83	0.232832
115	0x3f19dd0b	0.6010291
116	0x3f0ee0a1	0.55811507
117	0x3e980465	0.29690853
118	0x3d76d1da	0.060258724
119	0x3ea5df8b	0.32397112
120	0xbe0c6b3d	-0.13712783
121	0xbd8ac5e5	-0.06776027
122	0x3dace1a3	0.08441474
123	0xbd9092df	-0.070592634
124	0x3d7a4fd1	0.061111275
125	0x3f05ff12	0.5234233
126	0xbdee1625	-0.116253175
127	0x3f0c6e3e	0.54855716
128	0x3df25502	0.1183262
129	0x3eab8fc1	0.33508113
130	0x3e1f15fa	0.15535727
131	0x3e08b4e1	0.1335025
132	0x3eabfc9f	0.33591172
133	0x3eb3e224	0.3513347
134	0x3e26094b	0.16214482
135	0x3eb9e74c	0.36309278
136	0x3f16b5f2	0.58871377
137	0x3ecdbff4	0.4018551
138	0x3d41784d	0.04723387
139	0x3e2e5b1c	0.17026943
140	0xbe6f60fd	-0.23376842
141	0xbdfe0dcb	-0.124049746
142	0x3dbf83d8	0.09351319
143	0xbdad67e8	-0.08467084
144	0xbc89de83	-0.016829735
145	0x3d9e95b7	0.077433996
146	0xbe12d3ed	-0.14338656
147	0x3ea8575c	0.3287915
148	0xbc824105	-0.015900144
149	0x3e4d1864	0.20028836
150	0x3dce1b6a	0.100638226
151	0x3e86bf25	0.26317707
152	0xbdb367bf	-0.08760022
153	0x3e8cce57	0.27501175
154	0x3efa23b8	0.48855376
155	0x3e99c08e	0.3002972
156	0x3dcb9c28	0.09941894
157	0x3e3b9008	0.18316662
158	0x3e8dadfc	0.27671802
159	0x3f016fca	0.505612
160	0x3c7f72b7	0.015591315
161	0x3ec2d396	0.38052052
162	0x3e747051	0.2387097
163	0x3e86f2f3	0.2635723
164	0xbcfe51ee	-0.031044926
165	0x3e75ae02	0.2399216
166	0xbe412ff5	-0.1886595
167	0x3d873c7d	0.06603334
168	0x3d338b08	0.043833762
169	0x3ef497c4	0.47772038
170	0xbbb4ca33	-0.005517268
171	0x3e67cba7	0.22636281
172	0x3ee17369	0.44033363
173	0xbc256863	-0.0100956885
174	0x3e40bf32	0.18822935
175	0x3e9715b1	0.29508737
176	0x3e96e94c	0.29474866
177	0x3d10920e	0.03529554
178	0x3ea8b3dc	0.32949722
179	0xbdc8d4c7	-0.09806209
180	0x3f0dc834	0.5538361
181	0x3e958c95	0.29208818
182	0x3e742045	0.23840435
183	0xbd92f93f	-0.07176446
184	0x3eddc055	0.433108
185	0xbde3d1fd	-0.111240365
186	0x3c373ddb	0.011184181
187	0x3e61f4d4	0.22066051
188	0x3eeffc3f	0.46872136
189	0x3ea45a18	0.32099986
190	0x3ecc6456	0.399203
191	0x3f058244	0.52151895
192	0xbd359289	-0.0443292
193	0x3eb7607f	0.35815808
194	0xbe407f56	-0.18798575
195	0x3edd0f98	0.4317596
196	0x3e3d32a8	0.18476355
197	0x3e868f68	0.26281285
198	0xbde342cd	-0.110967256
199	0x3cecf221	0.02892405
200	0x3f05db6a	0.52287924
201	0x3dd76b57	0.1051852
202	0xbdf2cd0b	-0.11855515
203	0x3e79f77d	0.24410816
204	0x3b3ce173	0.0028820902
205	0x3e36241b	0.1778721
206	0x3ee585e3	0.4482871
207	0x3e034449	0.12819017
208	0x3e950a7f	0.2910957
209	0x3ee9ef2d	0.4569029
210	0xbe20c807	-0.15701304
211	0x3f0e0e4d	0.5549057
212	0x3e9b7269	0.30360726
213	0x3f0d2341	0.5513192
214	0x3ea8b740	0.3295231
215	0x3ded3d78	0.1158399
216	0x3cd09e5f	0.025466142
217	0x3e0c243d	0.13685699
218	0x3eece8a3	0.46271238
219	0x3a919779	0.0011107764
220	0x3f080024	0.53125215
221	0x3e8da60f	0.27665755
222	0x3f5db6de	0.8660716
223	0x3e6189b1	0.22025181
224	0x3ed22b96	0.41048878
225	0x3ec6ef49	0.38854435
226	0x3e7ba450	0.24574399
227	0x3e12f907	0.14352809
228	0x3ee3abd0	0.4446702
229	0x3ecf5099	0.4049118
230	0x3e642d43	0.22282891
231	0x3eb70466	0.35745543
232	0x3f00a103	0.50245684
233	0xbc94a594	-0.01814536
234	0x3e3440e7	0.17602883
235	0x3e4fe2ea	0.20301405
236	0x3e9fe7bb	0.31231484
237	0x3ed84842	0.42242628
238	0xbb6349e7	-0.00346815
239	0xbd9187e6	-0.07105999
240	0x3ef55db5	0.47923055
241	0x3ee16d49	0.4402869
242	0x3e6b24b5	0.22963221
243	0x3ed6482f	0.41851947
244	0xbd599d7f	-0.053128716
245	0x3e958139	0.29200152
246	0xbc015b57	-0.007895312
247	0x3e1b4189	0.15161718
248	0x3f08081e	0.53137386
249	0x3ec97e7c	0.39354312
250	0x3e817570	0.2528491
251	0x3eb0d00f	0.34533736
252	0x3ebc2c4d	0.3675255
253	0x3f18961d	0.59604055
254	0x3d0d07a6	0.034431122
255	0xbe3845ec	-0.17995423

encoder.layers.0.linear2.bias f4 [5]
0	0x3e95903e	0.2921161
1	0x3d1e1cf9	0.03860185
2	0xbe859227	-0.26088068
3	0x3e256392	0.16151264
4	0x3f0749b5	0.52846843

encoder.layers.0.norm1.weight f4 [5]
0	0x3f80ce8e	1.0063035
1	0x3fca69fd	1.5813595
2	0x3fa445ba	1.2833779
3	0x3fbc9b6e	1.4734933
4	0x3f3e80e5	0.7441543

encoder.layers.0.norm1.bias f4 [5]
0	0xbc8aa361	-0.016923608
1	0x3ee40993	0.44538555
2	0xbec766b3	-0.3894554
3	0x3e926a19	0.2859657
4	0xbe0e543c	-0.1389932

encoder.layers.0.norm2.weight f4 [5]
0	0x3f803efd	1.0019222
1	0x3f66e177	0.9018778
2	0x3ff5e28d	1.9209763
3	0x3eda3842	0.42621046
4	0x3f5d6842	0.8648721

encoder.layers.0.norm2.bias f4 [5]
0	0x3eb977d2	0.36224228
1	0x3e4b93d8	0.19880617
2	0xbe57a934	-0.2106064
3	0x3d0538af	0.03252476
4	0x3ee745f4	0.45170557

encoder.layers.1.self_attn.in_proj_weight f4 [15, 5]
0	0x3eb78ded	0.35850468
1	0x3ef68d11	0.481545
2	0xbebb967c	-0.36638248
3	0xbd215d2b	-0.039395493
4	0xbe6ae09f	-0.22937249
5	0xbdff6e85	-0.12472252
6	0x3f437592	0.76351273
7	0xbf5b907b	-0.85767335
8	0x3f0f39f7	0.5594782
9	0xbee7a463	-0.45242605
10	0x3d1fbfcd	0.039001275
11	0xbe87fadc	-0.26558578
12	0x3eb827d6	0.35967892
13	0xbec9d3fc	-0.39419544
14	0xbe66e04a	-0.22546497
15	0x3f2185f9	0.6309505
16	0xbc516bee	-0.01278208
17	0x3fa80bb8	1.3128576
18	0x3df16cea	0.11788352
19	0xbf0d0f73	-0.551017
20	0x3f2faf2d	0.6862667
21	0xbdd8f59b	-0.105937205
22	0x3db84926	0.08998327
23	0x3df2787f	0.11839389
24	0xbef8208a	-0.48462325
25	0xbefbffd7	-0.49218628
26	0x3e947d7a	0.2900198
27	0xbe986fc6	-0.29772776
28	0x3eab5cbf	0.33469197
29	0xbecb4d8b	-0.39707598
30	0xbe54b2e6	-0.2077137
31	0x3e4c4d6a	0.19951406
32	0xbeb7c467	-0.3589203
33	0xbf1c8bef	-0.6115102
34	0x3ee0bccb	0.43894038
35	0x3e69229b	0.22767107
36	0x3e7dede9	0.24797787
37	0x3f0710d5	0.5276006
38	0x3e94b450	0.29043818
39	0x3e354609	0.17702498
40	0xbea90721	-0.3301325
41	0x3d9ced65	0.07662467
42	0x3f35bd6d	0.70992166
43	0x3c87960e	0.016551044
44	0xbee36de3	-0.44419774
45	0x3e896096	0.26831502
46	0x3e5c0f63	0.21490245
47	0x3f30aab1	0.69010454
48	0xbe3647cd	-0.17800827
49	0xbe247f7b	-0.16064255
50	0x3f717d32	0.9433166
51	0x3e70bd58	0.23509729
52	0xbd045b9e	-0.032313935
53	0x3e05ab0f	0.13053535
54	0xbd607dee	-0.054807596
55	0xbeadb2a1	-0.33925346
56	0x3e30e92f	0.17276452
57	0x3ead8b9a	0.3389557
58	0x3cd45810	0.025920898
59	0x3e394a2a	0.18094698
60	0xbeb7fefc	-0.35936725
61	0x3df3f7eb	0.11912521
62	0xbe381f96	-0.17980799
63	0xbe8dfaab	-0.27730307
64	0xbdd99cb6	-0.10625593
65	0xbf9afb04	-1.2107854
66	0x3eb19ba4	0.34689057
67	0x3f1e1bbf	0.6176109
68	0x3f4ae42e	0.79254425
69	0x3dd44dcf	0.10366403
70	0x3ea04fb0	0.31310797
71	0xbef830ef	-0.48474833
72	0x3e664779	0.22488202
73	0x3eb507b6	0.35357445
74	0x3ec96919	0.39337996

encoder.layers.1.self_attn.in_proj_bias f4 [15]
0	0x3df048ba	0.117326215
1	0x3f084cf6	0.53242433
2	0x3e7054d9	0.23469867
3	0xbcbfecb7	-0.023428304
4	0x3e3b49d9	0.1828989
5	0x3c279ef0	0.010230765
6	0x3be1421b	0.0068743355
7	0xb82e9b56	-4.16295e-05
8	0x3a533bb0	0.00080579054
9	0xba80c537	-0.00098244
10	0x3efb6312	0.49099022
11	0xbf11b655	-0.5691884
12	0x3d996b0b	0.0749112
13	0xbf32ef3a	-0.6989628
14	0x3e647042	0.22308448

encoder.layers.1.self_attn.out_proj.weight f4 [5, 5]
0	0xbed7f728	-0.42180753
1	0x3eeea3d5	0.4660937
2	0x3e074940	0.13211536
3	0x3f856c27	1.042363
4	0xbe32d7a2	-0.1746507
5	0x3e546c87	0.20744525
6	0xbe85cad2	-0.26131302
7	0xbf275b1d	-0.653734
8	0xbef6f91b	-0.48236927
9	0x3edf9b90	0.43673372
10	0xbebb05c0	-0.36527824
11	0x3cefd497	0.029276175
12	0xbec06646	-0.37578028
13	0x3f08905d	0.5334528
14	0xbe4b62cf	-0.19861911
15	0x3f09820e	0.5371407
16	0xbf10cb32	-0.5656005
17	0x3d140b60	0.03614366
18	0xbf48b88d	-0.784066
19	0x3e29b940	0.16574574
20	0xbe0ce3cc	-0.13758773
21	0xbe44bb77	-0.19212137
22	0xbf1b1e14	-0.6059277
23	0xbcbdd198	-0.023171231
24	0x3e9714d8	0.2950809

encoder.layers.1.self_attn.out_proj.bias f4 [5]
0	0xbd63e85c	-0.055641517
1	0xbe648bef	-0.22319005
2	0xbf076ae8	-0.528975
3	0x3ed449d3	0.41462573
4	0x3f077811	0.5291758

encoder.layers.1.linear1.weight f4 [2048, 5]
0	0x3da5ad62	0.08089711
1	0xbf1e430a	-0.61821043
2	0x3ecd4f14	0.40099394
3	0x3e269730	0.16268611
4	0xbe8dde98	-0.27708888
5	0x3e34da9e	0.17661521
6	0x3e2d9cc5	0.16954334
7	0x3f131595	0.57454807
8	0xbeca0b52	-0.39461762
9	0x3e685adb	0.22690909
10	0xbdc57474	-0.09641352
11	0x3d6243a9	0.055240307
12	0x3d80216a	0.06256373
13	0x3d0c07e4	0.034187213
14	0xbe1bf7b1	-0.15231206
15	0x3f3bdcb5	0.7338365
16	0xbf44053c	-0.7657049
17	0x3eeb0f2f	0.45910022
18	0xbece81ec	-0.40333498
19	0x3d3661cd	0.044526864
20	0x3ea7b2b1	0.32753518
21	0xbe9f9b43	-0.31173143
22	0x3f561311	0.83622843
23	0xbf3e4fad	-0.74340326
24	0x3d273ba9	0.04082838
25	0x3e8f3279	0.27968195
26	0x3ee743de	0.45168966
27	0xbd887189	-0.0666228
28	0x3de442fb	0.11145588
29	0xbe34303b	-0.17596523
30	0xbe6d62b0	-0.23182178
31	0x3ea5a374	0.32351267
32	0x3e15fd1a	0.14647332
33	0x3e37aedb	0.17937796
34	0xbecc1094	-0.39856398
35	0xbdf04b9f	-0.117331736
36	0x3dd869d7	0.10567062
37	0x3eb0ff6c	0.3456987
38	0x3c76a1d3	0.01505323
39	0x3d3ca686	0.046057247
40	0x3e5e2805	0.21694954
41	0x3e81586c	0.25262773
42	0xbd3f0843	-0.04663874
43	0xbe20aa0d	-0.15689869
44	0xbdcd011c	-0.10009977
45	0x3f12d6a2	0.57358754
46	0x3e16b1cc	0.14716262
47	0xbeeaa748	-0.4583075
48	0xbe416a1a	-0.18888131
49	0x3f75f4f2	0.9607688
50	0x3e9e36f3	0.30901298
51	0xbe888995	-0.26667467
52	0xbed2133c	-0.410303
53	0xbe2f2c9a	-0.17106858
54	0x3eab1c19	0.33419874
55	0xbd48f93b	-0.04906581
56	0xbe8e2168	-0.27759862
57	0xbf3ef7ed	-0.74597055
58	0xbe2b3437	-0.16719137
59	0x3f7b12bd	0.9807547
60	0x3f39f4f5	0.726394
61	0xbf2251b9	-0.6340595
62	0x3eae9014	0.34094298
63	0xbf237560	-0.63850975
64	0xbd99bb5e	-0.075064406
65	0x3dc73046	0.09726004
66	0xbe51aea4	-0.20476776
67	0x3e0fe21b	0.14051096
68	0x3cf0f646	0.029414307
69	0xbe84ce4c	-0.25938642
70	0xbd2d2f71	-0.04228157
71	0xbf1222c8	-0.5708432
72	0xbf09d6d8	-0.5384345
73	0xbf07e42f	-0.53082556
74	0x3f09414d	0.53615266
75	0x3e8ab04f	0.27087638
76	0xbcacd04a	-0.021095414
77	0xbeb3cf3f	-0.35119054
78	0x3da3e048	0.08001763
79	0xbef4c9b0	-0.47810125
80	0xbe00be26	-0.12572536
81	0xbe98920f	-0.29798934
82	0x3f5212fa	0.82060206
83	0xbeba6e7d	-0.3641242
84	0x3eec99dd	0.46211138
85	0xbe2b6e30	-0.16741252
86	0x3e8bdd3e	0.27317232
87	0x3e87c895	0.2652022
88	0x3e8d4386	0.2759058
89	0x39450963	0.00018790881
90	0x3f25aff4	0.6472161
91	0xbe8164b6	-0.2527215
92	0x3f53e1a6	0.8276619
93	0xbcd54cd5	-0.026037613
94	0xbec8da7c	-0.3922919
95	0xbefb073a	-0.4902895
96	0x3ef5f09a	0.48035127
97	0x3dd5eded	0.10445771
98	0x3e2d82ca	0.16944423
99	0x3e2d6d88	0.16936314
100	0xbdda57bd	-0.10661266
101	0x3e30ad13	0.17253523
102	0x3e87c70a	0.26519042
103	0x3c3f3081	0.011669279
104	0xbe3ce88a	-0.18448082
105	0xbe18c7b3	-0.14919929
106	0x3e5b9ed4	0.21447307
107	0x3f29c198	0.66311026
108	0x3e573090	0.21014619
109	0xbdc7e62b	-0.09760698
110	0xbeb2be52	-0.34910828
111	0x3e58d7b5	0.21176036
112	0xbf179bac	-0.5922191
113	0x3ef46f08	0.4774096
114	0x3e3cccb4	0.18437463
115	0x3e857759	0.26067618
116	0x3ec0c19b	0.3764771
117	0xbdf3afc9	-0.11898763
118	0x3d51747f	0.05113649
119	0xbefb58d3	-0.49091205
120	0xbf0bf209	-0.5466619
121	0xbecf4318	-0.40480876
122	0xbfb18fe8	-1.3872042
123	0x3f0435fa	0.5164486
124	0x3f3b8c1a	0.73260653
125	0x3ebf69d7	0.37385437
126	0x3e38bf41	0.18041708
127	0xba604938	-0.00085558323
128	0x3dc4649e	0.09589504
129	0xbe584a0c	-0.21121997
130	0x3eb301ab	0.3496221
131	0xbeca6a37	-0.3953416
132	0x3f28c7a5	0.65929633
133	0x3dc52359	0.09625883
134	0x3dd8d070	0.10586631
135	0xbd83c0e1	-0.06433273
136	0x3f136d6f	0.5758886
137	0xbe3267f5	-0.17422469
138	0xbf1b05d6	-0.6055578
139	0x3d6c72a7	0.05772653
140	0xbe84e1e9	-0.25953606
141	0xbe119675	-0.14217551
142	0xbee908a2	-0.455144
143	0x3e5b1082	0.21393016
144	0x3f0af7bd	0.5428427
145	0xbf148e71	-0.5802985
146	0x3dfe077e	0.12403773
147	0xbd06ec66	-0.03294029
148	0x3f3da53b	0.74080247
149	0xbf336a54	-0.7008412
150	0x3e348b94	0.1763137
151	0x3e2ebd7a	0.17064467
152	0xbe393c49	-0.18089403
153	0xbe0611e2	-0.13092759
154	0xbe8b831f	-0.27248475
155	0x3edf76a2	0.43645197
156	0xbe914e00	-0.28379822
157	0x3f6120b1	0.8794051
158	0xbf435b56	-0.7631124
159	0x3f028eed	0.5099934
160	0x3d3be36d	0.045871187
161	0x3ed513ae	0.41616577
162	0xbe41ef75	-0.18939002
163	0x3ec55445	0.38540855
164	0xbefd0fde	-0.49426168
165	0x3f36ea0a	0.71450865
166	0x3c7224ac	0.014779251
167	0x3e5aef9d	0.21380468
168	0xbdb8c3e3	-0.090217374
169	0x3cf65fd5	0.030074993
170	0x3cf1f1d5	0.02953426
171	0xbeb2605a	-0.34839135
172	0x3f96f1a0	1.1792488
173	0xbf0083ba	-0.50201
174	0xbe248f88	-0.16070378
175	0x3e982a1b	0.29719624
176	0x3e4b3baa	0.19846979
177	0x3f150b9b	0.58220834
178	0xbe4a75d0	-0.19771504
179	0xbe6bbbf5	-0.23020919
180	0x3e22700c	0.15863055
181	0x3ec6f8b7	0.3886163
182	0x3f4cd2e1	0.80009276
183	0xbe838623	-0.25688276
184	0x3d8b8640	0.068127155
185	0x3cc689b6	0.024235588
186	0x3dc13551	0.094339974
187	0xbe19c217	-0.15015446
188	0x3e1d02bd	0.15333076
189	0xbf351157	-0.70729584
190	0x3f1ff09f	0.62476534
191	0xbe191b59	-0.14951839
192	0x3f206f94	0.62670255
193	0xbebcde83	-0.36888513
194	0xbedc051f	-0.42972657
195	0xbb100a81	-0.0021978917
196	0xbe89a6cb	-0.26885065
197	0x3e963e47	0.2934439
198	0xbe6e75cf	-0.23287128
199	0x3d2bed5e	0.041974418
200	0x3f2c5d95	0.67330295
201	0xb9a66314	-0.00031735806
202	0x3e3be4f0	0.18349051
203	0xbf670013	-0.9023449
204	0xbdd4bfc7	-0.10388141
205	0xbd09920a	-0.03358654
206	0x3d67cc1a	0.05659113
207	0xbcc6b5c2	-0.02425659
208	0xbe35501e	-0.17706344
209	0xbe803d13	-0.25046596
210	0xbda951fd	-0.08267591
211	0x3e272795	0.16323693
212	0x3f03b42d	0.514468
213	0xbed44f40	-0.41466713
214	0x3ee21703	0.44158182
215	0x3d464e43	0.04841448
216	0x3eecf0f6	0.4627759
217	0x3f498179	0.78713185
218	0x39953a08	0.0002846273
219	0x3e7a3273	0.24433307
220	0xbe3bf133	-0.18353729
221	0x3dd2db36	0.102957174
222	0xbd502627	-0.050817635
223	0xbe4ae013	-0.1981204
224	0x3ca01f64	0.019546218
225	0x3f070389	0.5273977
226	0xbf01cedc	-0.5070627
227	0x3f0d16c5	0.5511287
228	0x3e53facb	0.20701139
229	0xbe380ab5	-0.17972834
230	0xbeb73f39	-0.35790423
231	0x3ef3dec3	0.4763089
232	0xbede319c	-0.43397224
233	0x3db0a5a5	0.08625344
234	0x3d38e4e6	0.04514017
235	0xbe827b6c	-0.25484788
236	0x3d81d755	0.063398995
237	0x3e84c8a1	0.25934318
238	0xbe6dd29b	-0.23224871
239	0x3df938f9	0.1216907
240	0xbee8f6f0	-0.45500898
241	0xbf37d915	-0.71815616
242	0xbf44f59a	-0.7693726
243	0x3f419bd8	0.75628424
244	0xbd0a7b0b	-0.03380875
245	0x3ee806b6	0.4531762
246	0xbeddf3d1	-0.4335008
247	0x3e4583f6	0.1928862
248	0xbf341388	-0.703423
249	0x3f05d817	0.5228285
250	0x3f419f17	0.75633377
251	0xbec06c1b	-0.37582478
252	0x3f4cfb02	0.8007051
253	0xbdea2333	-0.11432495
254	0x3c2a38b3	0.010389495
255	0x3ae2f51b	0.0017315479

encoder.layers.1.linear1.bias f4 [2048]
0	0xbe9a0bb2	-0.30087048
1	0x3eaff880	0.34369278
2	0xbed32ecb	-0.41246638
3	0x3e9dba22	0.3080607
4	0x3f0efb97	0.55852646
5	0xbe9d63d3	-0.30740222
6	0xbeadf68e	-0.3397717
7	0xbe99ab09	-0.30013302
8	0xbe928e3f	-0.2862415
9	0x3f0d7917	0.55262893
10	0x3e15ec7c	0.14640993
11	0xbd37b68d	-0.04485183
12	0x3edfef56	0.43737286
13	0xbf07b257	-0.530065
14	0x3c11e46f	0.0089045605
15	0xbf157176	-0.5837625
16	0x3e4ff0fa	0.20306769
17	0xbeb1e08f	-0.34741637
18	0xbdc3cf61	-0.09561039
19	0x3c92c58a	0.01791646
20	0xbda4975f	-0.08036684
21	0xbe754cc6	-0.23955068
22	0x3ec4e6a7	0.38457224
23	0xbed45ff7	-0.41479465
24	0x3f32d609	0.6985784
25	0xbf0d1bfd	-0.5512083
26	0xbd31a77d	-0.04337262
27	0xbf0981e9	-0.5371385
28	0x3e703ba3	0.2346025
29	0xb9c73e0c	-0.00038002466
30	0xbedf30a6	-0.43591803
31	0x3f44b267	0.7683472
32	0xbecfbc68	-0.4057343
33	0x3e3e90ef	0.18609975
34	0x3ee3d5d2	0.4449907
35	0x3e4eb28c	0.20185298
36	0xbd45887a	-0.048225857
37	0xbeed0e50	-0.46299982
38	0xbd80a293	-0.062810086
39	0xbe74e686	-0.23916063
40	0x3f0e6980	0.5562973
41	0xbeddb78f	-0.43304107
42	0xbe9ef783	-0.3104821
43	0xbd8a25e4	-0.06745508
44	0xbece159f	-0.4025087
45	0xbeb8d9d2	-0.36103684
46	0x3f2023c9	0.62554604
47	0x3ca0a6b0	0.019610733
48	0x3f6fec37	0.9371981
49	0x3ec01a1a	0.37519914
50	0x3e6b7845	0.22995098
51	0xbe24a6f1	-0.16079308
52	0x3ea0221d	0.31276026
53	0xbdb215e5	-0.08695582
54	0x3f008aff	0.5021209
55	0xbe8fab03	-0.2806016
56	0x3e2faa81	0.17154886
57	0x3f0860a0	0.5327244
58	0xbed5e66d	-0.41777363
59	0xbea9010c	-0.3300861
60	0xbec59e28	-0.38597226
61	0x3ce82be2	0.028341237
62	0xbf37e7cd	-0.71838075
63	0x3e46155d	0.19344087
64	0xbe842146	-0.25806636
65	0xbe3ce426	-0.18446407
66	0xbeb3996a	-0.35077983
67	0xbe2b72c4	-0.16742998
68	0xbe32cdc5	-0.17461307
69	0xbbb2d0d6	-0.005457024
70	0xbd6b62dc	-0.057467327
71	0xbea3eee7	-0.32018206
72	0xbef08888	-0.46979165
73	0xbf1176d4	-0.5682194
74	0x3ba7d801	0.005122185
75	0xbe9fa843	-0.3118306
76	0xbec4d300	-0.3844223
77	0x3e1faa83	0.15592389
78	0x3ed912b9	0.42397097
79	0xbe936cc2	-0.28793913
80	0xbd299920	-0.041405797
81	0xbeadc634	-0.3394028
82	0x3e8651fc	0.26234424
83	0xbe846553	-0.25858554
84	0x3e9eb945	0.31000724
85	0xbed7b386	-0.42129153
86	0x3ef9ddcd	0.48802033
87	0x3eb03c1b	0.34420857
88	0xbee00ba0	-0.4375887
89	0x3dc24801	0.0948639
90	0x3e5c7a38	0.21530998
91	0xbeca37f0	-0.39495802
92	0x3dcd748a	0.10031994
93	0xbde221e9	-0.11041624
94	0x3d49651e	0.0491687
95	0x3ebaf8ed	0.3651804
96	0xbd47eafd	-0.048808087
97	0xbe3a0037	-0.18164144
98	0x3e469d6a	0.19395986
99	0xbe73f26c	-0.23822945
100	0x3dbae026	0.09124784
101	0x3d8946aa	0.06702931
102	0xbe1088cf	-0.14114688
103	0xbe73f17c	-0.23822588
104	0xbe9a3ed2	-0.30126053
105	0xbeef3b38	-0.46724868
106	0x3e92466d	0.28569356
107	0xbe21e977	-0.15811716
108	0x3ecc1f55	0.39867654
109	0xbf0dcb0d	-0.55387956
110	0xbe547719	-0.20748557
111	0xbec7cc64	-0.39023125
112	0xbed08f73	-0.40734443
113	0xbe980e49	-0.296984
114	0x3e02c729	0.12771286
115	0x3e3ab9ad	0.18234892
116	0xbe3a58b6	-0.18197903
117	0x3e322213	0.17395811
118	0x3f33790c	0.7010658
119	0x3d196952	0.037453957
120	0x3e3a094b	0.18167607
121	0x3ef04629	0.46928528
122	0xbf1cad3d	-0.6120184
123	0x3da8713a	0.08224721
124	0xbee40126	-0.44532126
125	0xbe98ac60	-0.29819012
126	0x3db53c05	0.088493384
127	0x3e2514c6	0.16121206
128	0xbf0b34f5	-0.5437768
129	0xbe5ab728	-0.21358931
130	0x3eed48f1	0.46344712
131	0x3d235d63	0.039883982
132	0xbf17430d	-0.59086686
133	0x3e0a604f	0.13513301
134	0xbeaa55a5	-0.33268467
135	0x3f024acb	0.50895375
136	0x3dfc19b6	0.123095915
137	0x3f32d574	0.69856954
138	0xbe9ec185	-0.3100702
139	0xbe3979e3	-0.18112902
140	0x3f220923	0.6329519
141	0xbe5190a5	-0.20465334
142	0x3ee68c43	0.45028886
143	0xbd9bf072	-0.07614221
144	0xbf2e29c9	-0.6803251
145	0xbe9e175b	-0.30877194
146	0xbf161cc1	-0.58637625
147	0xbf095edd	-0.53660375
148	0xbedf0a9e	-0.43562788
149	0xbe7d3659	-0.24727763
150	0x3eee17ff	0.46502683
151	0xbe8ddd89	-0.2770808
152	0x3ebb2566	0.3655197
153	0x3f004474	0.5010445
154	0xbdd8dca8	-0.10588962
155	0x3e0ea91d	0.13931699
156	0xbc865cef	-0.016401736
157	0xbe418f13	-0.18902235
158	0xbe8e82a1	-0.27834037
159	0xbee5f743	-0.44915208
160	0xbec58ac1	-0.38582423
161	0xbe339981	-0.17539026
162	0xbd1ab6be	-0.037771933
163	0xbe4d8915	-0.20071824
164	0x3d9be8bb	0.07612749
165	0xbea34831	-0.31891015
166	0x3ded037f	0.115729325
167	0xbe80913f	-0.25110814
168	0xbe1cf715	-0.1532863
169	0xbe923a5a	-0.28560144
170	0x3e2b1a58	0.16709268
171	0x3e667322	0.22504857
172	0x3d911387	0.07083803
173	0x3e592d68	0.21208727
174	0xbe707a0e	-0.2348406
175	0x3e3ad74e	0.18246195
176	0xbdd1fb5b	-0.102530204
177	0x3d8d018f	0.06885063
178	0xbf119031	-0.56860644
179	0x3eb0dad8	0.34541965
180	0x3d2a6264	0.04159774
181	0xbe263944	-0.16232783
182	0xbe788f0a	-0.24273315
183	0xbe471788	-0.1944257
184	0xbeb2ba6f	-0.34907863
185	0xbef03bee	-0.46920723
186	0x3eb1200a	0.34594756
187	0xbf06b1dd	-0.5261515
188	0xbefffd91	-0.49998143
189	0x3dd60339	0.104498334
190	0x3f173acb	0.59074086
191	0xbd901ad0	-0.07036364
192	0x3e957aa8	0.29195142
193	0x3ea574a7	0.3231556
194	0x3dae4fd9	0.085113235
195	0x3e403c0b	0.18772905
196	0xbec291a1	-0.3800173
197	0x3f00a4f6	0.5025171
198	0x3ed62ef7	0.41832706
199	0xbf0ec87e	-0.55774677
200	0xbebe7cf4	-0.37204707
201	0x3f3e4288	0.7432027
202	0xbdb8088c	-0.08986005
203	0x3dca6b0c	0.09883699
204	0xbe493fac	-0.19653195
205	0xbe90b6ed	-0.2826456
206	0x3dce2817	0.1006624
207	0xbeab2a76	-0.33430833
208	0x3e2d8e8c	0.16948909
209	0x3bb25e35	0.0054433593
210	0xbf031223	-0.5119955
211	0x3cf77183	0.030205494
212	0xbe252407	-0.16127025
213	0x3f4fdf8f	0.812005
214	0x3d05bfab	0.032653492
215	0xbe940db6	-0.2891671
216	0x3f17f528	0.59358454
217	0x3e78dd39	0.2430314
218	0xbc247574	-0.010037769
219	0x3d70904c	0.058731362
220	0x3e88a0e4	0.2668525
221	0x3f082ecc	0.53196406
222	0xbedd9a5c	-0.4328183
223	0x3ea27378	0.3172872
224	0x3f48c4d6	0.7842535
225	0x3ea01c8d	0.31271783
226	0x3ecf481c	0.40484703
227	0x3f4455b0	0.7669325
228	0x3f3866c9	0.7203184
229	0x3e19250a	0.14955536
230	0x3cb134b1	0.02163157
231	0xbea1cbd2	-0.31600815
232	0x3dd2b28d	0.10287962
233	0x3dc698ab	0.09697088
234	0xbe81437f	-0.25246808
235	0x3f43e657	0.76523346
236	0x3e6d7d3e	0.23192307
237	0xbe27abcd	-0.1637413
238	0x3f1757ad	0.5911816
239	0x3e3746cd	0.17898102
240	0x3c0e87ca	0.008699367
241	0xbf0b6b43	-0.54460543
242	0x3ea4c677	0.32182667
243	0x3e33444f	0.17506526
244	0x3f49e449	0.7886396
245	0xbe72b0c9	-0.2370025
246	0xbef3ee0e	-0.4764256
247	0xbe420870	-0.18948531
248	0xbe2847d4	-0.1643365
249	0x3ce5c7fe	0.028049465
250	0x3d61b8b9	0.055107806
251	0x3ef42b49	0.47689274
252	0x3f0fd254	0.5618031
253	0x3e6156b4	0.22005731
254	0x3ebccc72	0.3687473
255	0x3c6254ce	0.013814164

encoder.layers.1.linear2.weight f4 [5, 2048]
0	0x3c9f590c	0.01945164
1	0x3d2ed976	0.042687856
2	0xbc9e41f7	-0.019318564
3	0x3e2f6761	0.1712928
4	0xbdcb6030	-0.09930456
5	0x3e3a5ba8	0.18199027
6	0x3e40f499	0.18843307
7	0xbde25d5f	-0.110529654
8	0xbd2b2c07	-0.041790035
9	0x3efae122	0.48999888
10	0x3ea8362d	0.32853833
11	0x3f071ab5	0.52775127
12	0x3ea754ed	0.3268198
13	0xbe358f4b	-0.17730443
14	0x3eb2823b	0.34864983
15	0x3e7290a6	0.23687991
16	0x3d3e4669	0.046453867
17	0xbcaa57ca	-0.020793814
18	0xbdcc8610	-0.09986508
19	0x3e6302df	0.22169064
20	0xbe8d2375	-0.27566114
21	0xbeef1524	-0.46695817
22	0x3eeb183c	0.45916927
23	0x3eaaea17	0.3338172
24	0x3f35bcf0	0.7099142
25	0x3e7c2d38	0.24626625
26	0x3d8e393f	0.069445126
27	0x3cab3581	0.020899536
28	0x3ec66b37	0.38753673
29	0x3e9d2ccf	0.3069825
30	0x3dc0bdfc	0.09411237
31	0x3c44a786	0.012002831
32	0x3ebf0be6	0.37313765
33	0xbda5e9fc	-0.081012696
34	0xbf29d6a6	-0.6634315
35	0xbdd0cf1e	-0.101957545
36	0xbee83267	-0.45350954
37	0x3eb83491	0.35977605
38	0xbeaea57c	-0.3411063
39	0x3d1dc94a	0.038522042
40	0x3e712d96	0.23552546
41	0x3dfd04a2	0.12354399
42	0x3eceadfc	0.40367115
43	0xbe487520	-0.1957593
44	0xbe2d9bf8	-0.16954029
45	0xbe4449b3	-0.19168739
46	0x3f27b50b	0.65510625
47	0xbe3453c8	-0.17610085
48	0x3e701ad6	0.23447737
49	0x3ee60c0d	0.4493107
50	0x3d2adba7	0.041713383
51	0xbc069eb0	-0.008216545
52	0x3d1f4843	0.038887274
53	0x3d179839	0.037010405
54	0x3e7930fb	0.24335091
55	0x3e5a3ac6	0.21311483
56	0xbc4f414a	-0.0126498435
57	0x3f2c5d52	0.67329895
58	0x3e3ffb43	0.18748192
59	0xbd325909	-0.04354194
60	0xbc3258da	-0.010885442
61	0x3cf99cb9	0.030470239
62	0x3e9c8e37	0.3057725
63	0x3d03eed0	0.03221017
64	0x3dfdc2c6	0.12390666
65	0xbecb5cd5	-0.39719263
66	0xbe8f52de	-0.2799291
67	0xbcef2e40	-0.029196858
68	0x3dcac219	0.099003024
69	0x3f3002c0	0.68754196
70	0xbe2733fe	-0.16328427
71	0x3e8841c2	0.2661267
72	0xbe26f767	-0.16305314
73	0x3e2d996e	0.1695306
74	0x3b171933	0.0023055791
75	0xbe4d1bc1	-0.20030119
76	0x3d7e259a	0.06204758
77	0x3f0282af	0.5098066
78	0x3c221172	0.009891855
79	0x3e3fbe6c	0.18724984
80	0xbe02476d	-0.1272256
81	0x3d8b4282	0.06799795
82	0x3f06b25f	0.5261592
83	0xbe53bd6f	-0.20677732
84	0xbe1c918e	-0.152899
85	0x3e58cd1e	0.21171996
86	0x3e88668f	0.26640746
87	0x3f2ccc8c	0.67499614
88	0x3e8ba627	0.27275202
89	0xbeac1e68	-0.33616948
90	0x39290300	0.00016118214
91	0xbdf187c3	-0.117934726
92	0x3cc37ffc	0.023864739
93	0xbdb7731c	-0.08957502
94	0x3e6ae971	0.22940613
95	0x3cd8e6f3	0.026477313
96	0xbe7d0846	-0.24710187
97	0xbe3d0bc5	-0.18461521
98	0xbd8adf59	-0.067808814
99	0x3ef57259	0.47938803
100	0x3ee2b987	0.4428217
101	0xbed1f0a6	-0.41003913
102	0xbedacecb	-0.42735896
103	0xbd3afcd7	-0.045651283
104	0x3ec436b5	0.38322988
105	0xbe072c45	-0.13200481
106	0x3e7db84b	0.24777333
107	0x3ea1c81e	0.3159799
108	0x3f33dfb4	0.7026322
109	0x3c6be894	0.014398713
110	0x3ede8e8f	0.4346814
111	0xbd48c9e3	-0.04902066
112	0xbd995752	-0.07487358
113	0xbefd95d6	-0.49528378
114	0x3ecedfe9	0.40405205
115	0xbe300a31	-0.17191388
116	0x3da25fd0	0.07928431
117	0xbdc0322c	-0.093845695
118	0x3f268dda	0.650602
119	0x3e05418e	0.13013288
120	0x3f019943	0.50624484
121	0x3e4314c1	0.19050886
122	0xbdabd1ae	-0.083896026
123	0xbe6d4a48	-0.23172867
124	0x3d6de5b0	0.058080375
125	0xbdb7f17d	-0.08981607
126	0xbe560984	-0.20902067
127	0x3e87d741	0.26531413
128	0xbd939e5c	-0.07207939
129	0xbd3c0e94	-0.04591234
130	0x3ea6e394	0.32595503
131	0x3ed2c752	0.41167694
132	0xbce57ba1	-0.028013052
133	0x3b498d97	0.003075456
134	0x3d9bb867	0.07603531
135	0x3d0633ef	0.03276437
136	0x3ea933a3	0.33047208
137	0x3e2ef68f	0.17086242
138	0xbe5a6801	-0.21328737
139	0xbe2449ff	-0.16043852
140	0x3eb6e189	0.35718945
141	0x3d4c2282	0.049837597
142	0x3cbe99f8	0.023266777
143	0xbdc34fe8	-0.09536725
144	0x3e13ee25	0.14446314
145	0xbdb2fba2	-0.087394014
146	0xbc4e3f66	-0.012588358
147	0x3e1f414d	0.15552254
148	0xbe45985e	-0.19296405
149	0x3dd22cb3	0.10262432
150	0x3eeda978	0.46418357
151	0xbdf82d6e	-0.1211804
152	0xbe4e494b	-0.20145147
153	0x3f1095a8	0.5647836
154	0x3ddac7fd	0.10682676
155	0x3ec35eb7	0.381582
156	0x3f22e1c7	0.6362576
157	0xbcf847fa	-0.030307759
158	0xbe257314	-0.1615718
159	0xbe69842f	-0.2280433
160	0xbe888f4e	-0.26671833
161	0x3ea5488d	0.32281914
162	0x3e81755f	0.2528486
163	0xbcc76628	-0.024340704
164	0x3f1b5fdc	0.60693145
165	0xbe29342d	-0.1652381
166	0x3c5e417a	0.0135654155
167	0xbdaaafe3	-0.08334329
168	0xbf03be51	-0.51462275
169	0x3e0fe5b5	0.1405247
170	0x3e2a4aaa	0.16630045
171	0xbdc101aa	-0.094241455
172	0xbe198453	-0.14991884
173	0xbe936273	-0.28786048
174	0xbd90ff41	-0.07079936
175	0xbedc6bbc	-0.43050945
176	0x3eaa3816	0.33245915
177	0xbe0df746	-0.13863859
178	0xbe727f33	-0.23681335
179	0x3e810a5c	0.25203216
180	0x3ea35364	0.3189956
181	0x3daf73ef	0.085670345
182	0xbd946edb	-0.072477065
183	0x3e6900f2	0.22754267
184	0x3f0755b9	0.5286518
185	0x3d850086	0.064942405
186	0x3de55c4f	0.11199247
187	0x3d2c0636	0.04199811
188	0xbec465e2	-0.3835898
189	0x3e69808a	0.2280294
190	0x3ec10fa5	0.37707248
191	0xbe9e3c65	-0.30905452
192	0x3edaba54	0.42720282
193	0xbd70a39f	-0.05874979
194	0x3e5f6b56	0.21818289
195	0xbd0330d1	-0.032028977
196	0x3c881285	0.016610393
197	0x3e849a3a	0.25898916
198	0x3df39655	0.11893908
199	0x3e6370b2	0.22210959
200	0x3b4963ef	0.003072973
201	0x3ee9c642	0.4565907
202	0xbe213436	-0.15742573
203	0xbe7d231b	-0.24720423
204	0x3dc3e61c	0.09565374
205	0xbd330059	-0.043701503
206	0x3ec64dc8	0.38731217
207	0x3ebed887	0.37274572
208	0xbd5330bc	-0.05156015
209	0x3d1a01ab	0.037599247
210	0x3d3d304d	0.04618864
211	0xbe607377	-0.21919046
212	0x3def9d6b	0.11699947
213	0x3df40787	0.11915498
214	0x3cb36551	0.021898897
215	0xbd8bdce2	-0.068292394
216	0x3e7fa1e6	0.24964103
217	0x3eac41f5	0.3364407
218	0xbe98c9c6	-0.2984144
219	0x3f653d77	0.8954691
220	0x3dac8fdb	0.08425876
221	0x3ec60284	0.38673794
222	0xbe145f28	-0.14489424
223	0x3ea3c3c3	0.31985292
224	0x3f3c3e49	0.7353254
225	0xbeb27aee	-0.34859413
226	0x3ead9dce	0.33909458
227	0xbdddeb81	-0.108359344
228	0x3b7eca7b	0.0038878012
229	0x3c9ece61	0.019385519
230	0x3ebbd3f4	0.36685145
231	0x3e7026d0	0.23452306
232	0x3f1da76e	0.615836
233	0xbc485885	-0.012228136
234	0x3eb2e176	0.34937638
235	0x3e3b5212	0.18293026
236	0xbe09baed	-0.13450213
237	0x3d5e4c40	0.054271936
238	0x3e565427	0.20930539
239	0x3f0fb09e	0.5612887
240	0xbc163346	-0.009167498
241	0x3e306e33	0.17229538
242	0x3ec67da7	0.3876774
243	0x3e8a2730	0.26983023
244	0xbd647744	-0.055777803
245	0xbdb34f9c	-0.08755419
246	0xbdd0376b	-0.1016682
247	0x3e3e2559	0.18568935
248	0xbe962612	-0.2932592
249	0xbd7d6970	-0.06186813
250	0xbe9f385b	-0.31097683
251	0xbd020072	-0.031738706
252	0xbe88631b	-0.2663811
253	0xbc2fe4a8	-0.010735668
254	0xbf0a068b	-0.53916234
255	0xbe16711b	-0.14691584

encoder.layers.1.linear2.bias f4 [5]
0	0x3f15c7c9	0.5850797
1	0xbefda828	-0.49542356
2	0xbea02d13	-0.3128439
3	0x3e0d4ba6	0.13798389
4	0x3ef0a53c	0.47001064

encoder.layers.1.norm1.weight f4 [5]
0	0x3f71b9ca	0.94424117
1	0x3f8abe15	1.0839258
2	0x40079646	2.118547
3	0x3f960047	1.1718835
4	0x3f8094e4	1.0045438

encoder.layers.1.norm1.bias f4 [5]
0	0xbe696ead	-0.22796126
1	0xbf1e2dbf	-0.61788553
2	0xbf37b250	-0.7175646
3	0x3f1651b5	0.58718425
4	0x3f2f8c2f	0.6857328

encoder.layers.1.norm2.weight f4 [5]
0	0x3fb963ec	1.4483619
1	0x3fe5f6ca	1.7965939
2	0x3f2b5f35	0.6694215
3	0x3f69170d	0.910508
4	0x3f2639ff	0.64932245

encoder.layers.1.norm2.bias f4 [5]
0	0x3f6657ce	0.8997773
1	0xbf1d5b78	-0.61467695
2	0xbf2256ed	-0.6341389
3	0xbdc3af94	-0.09554973
4	0x3f689f95	0.908685

encoder.layers.2.self_attn.in_proj_weight f4 [15, 5]
0	0xbe738002	-0.237793
1	0x3f85fbef	1.0467509
2	0x3ebf0fd6	0.3731677
3	0xbf819dcc	-1.0126281
4	0x3d45bdaa	0.04827658
5	0x3f4c1e8a	0.797341
6	0x3f055e41	0.52096945
7	0xbe4c7f6d	-0.19970484
8	0xbf3882d4	-0.7207463
9	0x3d4f6219	0.050630663
10	0x3f4a0cee	0.7892598
11	0xbef47498	-0.47745204
12	0x3ebf804c	0.3740257
13	0xbf0d98ef	-0.55311483
14	0x3ebcb99b	0.36860356
15	0x3f04d066	0.5188049
16	0x3f4f481f	0.80969423
17	0x3f89e615	1.077334
18	0xbf06023d	-0.52347165
19	0x3ea47f48	0.32128358
20	0x3e31e68a	0.173731
21	0xbebddd4a	-0.37082893
22	0x3e5b2a9e	0.21402976
23	0x3efb2e25	0.49058643
24	0xbf05530f	-0.5207986
25	0xbfa0b1ca	-1.2554257
26	0x3f954f3b	1.1664804
27	0xbed60fa6	-0.41808814
28	0x3ed05e5e	0.40696996
29	0xbe2e67c9	-0.17031778
30	0xbfa4c7f8	-1.2873526
31	0x3e96fea2	0.29491144
32	0x3e4d2980	0.20035362
33	0x3e9d3a5b	0.30708584
34	0xbd3a16ea	-0.04543201
35	0x3c404b7d	0.011736748
36	0x3f65e538	0.89802885
37	0xbd736fbf	-0.05943274
38	0x3fad1d99	1.3524657
39	0xbe0b66fe	-0.13613507
40	0x3e359dad	0.1773593
41	0x3f8af987	1.08574
42	0xbbd8dccd	-0.0066181184
43	0x3ea7aff4	0.3275143
44	0xbeabb441	-0.3353596
45	0x3f1ef7f3	0.6209709
46	0xbe5007b2	-0.20315436
47	0x3e008182	0.12549403
48	0x3f80b673	1.0055679
49	0x3f02ae06	0.5104679
50	0xbfba2da4	-1.4545178
51	0x3f897a40	1.0740433
52	0x3fe00ce5	1.7503935
53	0xbda343e7	-0.07971936
54	0xbfa242c2	-1.2676623
55	0xbf98bf39	-1.1933357
56	0x3e73c91c	0.23807186
57	0x3f6afbd3	0.91790503
58	0xbc742524	-0.014901433
59	0xbf3f6318	-0.7476058
60	0xbf77f929	-0.96864563
61	0xbd27edae	-0.040998153
62	0xbe87c084	-0.26514065
63	0xbf6c7b0a	-0.9237524
64	0xbd98c1b7	-0.07458823
65	0x3e30fe13	0.17284422
66	0xbfad66f1	-1.354704
67	0xbd983be1	-0.07433296
68	0x3f0ca587	0.54940075
69	0x3f90db94	1.131701
70	0x3f6c909f	0.92408174
71	0xbf551270	-0.8323126
72	0xbe074f07	-0.1321374
73	0x3f36c30d	0.71391374
74	0x3f582b9c	0.8444154

encoder.layers.2.self_attn.in_proj_bias f4 [15]
0	0xbecaf423	-0.39639387
1	0x3dd95fec	0.10613999
2	0x3e93995d	0.28827944
3	0x3dc4f4e2	0.0961702
4	0xbebfb469	-0.3744233
5	0x3b8eeea6	0.004361945
6	0x3a3b485a	0.0007144265
7	0x3bbc6bb6	0.005750145
8	0xbcc9f438	-0.024652585
9	0x3c0af740	0.008481801
10	0xbfa9061d	-1.3204991
11	0xbf58d1fa	-0.846954
12	0xbe82a34a	-0.25515205
13	0x3de4b2b7	0.111669
14	0x3ebd60fe	0.36988062

encoder.layers.2.self_attn.out_proj.weight f4 [5, 5]
0	0xbf1c95ed	-0.6116627
1	0x3edded00	0.4334488
2	0xbe997f7a	-0.2998007
3	0x3f9a9db9	1.2079383
4	0x3fa18f78	1.2621908
5	0x3e5988e4	0.21243626
6	0xbf296cd6	-0.66181695
7	0xbd0bba8f	-0.034113463
8	0xbef2d197	-0.4742553
9	0xbf2c44c9	-0.6729246
10	0xbf5c63e5	-0.86089927
11	0xbf8edeef	-1.1161784
12	0xbee4e1b0	-0.44703436
13	0x3f2d9bcf	0.6781587
14	0x3f067753	0.52525824
15	0x3e591369	0.2119881
16	0x3e6c5df9	0.23082723
17	0xbe9e48a5	-0.30914798
18	0x3de95756	0.11393611
19	0xbcebe017	-0.028793378
20	0xbfa9eedc	-1.3276019
21	0xbf708049	-0.9394575
22	0xbf21dcae	-0.63227355
23	0x3fccfe55	1.6015116
24	0x3fcd55e0	1.6041832

encoder.layers.2.self_attn.out_proj.bias f4 [5]
0	0xbe454c67	-0.19267426
1	0x3e039b0f	0.12852119
2	0x3f0c304d	0.547612
3	0xbf0dd681	-0.5540543
4	0x3f70354a	0.9383131
