results/nifty/ohlcv/model_best_good_tf.pt (torch, 575330 bytes, 90 tensors)

encoder.layers.0.self_attn.in_proj_weight f4 [15, 5]
000000 ab ca 33 3f ef 1f 90 3f cf 11 95 3f 9a c1 a7 3f
       0.7023112 1.1259745 1.164606 1.3105958
000010 81 d1 83 3f 9f f5 17 bf 0f 59 bb be 0a f8 1e bf
       1.029831 -0.59359163 -0.36591384 -0.6209723
000020 94 d3 87 bf 52 51 89 bf 7f ef 1a 3e d9 9b f2 be
       -1.0611444 -1.0727942 0.15130423 -0.47384527
000030 28 6a e5 be e0 3b 5b bf a6 4e 62 bf 1c 01 71 3f
       -0.44807553 -0.85638237 -0.8840126 0.9414232
000040 e4 7e 82 3f 12 bf c6 3e 93 be a6 3e 16 8d a9 3f
       1.0194974 0.3881765 0.32567272 1.3246181
000050 1c da 2a 3e 7f 0d 39 bf cd 2a 2b bf e4 e8 48 bf
       0.16684765 -0.7228622 -0.66862184 -0.7848036
000060 70 ab 5c bf 50 b6 81 3f 6a 41 b6 3f 74 e2 29 3f
       -0.8619909 1.0133762 1.4238713 0.66361165
000070 83 f5 38 3f 2e de 6c 3e 43 43 43 bf b1 f5 5e bf
       0.7224962 0.2313163 -0.7627451 -0.87093645
000080 e9 5d 21 bf 5d a2 c9 be c0 92 86 3f 67 4c e7 3e
       -0.6303392 -0.39381686 1.0513535 0.45175478
000090 0d 9c 61 be 70 f8 38 3f 3b c8 ca 3c 1b a2 56 3f
       -0.22032185 0.72254086 0.02475368 0.83841103
0000a0 be 87 00 3f cb c1 81 3e 5d 00 1c 3e 2b 03 f8 3e
       0.50207126 0.25343165 0.15234514 0.48439917
0000b0 e0 8d 8a bf 10 ed a2 3e 43 e7 bb 3e 5b d3 ac 3e
       -1.0824547 0.3182149 0.36699876 0.33755
0000c0 8c a6 54 be 73 45 30 3f 50 e8 15 3e 59 1f 1f 39
       -0.20766658 0.6885597 0.14639401 0.000151751
0000d0 4b 4f 58 3e d5 0a df 3c 64 de 0b 3d 6e 01 8f 3e
       0.21123998 0.027226845 0.034147635 0.27930778
0000e0 99 1c be bd 64 76 f8 bd 4f 55 fe 3d 00 df 12 bf
       -0.09282798 -0.12131956 0.12418615 -0.5737152
0000f0 93 81 ab 3e 80 63 a3 3e 42 e6 08 3c 93 70 23 3e
       0.33497295 0.3191185 0.008355679 0.15960912
000100 35 72 09 3f 3c 87 dd 3d 34 08 f7 3e 25 00 cd be
       0.5368989 0.108168095 0.48248446 -0.40039173
000110 4b 8b 95 3d d8 a1 1b bf e4 8c e5 3e e7 f7 23 3b
       0.07301959 -0.6079383 0.44834054 0.0025019587
000120 19 cf 9e be 2d 1a 9f be 58 ad 15 bf
       -0.31017378 -0.31074658 -0.58467627

encoder.layers.0.self_attn.in_proj_bias f4 [15]
000000 92 f5 11 3f 42 36 5c bf 27 24 34 bf 50 45 5f 3f
       0.57015336 -0.8602029 -0.70367664 0.8721514
000010 07 72 05 bf 0f d9 44 3a 1c e9 7d b9 b2 5a 7b 3c
       -0.52127117 0.0007509151 -0.000242148 0.015341448
000020 26 d7 1e 3b b3 cd 07 3c 13 8f 24 be 5b 13 ce bd
       0.0024237125 0.008288789 -0.16070203 -0.100622855
000030 b2 4b 03 be cd 14 63 3d d8 71 4c 3d
       -0.12821844 0.05543976 0.049913257

encoder.layers.0.self_attn.out_proj.weight f4 [5, 5]
000000 63 08 dd 3d 67 c1 a0 3e 77 f6 f9 be 22 aa 69 ba
       0.10792615 0.31397554 -0.4882085 -0.00089135964
000010 5a a2 92 3e a5 e0 90 3d fa 0f 87 3e 11 32 db 3e
       0.2863949 0.070740975 0.26379377 0.42811635
000020 83 79 ef be 02 ae c3 3e fb 27 a8 3d 0c ce 8e 3e
       -0.46772394 0.38218695 0.08210751 0.27891576
000030 86 29 c3 be 37 b5 70 3d 97 f1 bd be 90 b0 f7 bd
       -0.38117617 0.05876657 -0.3709838 -0.120942235
000040 9b 69 b9 be fe 75 b3 be de 43 d3 bd 1e 7e aa be
       -0.36213383 -0.35050958 -0.10315679 -0.33299345
000050 19 25 8e be ad 3e 15 3e 89 f5 99 3d d7 ff bd bc
       -0.27762678 0.1457469 0.07517535 -0.023193283
000060 2f d7 82 be
       -0.25554797

encoder.layers.0.self_attn.out_proj.bias f4 [5]
000000 09 d8 cb 3d 76 5c 7b be 36 13 80 be aa 9a 3a be
       0.09953315 -0.2454699 -0.25014657 -0.18223062
000010 be c9 8d 3d
       0.06923245

encoder.layers.0.linear1.weight f4 [2048, 5]
000000 47 78 46 3e 8c 22 b6 3c 4d d1 4c bd 35 cc 8e 3e
       0.1938182 0.02223327 -0.050004292 0.27890173
000010 ed 32 ad be d7 25 e5 be 85 7a 85 3d f2 8e d9 3e
       -0.33827916 -0.44755432 0.06517509 0.4249187
000020 86 c7 4f be e3 43 a7 be 80 80 0e bf d1 8d 33 bd
       -0.20290956 -0.3266898 -0.55664825 -0.04383642
000030 85 36 1c 3e 4a 78 2e 3e 15 48 b2 3e 4d 08 00 3e
       0.15255173 0.17038074 0.3482062 0.12503166
000040 d8 59 d3 3d 3f f4 3b 3e 37 67 04 3f 12 a2 0a bf
       0.10319871 0.18354891 0.51719993 -0.5415355
000050 41 05 16 bf 30 4c 84 be ca 95 7b 3e f9 53 ed 3e
       -0.58601767 -0.25839376 0.24568859 0.4635313
000060 ab 38 a6 3e b6 dd 09 3f c5 45 fe 3c 2b 54 92 be
       0.3246511 0.5385393 0.031039128 -0.2857984
000070 e5 24 9e be a7 82 b6 3e f9 47 00 bf 6e 90 dd bd
       -0.30887523 0.35646555 -0.5010982 -0.108185634
000080 07 2b c1 3e ca cb e3 bd 30 10 f7 bb 5a c9 05 be
       0.3772814 -0.11122854 -0.0075397715 -0.13065091
000090 85 0d ff 3d 45 6c d5 bd 13 a2 e8 3e 3a f3 9c 3e
       0.124537505 -0.104210414 0.45436153 0.30654317
0000a0 e6 69 a3 be d1 40 d6 3e 3f e2 9b be ff f6 df bd
       -0.31916732 0.41846326 -0.3044605 -0.10935783
0000b0 7c 46 f1 be 13 ad 3a 3c 32 af a1 bd df 5a d9 3e
       -0.47124088 0.011393803 -0.07894744 0.42452142
0000c0 b7 19 21 be 30 8b 9d be ea 75 ab 3e 8a 8d 72 be
       -0.15732466 -0.30770254 0.334884 -0.23686805
0000d0 62 15 6d be 45 83 52 3e 48 fa bc be 91 a8 a0 3e
       -0.23152688 0.20557888 -0.369097 0.31378606
0000e0 f7 dd 4c 3e 0d 6c 05 3e a0 b0 42 3e e1 c9 66 3d
       0.20006548 0.130295 0.1901269 0.05634487
0000f0 72 9a 22 3e 12 33 90 be e6 56 55 bd 44 1f cd 3c
       0.15879229 -0.28163964 -0.052084826 0.025039323
000100 a4 9a 79 3e 61 28 2d bf e1 66 b1 3e ab f7 08 3f
       0.24375397 -0.6763974 0.34648803 0.5350291
000110 49 e9 9c bd 07 94 40 be 8f e1 ab bd 66 15 86 be
       -0.07661683 -0.18806468 -0.08392631 -0.261882
000120 e7 6d 8d be 0a 41 ed be ad de 55 be bf f1 e7 3d
       -0.2762291 -0.46338683 -0.20885725 0.11325406
000130 b2 f1 05 bf 13 96 dd bd 0e 24 67 3e 14 31 18 3f
       -0.5232192 -0.1081964 0.22572348 0.5944989
000140 c1 ad da be 2c 99 d1 3e eb 5f 12 3e 90 61 22 be
       -0.4271069 0.40937173 0.14294402 -0.1585753
000150 74 90 0a 3f da e0 e7 3c 2b f6 00 be ac c4 ba bd
       0.5412667 0.02830546 -0.12593906 -0.091195434
000160 91 dc 0c 3d fc b9 1a bf 7b b5 0b bf d3 a5 91 3e
       0.034390036 -0.6044004 -0.5457379 0.28446826
000170 e7 c5 24 be 7a ee a8 3e f2 a4 9c 3e 99 e6 68 be
       -0.16091119 0.32994443 0.30594593 -0.22744216
000180 f4 6f 27 be ab ee 6a be c2 80 ff 3d 42 42 0e bf
       -0.163513 -0.22942607 0.124757305 -0.5556985
000190 53 0d 0b bd 90 8b c3 be d9 48 a8 3d 43 89 14 3e
       -0.033948254 -0.38192415 0.082170196 0.14505486
0001a0 29 f4 51 bd 77 e1 b0 be 94 ed 00 3f c3 cf bb be
       -0.05125824 -0.34547016 0.50362515 -0.36681947
0001b0 b1 45 c2 38 03 84 e5 be d1 6c 95 3e 9c 22 92 3e
       9.263622e-05 -0.4482728 0.29184583 0.2854203
0001c0 fa d3 19 3f 90 75 b4 3d 6e d5 dc be 03 0a 19 3f
       0.60089076 0.08811486 -0.43131584 0.597809
0001d0 11 79 d3 3e 08 5a 02 3d a8 85 e4 be ec a0 62 be
       0.41303304 0.03182414 -0.44633222 -0.221317
0001e0 ba 82 b5 be 35 e0 df bc a0 07 a6 be 0a 3e 71 3e
       -0.354513 -0.02732859 -0.32427692 0.23558822
0001f0 2d 4a 66 3c 40 a3 a6 be f1 3a 3e 3f 53 df 0b 3e
       0.014055771 -0.32546425 0.7430869 0.1365941
000200 d5 19 6c be b5 f4 81 be 46 bd 04 be f6 5d 8b be
       -0.23056729 -0.2538201 -0.12962827 -0.27220124
000210 24 fa 15 be ed 97 ca 3d 36 0c 15 bf 64 89 45 3f
       -0.14646202 0.09892259 -0.5822176 0.77162766
000220 70 51 9f 3e 98 13 84 bd 1d ae 61 bc c3 ef d1 3c
       0.3111682 -0.0644905 -0.013774422 0.025627023
000230 d9 13 90 be 46 0a 8d 3d 57 0d f6 3b 7a 41 0e 3f
       -0.28140143 0.06886725 0.0075089145 0.5556866
000240 5f 84 07 3e 55 2b 0d bf e8 55 b1 be 4b e0 44 be
       0.1323409 -0.55144244 -0.34635854 -0.19226186
000250 33 89 a1 3e f9 ab c5 3d 90 ba 9d be 4c 74 a4 3d
       0.31549987 0.09651942 -0.30806398 0.08029994
000260 7b 27 78 3d 7c 14 42 3f 3c f9 96 3e dd 67 bd 3e
       0.060584527 0.75812507 0.29487026 0.36993304
000270 a2 5b aa 3e c9 5f 63 be a6 3a e4 3c f3 d6 a5 be
       0.33273035 -0.22204508 0.027859997 -0.32390556
000280 88 d5 91 3e 48 d6 2e 3d ee 38 35 be 3f c2 20 be
       0.28483224 0.042684823 -0.17697498 -0.15699099
000290 f5 95 31 be ab 66 6f 3e 96 1d 17 3e 2c 35 9a bd
       -0.1734236 0.23379008 0.1475738 -0.07529673
0002a0 cb 69 bc be b8 58 d2 3e 80 2f d4 3c 4c 91 f0 be
       -0.36799464 0.41083312 0.025901556 -0.46985853
0002b0 1c d3 13 be 6f f3 ac 3e fc c8 70 be 9c f4 e3 bd
       -0.14436 0.33779475 -0.2351417 -0.1113064
0002c0 9c 0f c2 be 90 b2 d3 bd 81 47 c0 3d 02 63 9c bd
       -0.37902534 -0.103367925 0.09388638 -0.07636072
0002d0 f7 e7 44 be f0 0b a1 be 65 b5 21 be ca 60 46 3d
       -0.19229113 -0.3145442 -0.15791853 0.04843215
0002e0 d4 18 5b be 01 d7 51 be 5f 07 75 3e 57 93 19 3f
       -0.2139619 -0.20492174 0.23928593 0.5999045
0002f0 84 81 05 3e 75 de a2 bd 15 db 2a 3d 1a 2b 62 3e
       0.13037688 -0.079525866 0.04171284 0.22086754
000300 58 f4 e7 3e d3 a0 bf bd 24 02 07 bf ad d3 a6 3e
       0.45303607 -0.09356847 -0.5273764 0.3258337
000310 17 ba f3 bd 8d 82 1a bc 44 87 a7 3e d3 9c 0b bf
       -0.11900728 -0.00943054 0.32720387 -0.5453617
000320 00 5d 4d be 38 56 29 be 88 34 f3 3d c4 04 8e 3e
       -0.20055008 -0.16536796 0.11875254 0.2773801
000330 d1 bc 27 be de 2b a7 be 27 46 52 be 8a 0a 88 bd
       -0.16380621 -0.32650656 -0.20534573 -0.06642635
000340 3a 8c d6 3e 83 00 e4 be b3 6e 07 bf 60 8b 98 3e
       0.4190386 -0.4453164 -0.5290329 0.29793835
000350 c1 86 d4 3e 7e ea 80 3e 5b 7a 34 3e 0f bb dc 3d
       0.4150906 0.25178903 0.176248 0.10777866
000360 98 f0 d9 3d 1c 84 f7 bc ae b9 dc 3e 6a c5 54 3e
       0.10641593 -0.030214362 0.43110412 0.20778432
000370 ca 91 02 3e 1f 2f 12 bf ed 08 41 be c4 ab b0 bd
       0.12750927 -0.5710315 -0.18851061 -0.08626512
000380 2b 2e 27 3e 77 82 0e 3f 16 10 a5 be 14 ac 2d 3e
       0.16326205 0.55667824 -0.32238835 0.16960174
000390 26 75 48 3d a6 24 e9 3e 60 38 9a 3c 62 58 8f be
       0.048939846 0.45535773 0.01882571 -0.27997118
0003a0 82 7d 23 3e 84 ad d8 b8 94 e7 4b bd a4 67 d6 3e
       0.15965846 -0.000103320024 -0.049781397 0.41875947
0003b0 a5 e2 c4 3d 39 92 10 3d c5 6a b0 3d a2 2d 7b 3e
       0.096135415 0.0352957 0.08614115 0.24529126
0003c0 4f 98 0b bf 26 f9 32 3e 8a 58 92 3e 2b 38 e1 be
       -0.5452928 0.17477855 0.28583175 -0.43988165
0003d0 f1 80 59 3e 95 46 22 3f 34 14 cd 3e 5c 22 c4 3c
       0.21240593 0.6338895 0.40054476 0.023942165
0003e0 7f 7e 8d be 85 da 00 be ab 95 20 3e c1 c6 69 3e
       -0.2763557 -0.12583359 0.15682094 0.22829725
0003f0 d0 06 83 3c d8 83 22 3e 0f a7 09 3e c2 a9 0a bf
       0.01599446 0.15870607 0.13442634 -0.5416528

encoder.layers.0.linear1.bias f4 [2048]
000000 41 f5 84 be 61 1b ec 3e 90 76 17 be b2 5d 0f 3e
       -0.25968364 0.46114638 -0.14791322 0.14000586
000010 30 7c b7 3e df 70 1c be c5 63 61 be 73 a8 04 bf
       0.35836935 -0.15277432 -0.22010715 -0.51819533
000020 67 81 cc 3e 71 08 72 3e 8d e4 b8 be 2d da 3a be
       0.39942476 0.23636033 -0.3611187 -0.1824729
000030 c1 08 fd bd d8 65 4f 3e 13 7b 8d be 02 37 35 3c
       -0.12355185 0.20253694 -0.2763296 0.011060478
000040 3c 12 ab bd bf 81 56 3d a4 20 d0 3e c8 9b f0 bc
       -0.08353087 0.05236983 0.40649903 -0.029371157
000050 68 46 2e 3d 24 7e be 3e d6 a2 1b 3d 5d 85 b3 be
       0.042547613 0.37205613 0.03799709 -0.35062686
000060 ab 79 cc be 7e e8 e0 3e 54 d3 a7 3d 3e fe ba be
       -0.39936575 0.43927377 0.081946045 -0.36522096
000070 2b 1c 05 be 33 4f b2 3d 60 be 24 be 67 bb 08 bf
       -0.12999026 0.08706512 -0.16088247 -0.53410953
000080 a1 0c 65 be 3a 98 da be 8b e0 dc bc 44 05 bc bd
       -0.22368099 -0.42694265 -0.02696254 -0.09180692
000090 89 3f 18 bf 2d ec b9 3e a7 a5 9d be e3 ad 67 be
       -0.59471947 0.36313 -0.30790445 -0.22624926
0000a0 ae 20 a9 3d df 55 a5 3e 67 f8 d0 3e 22 1c a7 be
       0.08258186 0.32292077 0.40814516 -0.3263865
0000b0 bc 1f 7f 3d 5c 1b 85 be 64 e3 0b bf 53 a7 f1 3c
       0.062286124 -0.25997436 -0.54643846 0.029498732
0000c0 b1 ac c4 3d 9b 76 c4 be 75 68 e6 be 3d df e1 3d
       0.09603251 -0.3837174 -0.4500157 0.110289074
0000d0 5c 3e 02 bf 83 12 a4 3e dd c4 81 3d 48 eb 1e 3e
       -0.508764 0.32045373 0.06336377 0.1551944
0000e0 c7 b3 28 3d ef a8 13 bf cd 0b a1 be d6 b2 a8 be
       0.041187074 -0.5767965 -0.31454316 -0.3294894
0000f0 06 6e 79 bd e9 31 9e be df 9c 7b be 9d 53 e3 3e
       -0.060895942 -0.30897453 -0.2457156 0.4439973
000100 10 62 d2 be 43 a3 c5 be 2e 56 3d be b2 a5 3d be
       -0.4109044 -0.3860112 -0.18489906 -0.18520239
000110 4d 47 e1 3d f2 96 8a be f6 ca 1d be 88 94 95 bd
       0.10999928 -0.27068287 -0.15409455 -0.07303721
000120 6a 35 ca be d7 bf 78 be 90 7b 94 be 92 4f ac bd
       -0.39493877 -0.24291931 -0.2900052 -0.08413614
000130 f0 b5 88 3d 67 f4 95 3d 7a ce d7 3e 35 fe b7 be
       0.06675327 0.07322007 0.42149717 -0.35936132
000140 2b 20 af bc 8a 89 40 bd ee 8f f6 bc 1e ca b1 be
       -0.021377644 -0.047006167 -0.030097928 -0.34724516
000150 f1 28 77 be 7f 10 be 3e 7b d6 d8 be 9e 10 c3 3e
       -0.24136712 0.3712196 -0.42351136 0.38098615
000160 46 35 ba 3d 37 f2 40 be b4 24 ad bc f3 7c b9 3e
       0.09092192 -0.18842398 -0.021135665 0.3622814
000170 69 16 c9 be 20 02 ec 3d d6 d4 22 be ec ee 6e 3e
       -0.3927491 0.11523843 -0.15901503 0.23333329
000180 45 17 75 be 93 5f be 3d 63 ba cb 3b 19 fb 2a bd
       -0.23934658 0.09295573 0.0062172874 -0.04174337
000190 e6 33 ba 3e 2c fc 0e bf 07 ff 4b 3c 12 02 91 be
       0.3636772 -0.55853534 0.01245094 -0.28321892
0001a0 cd 39 9c 3d 1d 4b d9 3e 25 ce 3c 3e 66 03 3b 3d
       0.07628212 0.4244012 0.18438013 0.045657538
0001b0 bc f9 07 be 29 55 08 be bc 3b ab be df 0e 2f 3e
       -0.1327886 -0.13313736 -0.3344401 0.17095517
0001c0 06 73 d2 3e 18 53 4d be 6e 32 d2 bd 38 95 01 3f
       0.4110338 -0.20051229 -0.10263525 0.50618315
0001d0 f3 ea a9 3e 59 b7 ed bd cf 1b c5 be 44 a2 76 be
       0.33187065 -0.116072364 -0.3849778 -0.24085337
0001e0 56 21 d9 be ab a8 29 3d 16 6b 13 3f 85 87 d6 be
       -0.42408246 0.04142062 0.57585275 -0.41900268
0001f0 6a 78 39 3d 49 39 2c bd 2b 01 b1 be 3a 7a ac 3c
       0.04528085 -0.04204682 -0.34571204 0.021054376
000200 44 f6 23 3e c0 da b7 be e3 b2 56 be 7e 77 78 be
       0.16011912 -0.3590908 -0.20966677 -0.24264333
000210 d8 41 c5 be 98 ba 93 3e f6 10 a3 be 62 49 b0 bd
       -0.38526797 0.28853297 -0.31848878 -0.08607747
000220 cb 83 cb bd 0e 10 6d be 7d 0b f2 bd 85 8e b4 bd
       -0.09937247 -0.23150656 -0.118185975 -0.08816246
000230 89 99 65 3d 35 3c 22 be 28 a9 c8 3e d8 fd 77 be
       0.056054626 -0.1584328 0.39191556 -0.24217927
000240 71 7f 15 3e 56 0b 41 bd 65 51 06 3e 2b 7c cc be
       0.14599396 -0.04712995 0.13116987 -0.39938483
000250 bf a6 b2 be 0e 6f 2c 3d c9 3d a4 3e d7 4c 69 3b
       -0.34892842 0.042098098 0.32078388 0.0035598779
000260 ed 5d 7a 3d 8c 72 67 be 58 45 09 be c4 ba 79 3e
       0.06112473 -0.2260229 -0.13405359 0.24387652
000270 78 1c 21 3e 82 55 2a be 9a 49 ca be cc a1 0e bf
       0.15733516 -0.16634181 -0.3950928 -0.5571563
000280 77 c0 2e be 8d e1 a9 bd a9 a6 6f 3d 8c 28 15 bd
       -0.17065607 -0.082949735 0.05850855 -0.03641562
000290 a9 5b 21 3e 7c 89 ab bd d8 1a 92 bd 2e a8 ba bc
       0.15757622 -0.083758324 -0.07134026 -0.022785272
0002a0 b1 0b d1 3e 8d 43 31 3e 78 8f 19 be 6c f1 7e be
       0.40829232 0.17310925 -0.14996135 -0.24896783
0002b0 8f fd 41 be 7d 75 bf be 69 0c 26 3e 3e 7a 9d be
       -0.18944381 -0.37394324 0.16215672 -0.30757326
0002c0 49 ca 25 3d c9 78 22 3e 84 e4 23 bb eb db a8 3e
       0.040476117 0.15866388 -0.0025008032 0.32980284
0002d0 cd cd fc be 45 c3 c2 3e 6c 1a d8 3e 6c 26 58 bd
       -0.49375764 0.38039604 0.42207658 -0.052771017
0002e0 74 63 ac be b2 30 0a be 64 f6 aa be 80 a0 28 be
       -0.33669627 -0.13495138 -0.33391106 -0.16467476
0002f0 3b 13 31 bd 41 2a 79 3e e9 64 77 bd 11 a0 87 be
       -0.04323123 0.24332525 -0.06039897 -0.26489308
000300 1f c9 94 3d 8f 1f e3 be 8b 56 dd 3d 88 22 3d 3e
       0.07264923 -0.44360015 0.108075224 0.18470204
000310 52 fe 7e be a9 5c be 3e e5 b3 6c be 18 fd 17 be
       -0.24901703 0.3718007 -0.231155 -0.14842641
000320 a1 43 9f be e6 89 50 3e 30 69 ec be 9c 84 89 3e
       -0.31106284 0.20365104 -0.46174002 0.26858985
000330 ae 12 4d be 0b 74 f7 be 64 38 f8 bd 15 30 5d be
       -0.20026657 -0.4833072 -0.12120131 -0.21600373
000340 d4 d0 ef bd d9 db 82 be 27 b4 8f be e3 20 11 3d
       -0.11709753 -0.25558355 -0.28067133 0.035431754
000350 f9 3b d2 3d 13 be 02 3e 65 a4 88 be 2c 9c 0c 3e
       0.10265345 0.1276782 -0.26687923 0.1373145
000360 aa d3 94 be e6 a5 61 be 87 22 02 3c cb 08 ce 3d
       -0.29067737 -0.22035941 0.007942802 0.10060271
000370 08 d5 f3 3c 74 58 ad 3e 36 65 c9 3e a2 b8 d3 be
       0.029764667 0.33856547 0.3933503 -0.413518
000380 9b 2e 0c 3f d7 98 01 bf 49 20 0a 3e f8 15 ef be
       0.54758614 -0.5062384 0.13488878 -0.46696448
000390 02 0b 9b 3e f6 cc c0 3d 92 ea b5 be d4 bf 1b be
       0.30281836 0.09414093 -0.35530525 -0.15209895
0003a0 18 38 e1 be 6a 6c 8e 3e 18 87 34 bf 17 47 33 3d
       -0.4398811 0.27817088 -0.70518637 0.04376897
0003b0 25 8e 40 3e 4e ff 11 bf 66 3b 99 3e 31 b8 08 bf
       0.18804224 -0.5703019 0.2992813 -0.53406054
0003c0 18 b8 af 3e 7b 46 ef 3c 79 59 53 be ae 5a 1a 3e
       0.3432014 0.029208412 -0.206396 0.15073654
0003d0 b8 44 09 bf 7d 22 88 be e0 11 59 be 7a 66 0b 3e
       -0.5362048 -0.26588812 -0.21198225 0.1361331
0003e0 6c 2f 97 3e ee fd 52 3d 29 b0 d0 3e 39 a1 5f be
       0.29528368 0.051511697 0.407594 -0.21838845
0003f0 15 01 87 bd 34 d6 b0 bc a2 90 8b bd 21 d0 61 be
       -0.06592003 -0.021586515 -0.06814696 -0.22052051

encoder.layers.0.linear2.weight f4 [5, 2048]
000000 f9 06 aa 3d de 7b 57 3e 41 12 d7 be 9c bc ae 3d
       0.08302111 0.21043345 -0.42006114 0.08532068
000010 9f a1 9c be 76 c2 6e be 98 c7 b0 bd b9 a5 21 be
       -0.30592057 -0.23316368 -0.086318195 -0.15785874
000020 ca c9 01 bd 25 27 a5 3c 4a be f8 3d b8 49 65 bd
       -0.03168658 0.020160267 0.1214567 -0.055978507
000030 68 b9 f9 bd 5a cd dc 3d 94 1c c9 3c 82 89 7d be
       -0.121935666 0.10781355 0.02454976 -0.24759486
000040 20 fa 43 3d b9 31 82 bb 44 db b9 bc d4 b0 56 3e
       0.04784596 -0.0039732126 -0.022687562 0.20965892
000050 ab e1 6f bd 81 8b ae ba 14 9e e0 3d 54 e0 b2 bd
       -0.058564823 -0.0013316722 0.10967651 -0.087341934
000060 a7 37 47 bd fc 17 7a 3c 07 4e a3 3e 90 35 81 be
       -0.04863706 0.015264507 0.31895468 -0.25236177
000070 0b aa 9c bd ab ea 87 be 1c 2a 68 be d3 b4 47 be
       -0.076496206 -0.26546225 -0.22672313 -0.19502573
000080 f3 78 bb bd 66 e7 aa bc e4 64 aa 3d a9 06 cc bd
       -0.091539286 -0.020862292 0.083200246 -0.09962208
000090 37 82 08 3d db 08 6f 3e 2c 9d 1a 3e 33 64 46 3e
       0.033327308 0.23343222 0.15099019 0.1937416
0000a0 01 e8 67 3d 35 00 ef 3d e1 a7 bc 3c 3d 55 a6 bc
       0.05661774 0.11669961 0.02302927 -0.020304317
0000b0 88 eb 2b be 74 71 2f be 56 e0 26 3d b5 24 b2 bd
       -0.16789067 -0.17133123 0.040741287 -0.086984076
0000c0 72 a3 4b 3d a1 90 1f be 42 e8 1c 3c 00 ed 88 bc
       0.04971642 -0.15582515 0.009576859 -0.016714573
0000d0 6c fc 8c bc fb b9 4b 3e 74 c0 4a be 6f 67 09 3e
       -0.017210208 0.19895165 -0.19799978 0.13418363
0000e0 00 c4 86 3e f8 88 38 3c 8d 9f 93 3c f0 39 1a 3d
       0.2632141 0.011263125 0.018020416 0.03765291
0000f0 5d 33 00 be 84 63 ab 3c b7 e9 45 be 21 0f d1 ba
       -0.12519594 0.020921476 -0.19327436 -0.0015949943
000100 c4 3b 27 3e 7b c8 53 3d e8 b4 0a ba 99 91 30 3d
       0.16331393 0.051704865 -0.00052912394 0.043107603
000110 b2 e3 b3 bd c1 43 9d be 24 6b 8e bc 96 4b 8e 3c
       -0.08783664 -0.30715755 -0.017385073 0.017370027
000120 1c 5f 38 bd a9 16 05 be 42 73 bf bc 0a 3a e0 bd
       -0.04501258 -0.12996925 -0.023370389 -0.1094857
000130 21 f8 88 3c c2 bb d5 bd 2d 2a c5 3e 4c 8d b9 bd
       0.01671988 -0.104362026 0.3850874 -0.09060153
000140 ad 6e a6 3c 62 23 9e be 5e c1 18 be eb 07 ca be
       0.020316446 -0.3088637 -0.14917514 -0.39459166
000150 52 10 e3 3c dc 69 72 bc 33 8a 0b 3d 14 a3 2b 3d
       0.027717743 -0.014795747 0.034067344 0.04190357
000160 e0 41 22 be cf 4b 15 bd 23 14 e7 bd cf 4e 73 bd
       -0.15845442 -0.03644925 -0.11283138 -0.05940133
000170 2f b2 3c be f0 d9 92 3e 4b 9c 35 be 28 e5 41 be
       -0.18427347 0.28681898 -0.17735402 -0.18935072
000180 aa 73 0d bc a5 a7 03 be 5d fa ce bd 1e b1 24 3e
       -0.0086335335 -0.1285692 -0.10106347 0.1608319
000190 65 0d 0f 3e c9 cf b4 bc 3b b9 08 3e ee 4b e5 3c
       0.13969953 -0.022071736 0.1335191 0.027990308
0001a0 e2 97 b4 bc 60 4c 3c 3e c9 47 08 3d a5 bc 19 3d
       -0.02204508 0.1838851 0.033271585 0.03753342
0001b0 23 e1 44 3d e7 64 fc bd 8c 9a 96 3e 9d 11 7c be
       0.04806627 -0.12323933 0.29414785 -0.24616094
0001c0 fb 09 06 bd 12 f5 74 bd 66 71 6e be 75 ee bb 3e
       -0.032724362 -0.05980403 -0.23285446 0.36705366
0001d0 43 58 f5 bd ab d3 2b be 5f fa 59 bc f8 2f 0c be
       -0.11979725 -0.16779964 -0.013304322 -0.13690174
0001e0 5b 07 9a bc c8 95 0d 3e 09 59 72 3d ac 50 31 3d
       -0.018802335 0.13826668 0.05916694 0.043289825
0001f0 4a 4e 50 be c5 ed 26 bd 3f 89 24 bd 2a a3 2c be
       -0.20342365 -0.0407541 -0.04016995 -0.16859117
000200 09 15 55 be 96 f8 f5 3d 26 17 a2 3c f5 97 35 3d
       -0.20808806 0.12010305 0.019786429 0.04433437
000210 aa 2d f2 3d e5 38 31 3c 40 99 da 3c d1 d3 0a be
       0.11825116 0.010816787 0.026684403 -0.13557364
000220 29 d0 99 bd 5d 66 ef 3d 04 72 16 3e 51 d0 b3 3e
       -0.075104065 0.11689446 0.14691931 0.3511987
000230 43 52 90 be c8 87 de bd 36 67 ed 3d 1e 91 41 be
       -0.2818776 -0.10865742 0.115919515 -0.18903014
000240 36 02 00 3e 5e 5b db 3c e9 38 12 be 15 28 05 3c
       0.12500843 0.026776966 -0.14279522 0.008127232
000250 70 f7 72 bb 5f 5e 16 be 69 40 0b 3d f2 ed 2e be
       -0.0037073754 -0.14684437 0.033996973 -0.17082956
000260 d3 8f 59 3d 0a d6 1a be 23 13 7b be 4a 7f f7 3d
       0.053115677 -0.15120712 -0.24519019 0.12084825
000270 7a a6 38 be 9d a0 0b be 7c 6f 80 bc 2e 77 79 be
       -0.18032256 -0.13635488 -0.01567816 -0.2436187
000280 c1 8f 77 3c e5 ad 29 3b d2 07 55 be e7 23 56 be
       0.015109957 0.0025891003 -0.20803764 -0.20912133
000290 76 a3 9d be dc 37 18 be 97 38 7e bd c8 4d 2f 3d
       -0.30788773 -0.14865059 -0.062065687 0.042798787
0002a0 d4 0b b7 bd 0f 4a b0 bc 2e 35 8b 3d db 3c a4 bc
       -0.08937803 -0.021519689 0.067972526 -0.02004855
0002b0 5e 4f 03 be 21 4e 13 be 65 51 d4 bd 3e 16 85 bd
       -0.12823245 -0.14385273 -0.10367087 -0.06498383
0002c0 5b 19 9e bd c6 57 0d 3d 7c 63 5c 3e 07 28 d4 bc
       -0.0771968 0.034507535 0.21522325 -0.025897993
0002d0 9c fb c5 bd 6b 9c d9 3e 5c 4f 8a bd 16 1e 77 3d
       -0.09667131 0.4250215 -0.06753418 0.060331427
0002e0 31 55 9f bd 95 64 a3 be a7 de c4 3d 09 3c 79 ba
       -0.07779921 -0.31912675 0.0961278 -0.0009507542
0002f0 4e 20 6e 3e 8f c7 a7 be dc ca 03 be 2e ca 3c 3c
       0.23254511 -0.3276944 -0.12870353 0.011522813
000300 b6 4a f8 bb 20 aa 8b 3d 90 57 b9 3d a2 70 30 be
       -0.0075772656 0.06819558 0.09049904 -0.17230466
000310 63 46 35 3c c9 1f 77 3d 69 17 5c 3e 78 86 53 be
       0.011064145 0.060333047 0.21493305 -0.20656765
000320 c1 69 66 bd 5d 6c 50 3c 4d f5 7b 3c 45 21 f8 bd
       -0.0562532 0.012721148 0.0153783085 -0.12115721
000330 76 73 5b bd 9c f6 2f 3d 45 29 80 be 74 5d 2c be
       -0.05357691 0.042959794 -0.25031486 -0.16832525
000340 e7 8d f8 3d 31 91 9d be 93 33 a2 be 72 5c 02 be
       0.12136441 -0.30774835 -0.31679973 -0.12730578
000350 98 67 d9 3d 7a c4 b9 3c f5 48 9d bd c8 54 93 bd
       0.10615462 0.022676695 -0.07679931 -0.07193905
000360 29 1a 2f bd 44 ba 80 be 36 df 28 be 84 54 7c bd
       -0.042749558 -0.2514211 -0.16491398 -0.061604038
000370 32 31 71 bd fc bb 27 be f3 3d 42 3c a4 b4 01 3e
       -0.058884807 -0.16380304 0.01185559 0.12666565
000380 b6 3d de 3d 32 1a d9 bc 4e 92 66 be 10 eb bc be
       0.10851614 -0.026501749 -0.22516748 -0.36898088
000390 eb 76 c3 bc 49 ab 03 3c 12 a9 05 be a1 a0 80 be
       -0.023860415 0.008036443 -0.13052776 -0.2512255
0003a0 e8 4a 95 bd 1c d5 59 be d2 1b e2 bc 3c 28 96 bc
       -0.07289678 -0.21272701 -0.027601156 -0.018329732
0003b0 d6 1f 9a 3d c9 ef 7c bd a7 8b 24 be 14 40 f9 3c
       0.075256035 -0.061752114 -0.16068898 0.030426063
0003c0 a1 9c 33 3d fc 62 8d bd 14 43 a2 3d 92 7d 30 be
       0.043850545 -0.069036454 0.079229504 -0.17235401
0003d0 ed 28 3c 3d 48 b8 b6 3e ea 3e a8 bd fa d0 23 be
       0.045937467 0.3568747 -0.08215125 -0.15997687
0003e0 be b9 5b 3e 2b 12 b3 be 7c de e8 3e e2 93 87 3d
       0.21457574 -0.349748 0.45482242 0.06620003
0003f0 13 78 8f bd 3a 38 e4 bd 6e 64 a2 3b 39 cf 6f be
       -0.07005324 -0.11143537 0.00495582 -0.23418893

encoder.layers.0.linear2.bias f4 [5]
000000 2f 0c 59 bd 6a 1b 15 3e 93 8b 90 3d df 40 6d 3c
       -0.052990135 0.14561239 0.07057872 0.0144807985
000010 ce 44 54 be
       -0.20729372

encoder.layers.0.norm1.weight f4 [5]
000000 b2 45 8d 3f 27 30 8f 3f f6 e8 76 3f bc 24 5d 3f
       1.1036894 1.118657 0.9644922 0.8638418
000010 3b 60 9c 3f
       1.2216867

encoder.layers.0.norm1.bias f4 [5]
000000 3d 3a ea bd d7 e0 99 3d 42 01 18 3e 5f d2 fa 3d
       -0.11436889 0.07513588 0.1484423 0.12247156
000010 a7 3e f7 bd
       -0.12072497

encoder.layers.0.norm2.weight f4 [5]
000000 b6 0f 97 3f a7 2c 8a 3f 22 48 4c 3f 12 9e 93 3f
       1.180167 1.0794877 0.79797566 1.1532614
000010 99 74 98 3f
       1.1910583

encoder.layers.0.norm2.bias f4 [5]
000000 30 aa 68 3d 68 cc 22 be 6c 72 c2 bd 90 a1 35 bd
       0.05680293 -0.15898287 -0.094944805 -0.04434353
000010 d0 4f f6 3d
       0.12026942

encoder.layers.1.self_attn.in_proj_weight f4 [15, 5]
000000 f7 4b 96 bc 04 42 8c 3e 75 6d b2 3e 3d a0 03 3f
       -0.01834677 0.27394116 0.34849134 0.5141638
000010 e1 e9 96 3e dd 1e 89 3e 73 24 ea 3e bd 9f 5e be
       0.2947531 0.2678136 0.45730934 -0.21740623
000020 b3 bc 06 bf 53 9b 08 bf 98 cf 9b 3e 0d 0f b5 3c
       -0.5263168 -0.53362006 0.3043182 0.022101903
000030 51 63 97 bd 5b 18 6e be 04 1b 82 be 21 99 b5 3e
       -0.0739199 -0.23251478 -0.25411236 0.3546839
000040 b9 34 7b 3e 4f 49 c1 3d ad 25 9d be 50 f5 d8 3e
       0.24531831 0.09437811 -0.30692807 0.4237466
000050 f3 39 8a 3f f5 5f ec be 47 71 e5 be 34 99 a1 bf
       1.0798935 -0.4616696 -0.44812986 -1.2624879
000060 47 b0 9c be 44 42 15 be 05 1e a4 3e 66 86 e8 bc
       -0.3060324 -0.1457606 0.32054153 -0.028384399
000070 e0 13 41 be 1a 43 f1 3e 74 32 31 3f 61 92 82 3d
       -0.18855238 0.47121507 0.6921761 0.06375576
000080 76 2f 01 3f f8 d1 2f 3e b4 08 9d bd 43 48 96 bb
       0.50463045 0.1716994 -0.076676756 -0.004586251
000090 c8 6e c8 be ab 09 9e 3e c7 4d 98 be e8 94 f3 3b
       -0.3914702 0.3086675 -0.2974684 0.0074335225
0000a0 2f 43 bc bd 52 68 76 be e7 c3 5f be f1 01 a9 3c
       -0.09192502 -0.24063233 -0.21852075 0.020630809
0000b0 97 68 cf be 20 ff 96 3f 2f cd 68 3f ab ae fd 3e
       -0.40509483 1.1796608 0.90938085 0.49547324
0000c0 4c dd 4d bf da af 03 bf 1f 5f 10 bd 36 d0 a5 bd
       -0.804158 -0.51440203 -0.035246965 -0.08096354
0000d0 34 af 9a 3e ea 2e 3d 3e af 33 bd 3c 38 11 8c 3d
       0.30211794 0.18474928 0.023095934 0.06839222
0000e0 5d 2a 1e be 6b 86 0c be d3 0c b6 3e da 1d 03 be
       -0.15445848 -0.13723151 0.3555666 -0.12804356
0000f0 8a b9 a6 3e c3 af 60 3e 98 87 ba 3e 03 26 d3 3e
       0.3256343 0.21942048 0.36431575 0.41239938
000100 e4 97 b2 3e c0 0f d6 3e e1 6e 25 3f cc 57 d0 be
       0.34881508 0.4180889 0.6462231 -0.40691984
000110 fa 2f d1 bd 30 76 f2 be 62 87 38 3e cb d2 5c be
       -0.10214229 -0.47355795 0.18020394 -0.21564786
000120 0b 28 be be da 81 cb be ba 81 c2 be
       -0.37139925 -0.39747506 -0.379896

encoder.layers.1.self_attn.in_proj_bias f4 [15]
000000 5a 6f 64 3d 86 84 14 3e 43 ab 87 3e 9e 86 64 3e
       0.055770256 0.14503679 0.2649785 0.22316977
000010 d0 03 be be bf ef 0e b8 c0 a4 72 38 c0 28 3d 38
       -0.37112284 -3.407872e-05 5.785073e-05 4.5099063e-05
000020 f7 63 8a 3a 69 db c8 39 81 22 79 bd 58 6c 82 3d
       0.0010558356 0.00038310446 -0.06082392 0.06368321
000030 6b 58 d3 3c dd a9 fc 3c 4a 11 8b 3d
       0.025798997 0.030842716 0.06790407

encoder.layers.1.self_attn.out_proj.weight f4 [5, 5]
000000 3f 7d 22 be 7c d7 de 3d 38 b5 ed be 81 fc f1 bd
       -0.1586809 0.10880944 -0.4642732 -0.118157394
000010 24 36 cd 3d cc b5 b0 3d fa 02 20 3e 5e 01 a7 3e
       0.10020092 0.08628425 0.15626135 0.3261823
000020 15 bf 1e bf cc 74 5f 3e 7c 42 0f 3d 92 c6 97 3e
       -0.6201032 0.21821898 0.034975514 0.29643685
000030 24 96 22 bc 94 b2 47 3e 76 04 d2 be e6 f0 8a 3d
       -0.009923492 0.19501716 -0.41019028 0.06784229
000040 8f 96 74 be ce 2e b6 be 84 ba e2 3e 68 a8 62 be
       -0.23885559 -0.35582584 0.44282925 -0.22134554
000050 31 48 0e be 5e b7 87 3e fe c3 5e 3e 88 4f 6c 3e
       -0.13894726 0.26507086 0.21754453 0.23077214
000060 7e 8f 80 be
       -0.25109476

encoder.layers.1.self_attn.out_proj.bias f4 [5]
000000 22 31 c8 3d 63 fa e4 bc c7 43 b9 bd 10 9c 9c bd
       0.09774996 -0.027951425 -0.090461306 -0.07646954
000010 fd 77 33 ba
       -0.0006846188

encoder.layers.1.linear1.weight f4 [2048, 5]
000000 39 85 35 3f 34 df bd 3e a5 52 86 be 08 89 b0 be
       0.70906407 0.37084353 -0.26234928 -0.34479547
000010 89 40 b8 be d4 ef 1d 3e 86 0b 06 3c 2c ce ad 3c
       -0.35986736 0.15423518 0.008181458 0.021216474
000020 7d 13 05 bf 98 20 50 be 4d 8a 48 be 92 b9 55 be
       -0.5198286 -0.20324934 -0.19584008 -0.2087157
000030 81 41 9c 3d 55 03 95 3d c6 aa e3 3e 97 68 52 3e
       0.076296814 0.07276026 0.44466227 0.2054771
000040 14 dd 07 3f 3d 34 03 3e 17 0b b3 bc 94 dc b1 be
       0.53071713 0.12812896 -0.021855874 -0.347386
000050 bf 6d d5 be 0b 91 fa be 4e 51 1f 3d 62 6e 04 3f
       -0.41685292 -0.48938784 0.038895898 0.5173093
000060 02 ef e6 3e 58 d2 a6 3e 71 2a 40 3e 72 00 56 bd
       0.45104223 0.32582355 0.1876619 -0.05224652
000070 be f4 8e be 23 37 2d 3d 9e 51 91 be 06 92 fc be
       -0.27921098 0.04228891 -0.2838258 -0.49330157
000080 4f 01 31 bc c1 8a dc 3d 93 24 0d 3e 5f e0 89 bd
       -0.010803535 0.10768653 0.13783483 -0.067322485
000090 78 f4 82 3e e6 b5 3f be 16 8f 16 3e 54 bc 35 3f
       0.2557714 -0.18721732 0.1470302 0.7099049
0000a0 6e 34 88 be b0 1f be 3e 27 1f a7 bd fc d7 bb be
       -0.266025 0.3713355 -0.08160239 -0.3668822
0000b0 e2 4b fe be 68 da 95 3e 1b cd d8 be e3 6e 86 3d
       -0.4966727 0.29268193 -0.42343983 0.06564119
0000c0 4c a5 c9 bd 40 c1 2b 3d 91 41 55 3e e1 8a 5d be
       -0.09845981 0.041932344 0.20825793 -0.2163501
0000d0 30 28 30 be b7 73 0c 3e 49 b1 2b bc 34 8f 29 3f
       -0.1720283 0.13716017 -0.01047928 0.66234136
0000e0 06 e2 a9 3e 54 51 27 bd 00 1d 3d be 8b 64 73 bc
       0.33180255 -0.040849045 -0.18468094 -0.014855514
0000f0 1c 5e ff 3b 35 63 97 be 14 73 7f 3d 65 25 b2 3e
       0.007793201 -0.29567876 0.062365606 0.34794155
000100 2f a3 cd bc e2 43 87 be 8f f4 bd 3e 07 11 96 3e
       -0.025102226 -0.26418978 0.37100646 0.29309866
000110 be dd 80 be 58 77 34 be a6 54 52 be 56 7f 62 be
       -0.25169176 -0.17623651 -0.20540103 -0.22118887
000120 f9 f7 87 be b4 96 93 be 74 51 43 be 87 a7 ad bd
       -0.26556376 -0.28825915 -0.1907404 -0.08479219
000130 33 93 d6 be d3 45 c4 bd 84 53 f7 3e 6a 1a fc 3e
       -0.4190918 -0.095836304 0.48305905 0.49238902
000140 51 af 54 be bd 9b 2c 3d 11 bf c0 bd 70 1b a8 3d
       -0.20770003 0.04214071 -0.09411443 0.08208358
000150 29 eb 2e 3f 67 a8 21 3e 6c 91 d0 3e 0b 89 74 be
       0.68327576 0.15786897 0.40735948 -0.23880403
000160 73 35 c1 be 45 d8 12 bf c0 00 d7 bd 83 99 42 bd
       -0.3773609 -0.5736125 -0.1049819 -0.04750968
000170 5f b6 0b bf ff 7b c9 3e 16 d8 a7 3e cf ad ee bc
       -0.5457515 0.39352414 0.32782048 -0.029135613
000180 81 49 a4 be a9 7c 8c be 44 10 2f be 6e a9 60 be
       -0.3208733 -0.27438858 -0.17096049 -0.21939632
000190 72 d5 55 be 99 45 e6 be f9 ff d7 3c 24 8b 46 3e
       -0.20882204 -0.44974974 0.026367174 0.19389015
0001a0 6f 49 68 3e 4e c3 a1 be 42 50 f5 3e 92 9e 31 be
       0.22684263 -0.31594318 0.47912794 -0.17345646
0001b0 4c 88 65 be 87 1a 07 bf 9e 70 32 3f b1 58 a9 3e
       -0.22415274 -0.5277485 0.6970309 0.3307548
0001c0 78 d5 53 3e 47 61 8d be af f4 be bd c0 9c 45 3e
       0.206869 -0.2761328 -0.093240134 0.19298077
0001d0 4d 37 5b 3f 61 64 65 3e 2f 2d f0 be b0 9e 97 be
       0.8563126 0.22401573 -0.46909472 -0.29613256
0001e0 68 7b 9c be 30 4b 4b 3d 0d e3 f1 be a8 3f 0c be
       -0.30562901 0.04963225 -0.47243538 -0.13696158
0001f0 d2 66 ec 3e b9 b1 94 be 68 2c 9a 3e 24 8c 7c 3e
       0.46172196 -0.29041842 0.30112004 0.24662834
000200 cb 51 ff 3d 53 78 ac be be 9b 87 be 5c 7c 90 3d
       0.12466773 -0.3368555 -0.2648601 0.0705497
000210 aa 4f 24 be 94 af a7 be 7b 94 db be 56 77 ce 3e
       -0.16046014 -0.32751143 -0.4288672 0.4032542
000220 16 d2 a4 3e cd c6 0e be 75 d6 98 3d fa 6e ab 3e
       0.32191533 -0.13943024 0.074627794 0.33483106
000230 24 08 69 be c7 8d 4c be c0 8c 92 3e 4e 09 c3 3e
       -0.22757012 -0.19975959 0.2862301 0.38093036
000240 0c ca a4 3d 0c 8a af be 93 ae 18 bf b4 6b 23 be
       0.0804635 -0.3428501 -0.5964138 -0.15959054
000250 a1 ee 93 3e fc 68 b3 3c 54 51 05 be 4b 03 3d bc
       0.28892997 0.021900646 -0.13019305 -0.01153643
000260 b8 60 d0 bd 6b 28 81 3e 21 1e 53 3f 20 12 23 be
       -0.10174698 0.2522615 0.8246785 -0.15924883
000270 2e 41 ad 3e 35 72 c2 be de 80 0c bc b9 da cb 3e
       0.3383879 -0.37977758 -0.008575646 0.3981531
000280 d5 41 0a 3f 97 ba b7 3d ab 2b 42 be 3f ad 84 be
       0.540067 0.08971136 -0.1896197 -0.25913426
000290 bf d9 4a be 7e a4 a6 3e 7e 0d bf 3d 73 cf 5e 3e
       -0.19809626 0.32547373 0.09328745 0.21758823
0002a0 3e 15 82 be cc 57 81 3e 0d 58 38 be 5d 43 14 bf
       -0.25406832 0.25262296 -0.18002339 -0.5791529
0002b0 26 ac 51 be c7 e4 ac 3e 20 a5 a3 3d 10 f6 8c be
       -0.20475826 0.33768293 0.079904795 -0.2753148
0002c0 92 3c eb be 32 db 8a bd bc fa f0 bd 3c 9c b1 3e
       -0.4594465 -0.067800894 -0.11766574 0.3468951
0002d0 65 4d 8d be bb 5b 09 bf c2 ee e8 bc 3e e4 8e 3e
       -0.2759811 -0.53655595 -0.028434161 0.2790851
0002e0 88 8d d2 be 61 80 06 3f 96 87 9d 3e cb 92 96 3d
       -0.41123605 0.5253964 0.30767506 0.07352217
0002f0 9e 0e af bd 2f 3f 6a 3d c7 02 21 3f e0 54 a8 3e
       -0.0854771 0.057189163 0.6289486 0.32877254
000300 8e 16 fd bc 9f 53 f6 be 4a da a8 be e8 0d 49 3f
       -0.030894544 -0.48110673 -0.3297904 0.78536844
000310 1f c2 98 bd 25 84 15 be e6 96 ec bd 50 63 c5 be
       -0.07458901 -0.1460119 -0.11552219 -0.38552332
000320 7e 55 9c be 6a af c0 be aa 55 8b 3e c6 d3 8c 3e
       -0.30533975 -0.3763383 0.27213794 0.2750532
000330 1f ac 99 3d 38 a4 ba be d6 ad b7 be c7 ee ba bb
       0.075035326 -0.36453414 -0.35874814 -0.005704734
000340 d2 a5 a8 3e 1c f9 52 be 1f e2 9e be 85 f7 4b bd
       0.3293901 -0.2060284 -0.31031892 -0.0497966
000350 35 15 ca 3e 3d 5a ce 3e f3 2d 32 3e d4 40 9c 3e
       0.39469305 0.4030322 0.1740034 0.3051821
000360 50 08 b7 3d 9a 61 b6 be 6a ad ec 3e 2a b7 93 3d
       0.08937132 -0.3562134 0.46226054 0.0721267
000370 e4 22 62 be 7f 7a f8 be cf 54 9e 3c 85 01 2d 3e
       -0.22083622 -0.48530957 0.01932755 0.16895111
000380 27 56 9a bc 6b 61 00 3d c9 ba d7 be 35 ce 08 3f
       -0.018839909 0.031342905 -0.42134693 0.53439647
000390 ee 81 8e 3e 35 f7 e1 3e 56 76 54 be 13 a3 20 bf
       0.27833503 0.44133916 -0.20748267 -0.6274883
0003a0 8c d7 05 3f 0b 66 61 bb c7 dc 99 3c fc 5e 07 3f
       0.52282023 -0.0034393098 0.018782033 0.5287931
0003b0 c6 ec 84 3e fc 9f 9f 3d 9d 56 de bd 53 54 c8 3d
       0.25961894 0.077941865 -0.10856364 0.097817086
0003c0 a1 55 8f be 4f 19 98 be 4e 2c c8 3e de 86 94 be
       -0.27995017 -0.2970681 0.39096302 -0.29009145
0003d0 2c 8e db 3e 68 4e f1 3e 14 57 ce 3e 9d 9e 55 3e
       0.42881906 0.47130132 0.4030081 0.20861287
0003e0 c0 f8 fb be 89 d6 d5 3b 89 ef 27 3e 46 a9 67 3e
       -0.4921322 0.0065258187 0.16399969 0.22623166
0003f0 7e ec b2 bb 03 63 e0 3d 10 eb 09 3e 84 22 91 be
       -0.005460321 0.10956385 0.13468575 -0.28346646

encoder.layers.1.linear1.bias f4 [2048]
000000 b6 1e dc 3d f2 a4 67 3e 89 87 3a be 7f bf 88 3e
       0.10748045 0.22621515 -0.18215765 0.267086
000010 51 47 0c 3f fe 23 36 be 31 bb e8 be 27 0e a8 be
       0.5479632 -0.17787167 -0.45455316 -0.32823297
000020 bb b7 c0 bc de 6a f4 3d 64 af f8 be 78 67 0b 3e
       -0.02352511 0.11934446 -0.48571312 0.13613689
000030 81 30 a6 bd 64 aa 36 3e fa ef 68 be dd a3 3a bb
       -0.0811472 0.17838436 -0.22747794 -0.0028479018
000040 e7 35 ce be f3 56 b6 3e 11 24 7c 3e 5c 67 96 be
       -0.402755 0.35613212 0.24623133 -0.29375732
000050 56 ad a2 3e 86 44 02 3c 3a 48 51 3d ca 12 e5 bd
       0.3177287 0.007950908 0.05109427 -0.11185224
000060 74 3c a8 be df 8b 32 be ca ea 0c bd 0b e6 6a be
       -0.32858622 -0.17436169 -0.0344036 -0.22939317
000070 dd 4c 23 bd 92 eb 63 3d 56 bd 43 be 01 1a cd be
       -0.039868224 0.05564458 -0.19115195 -0.40058902
000080 04 22 67 bd 1a 32 e7 be 2b 7d 16 3e ec 60 52 3e
       -0.056428924 -0.45155412 0.14696185 0.20544785
000090 b9 ed d0 be 95 de c8 3d 92 1a 00 be ef de d0 be
       -0.40806368 0.09808079 -0.12510136 -0.40795085
0000a0 c9 ed 83 3e 67 4a 3f 3e 2d ce b2 3e c7 89 1a be
       0.25767353 0.18680726 0.34922925 -0.1509162
0000b0 eb e9 e3 3d a4 c3 80 be f6 e2 90 be 3f 98 1c 3e
       0.11128601 -0.25149262 -0.28298157 0.15292452
0000c0 22 41 08 3e 80 ac 46 be eb 14 e0 be 54 02 a4 be
       0.13306096 -0.19401741 -0.4376596 -0.32033026
0000d0 af f5 8c be 30 ac 7d 3e e8 80 8d 3e 1c b2 cc 3d
       -0.27531192 0.24772716 0.2763741 0.09994909
0000e0 ca 09 07 be 47 14 ab be 5f 16 97 be eb 6c 6c be
       -0.13187328 -0.33413908 -0.29509255 -0.23088424
0000f0 ae fd 23 3d 40 38 53 bc 3a 0e 51 bd 42 43 46 3d
       0.04003685 -0.012891829 -0.051038958 0.048403986
000100 07 18 d5 be 1a 3f 5f be 2c 96 26 be b4 75 65 be
       -0.41619894 -0.21801415 -0.16268224 -0.22408181
000110 0e 97 a7 3e 6f 34 c1 be ec 7e a6 bc bb 0a 32 be
       0.32732433 -0.37735316 -0.020324193 -0.17386906
000120 94 eb 5c be 13 99 f2 be 27 79 b3 3c f9 cc 2a bd
       -0.21574241 -0.4738241 0.021908356 -0.041699383
000130 c3 23 45 be f3 57 ae 3d e3 6d 07 be 83 2a 9b be
       -0.19251923 0.08512869 -0.13225512 -0.3030587
000140 9e 25 c3 bd 80 4c 84 bd 77 7b 59 bd f4 93 3c be
       -0.09528659 -0.06459904 -0.05309626 -0.18415815
000150 60 57 a9 bd 65 c1 93 3e 18 b0 89 be 8b 48 86 be
       -0.082686186 0.28858486 -0.2689216 -0.2622722
000160 a1 18 22 be b0 42 54 3d 0c 5f da 3c 84 d8 e1 bd
       -0.15829708 0.05182141 0.02665665 -0.11027625
000170 f1 6f a7 be 02 22 a2 be f8 0a 84 be 73 6d b8 3e
       -0.32702592 -0.3166657 -0.25789618 0.36021003
000180 fe 95 8a bd e1 66 b8 3e 63 b3 51 3e 49 fa 47 3d
       -0.0676689 0.3601599 0.20478587 0.048822675
000190 bf 48 77 3d 82 64 db be 81 d0 86 bd 01 36 8a be
       0.06037211 -0.4285012 -0.06582738 -0.26994327
0001a0 74 0b 96 3e 0c be 1b 3e d4 c6 27 3e 15 6d 30 be
       0.29305613 0.15209216 0.1638444 -0.17229111
0001b0 41 41 c6 be 85 54 14 be d1 4a ea be d1 9c e4 3e
       -0.3872166 -0.14485367 -0.45760205 0.4465089
0001c0 52 70 5e 3e 4a 71 08 bd c2 0f a3 be 89 d5 d2 3d
       0.21722534 -0.033311166 -0.3184796 0.10294635
0001d0 02 2d d5 3e 15 3c e8 bc d4 e2 9d be a3 90 1e be
       0.416359 -0.028348962 -0.3083712 -0.15484862
0001e0 1c b0 cf be c6 c4 b6 3d fc 38 a0 3e e2 b6 92 be
       -0.40564048 0.0892425 0.31293476 -0.28655154
0001f0 ec ea fe bc 01 3e 31 3e 16 f0 c1 be d9 c6 9c bd
       -0.031117879 0.17308809 -0.37878484 -0.07655115
000200 49 fe 97 3e 7c 0d 89 be 4e 3d 91 bd 31 bb ee bd
       0.29686192 -0.267681 -0.07091771 -0.11656798
000210 d5 b9 ef be 48 f1 d6 3e 8c 62 9e be c7 77 3e be
       -0.46821466 0.41980958 -0.3093456 -0.18600379
000220 cd db ab 3e 99 b7 03 bf 85 6d 5c be bd b6 b5 bd
       0.33566132 -0.5145202 -0.21526153 -0.08872745
000230 93 26 a6 3d 6d 37 97 be 7a 9d 1d 3d ef 6e b0 be
       0.08112826 -0.29534474 0.03848026 -0.34459636
000240 42 24 05 3e 04 75 ad be 87 0e 5d 3d 2a 88 5d be
       0.13002113 -0.33878338 0.053968932 -0.21633974
000250 df 30 73 be 34 e9 ca 3e 32 20 a0 bd c5 d0 d2 3d
       -0.23749112 0.39631045 -0.07818641 0.10293726
000260 69 2b a6 bc d0 c1 d2 be 42 af b3 3d 0c 8c 0e 3e
       -0.020284371 -0.41163492 0.08773662 0.13920611
000270 0a f3 0a 3e 75 19 49 be 17 df 23 bd 10 d2 db be
       0.13569275 -0.19638617 -0.040007677 -0.42933702
000280 bf 6c 08 3d b6 31 ac be 4c a6 ad 3e bb cc 21 3d
       0.033306833 -0.33631676 0.33915937 0.039501887
000290 fb b9 3b be d2 65 d6 bd 63 f1 23 be 21 8e 86 3e
       -0.18332665 -0.104686394 -0.1601005 0.2628031
0002a0 42 b0 6b 3e f0 7d 17 3e 74 1d bb bd a8 a4 8f 3c
       0.23016456 0.14794135 -0.09136477 0.017534569
0002b0 9d 07 97 bd 11 5f 1a bf 81 90 92 3e 9b db 1e be
       -0.07374499 -0.6030131 0.28625873 -0.1551346
0002c0 2b de 94 bd 52 2e 34 be 9f 71 7b be 63 e0 1a 3e
       -0.07268938 -0.17595795 -0.24555062 0.15124659
0002d0 a3 1e a1 be a6 06 1f be 76 a6 20 3e bd 9b 86 3d
       -0.31468686 -0.1552988 0.156885 0.065726735
0002e0 4a 9c 4d be a1 4f 7e be 07 39 ef bc dc 4c 7b bd
       -0.20079151 -0.24835064 -0.029201997 -0.061352596
0002f0 94 ef f7 be a0 1b 9d 3e ef 2e d1 3d 1c 18 e0 bd
       -0.4842497 0.3068514 0.1021403 -0.109420985
000300 0a fa 90 3e 9d 56 8f be 28 47 2a 3e ad 1f b3 3e
       0.28315765 -0.27995768 0.16628706 0.34985104
000310 b5 bc ab be 4e 37 9c 3d e7 f0 c3 be 27 0d 61 3c
       -0.3354241 0.07627736 -0.3826973 0.013736046
000320 40 4d 56 bc 92 04 d0 3c 51 34 cc be 30 8d 11 3d
       -0.013079941 0.025392804 -0.39883664 0.035535038
000330 0c 83 ad 3d a8 c7 ec be 5a 87 9a be cd 39 d4 3d
       0.08472261 -0.46246076 -0.3018139 0.10362587
000340 a7 e1 0d be 27 7f 09 be 09 36 5d be 40 07 81 3d
       -0.13855611 -0.13427411 -0.21602644 0.06300211
000350 b7 08 49 3e 6d 56 a5 3e a3 a4 fb bd b8 f7 d3 3e
       0.1963223 0.322925 -0.12287261 0.41399932
000360 b0 fd d9 be 76 a3 e0 bd 76 5a c7 3e f0 87 55 bc
       -0.4257636 -0.10968678 0.38936204 -0.013032898
000370 73 83 fb bc 82 01 07 3f 7d 57 ee 3d e3 7b 7f be
       -0.030702328 0.52736676 0.11637781 -0.24949603
000380 85 d8 bf bc e2 ab fd be e8 ad 22 3e 5a 48 7c be
       -0.023418674 -0.495452 0.15886652 -0.24636975
000390 11 73 59 3e 9e dd ff bd 7c 68 69 be c1 b8 be be
       0.212353 -0.12493442 -0.22793764 -0.3725033
0003a0 0e 18 14 bf ad da e6 3e e0 c6 db be d2 e6 73 be
       -0.57849205 0.4508871 -0.42925167 -0.2381852
0003b0 43 86 81 bd e1 f7 26 be 63 b8 15 3e 85 f8 00 bf
       -0.063244365 -0.16305496 0.14621119 -0.5037921
0003c0 e5 39 e2 3e e8 ed 82 3d b3 2c 9f be 72 ce 98 3e
       0.44184795 0.06393033 -0.3108879 0.29845005
0003d0 e7 5d d1 be 55 ef da be 7a 75 0a 3e 3c 03 d3 3e
       -0.40891954 -0.4276072 0.13521376 0.41213405
0003e0 e0 a5 8b be fe 44 34 3e 0b 5c 13 be 47 99 8e be
       -0.2727499 0.17604443 -0.1439058 -0.27851316
0003f0 16 85 3c 3e 21 88 1f bd bd b8 b6 3e 53 3d 17 bf
       0.18410143 -0.038948182 0.3568782 -0.5907795

encoder.layers.1.linear2.weight f4 [5, 2048]
000000 3d 38 23 3e c2 08 d6 ba cd ac b4 bd 58 a4 e8 3d
       0.15939422 -0.0016329514 -0.08822022 0.11359471
000010 73 3d 37 be 3c 22 38 bc 4e 16 b9 3d 0c e0 70 be
       -0.17894535 -0.011238631 0.090374574 -0.23522967
000020 93 52 00 3e c5 01 af 3d 57 1c ae 3c ef 73 df 3d
       0.125315 0.085452594 0.021253748 0.109107845
000030 5a fc 21 be c6 07 b6 3d ff 5d 7a bb bd 85 37 be
       -0.1581892 0.088882014 -0.0038202999 -0.17922111
000040 14 91 08 be 58 78 39 3e 03 9e 51 bd 54 92 b8 3b
       -0.13336593 0.18112314 -0.051176082 0.005632678
000050 b6 ae 03 be 9c dd d5 3d fd 08 dc 3d 04 0d 35 3e
       -0.12859616 0.10442659 0.10743902 0.17680746
000060 b5 cf 43 be 24 0e 60 3d bb 0f 21 3e d3 b4 39 be
       -0.19122203 0.054700986 0.15728657 -0.18135385
000070 12 6a a3 3c 7a e8 d2 bd 37 c4 17 be 4b a1 28 be
       0.01994804 -0.10298248 -0.14820944 -0.16467778
000080 6c 51 13 3e d7 94 51 3d 6e c4 18 be 9a f8 71 be
       0.14386529 0.051167335 -0.14918682 -0.2362999
000090 b8 c4 3b be 83 c2 14 bd 67 39 29 3e 49 95 1a 3e
       -0.18336761 -0.036318313 0.16525804 0.1509601
0000a0 ec fb 1d bd c0 c1 ef bc be 1b e5 3c 5c 6d 2d be
       -0.03857033 -0.029267192 0.02796733 -0.16936249
0000b0 e1 1c c5 bd f8 2e a1 bd b2 32 92 be da 9d 2a bd
       -0.09624649 -0.07870287 -0.28554302 -0.041654445
0000c0 be c0 c1 bd 80 e8 d0 3d b9 1d 9f bc 03 b7 97 bd
       -0.09460591 0.10200596 -0.019423353 -0.074079536
0000d0 99 62 60 be 06 8c 25 3c 4f 2f 4d be db ca ac 3d
       -0.21912612 0.010104185 -0.20037578 0.08437129
0000e0 7b e5 ac 3d 09 a4 88 3e 91 9a 85 3c 30 ed 0c be
       0.084422074 0.2668765 0.016309055 -0.13762355
0000f0 f4 1f 32 be 1e 79 e8 3b 42 0f 0e 3e f5 a9 d5 3d
       -0.17395002 0.0070945164 0.13873008 0.10432807
000100 a8 e1 bf 3c 1e fc fb 3c 48 73 35 bc 01 d0 de bd
       0.023423031 0.030759867 -0.0110748485 -0.10879517
000110 23 09 0a 3e b7 f9 0a be 66 48 b8 bd 97 f5 d0 bd
       0.13480048 -0.13571821 -0.08998184 -0.102030925
000120 9c 17 9c 3e 4c 33 09 bc 6d b4 a6 3d a9 09 49 be
       0.30486763 -0.0083740465 0.08139882 -0.19632591
000130 2b 7d 35 be 3c 20 ab bd 2f b9 49 bd 9c a7 2d 3d
       -0.17723529 -0.083557576 -0.04924887 0.042396173
000140 3a d6 9e bd 97 4a 1d be 01 0c ca bd 39 67 9d be
       -0.07755704 -0.15360485 -0.09865571 -0.30742815
000150 65 2a 06 be 5f c8 a5 bd 05 82 80 be cf de a0 3d
       -0.1310211 -0.080948584 -0.25099197 0.07854997
000160 af dd 48 3e 60 b1 2d 3b 54 8d 2e 3e 2a d9 9d 3c
       0.19615816 0.0026503429 0.170461 0.019268591
000170 c8 20 67 be c6 48 42 bc 6a 2d f6 bd fa 96 e5 bd
       -0.22571099 -0.011858171 -0.12020381 -0.11210437
000180 20 92 43 be 0f 05 20 bd 3e c0 79 3d b9 8c 71 bd
       -0.19098711 -0.039067324 0.060974352 -0.058972094
000190 32 85 d2 3c 9c 65 14 3e 8c a1 2d 3d cd 22 13 3c
       0.025698278 0.14491886 0.04239039 0.008980465
0001a0 38 e1 79 3d 74 42 85 3c e9 7c bc bd 61 2d 72 3c
       0.0610058 0.016267039 -0.09203512 0.014781327
0001b0 38 28 7c 3d fa 3f 0b be 4d f9 c0 3a 06 de 10 be
       0.061561793 -0.13598624 0.0014722735 -0.14147195
0001c0 21 1f 25 bc 25 b0 14 3e 76 91 01 be 48 28 01 3d
       -0.0100782225 0.14520319 -0.12653145 0.031532556
0001d0 1a 10 cf bd 0c 5d c5 bd 6f 63 f1 3d 46 75 3c be
       -0.10110493 -0.09636888 0.117865436 -0.18404111
0001e0 9e c4 d9 bb f7 4b 25 3e b0 68 ed 3d 42 2c 6b be
       -0.006645753 0.1614226 0.11592233 -0.22966102
0001f0 fd 6e a7 bd 8f 87 b4 3d f1 a5 15 be b7 dc c6 bd
       -0.08175466 0.08814918 -0.14614083 -0.09710067
000200 a2 7e 55 bd a2 b5 d4 3d 5d b2 96 bc d1 c8 52 3e
       -0.05212272 0.10386206 -0.018395597 0.20584418
000210 13 c6 10 be cc c3 c3 bd dd 99 bb 3d a2 a5 41 3d
       -0.1413806 -0.0955883 0.091602065 0.0472771
000220 4d 0f dc bd bf 10 00 3e 65 d6 20 bd 42 15 33 3d
       -0.10745106 0.12506388 -0.039266963 0.043721445
000230 bb 20 43 be f9 18 a0 bc 51 82 c4 bc 98 26 9d 3d
       -0.19055454 -0.019543158 -0.023987921 0.07673377
000240 04 96 ff 3d 5d cd f5 3d fc d4 9b bc f7 ef 25 3e
       0.12479785 0.120020606 -0.019022457 0.1620482
000250 b8 98 98 bd 2b f8 b9 3d bb e1 17 3e a7 97 f9 bd
       -0.07451004 0.090805374 0.14832203 -0.121871285
000260 9d 93 a4 bc 0b 58 c6 3d 9e 03 61 be c4 21 ba 3d
       -0.020089919 0.096847616 -0.21974036 0.090884715
000270 fa 56 18 3e 19 ba 30 be 53 1a 21 be f0 ad 23 be
       0.14876929 -0.1725849 -0.15732698 -0.1598432
000280 44 19 bc bd 2b f0 fc 3d 3e 90 3c 3e a8 f6 65 be
       -0.091845065 0.12350496 0.18414399 -0.22457373
000290 6b cc f9 3d cb bf 2e be bb 94 78 3d 4c ea dc bd
       0.12197193 -0.1706535 0.060688715 -0.10786876
0002a0 73 18 3a bd e9 49 c0 3d 45 00 55 3a 8c ef 93 3d
       -0.045433473 0.09389097 0.00081253453 0.07223424
0002b0 1f d4 36 bd 16 ac 9c 3b fa 7f 92 bd 59 7e 5d be
       -0.04463589 0.0047812564 -0.07153316 -0.21630229
0002c0 8d fb f4 bd c7 44 0f 3d 68 ca 6d bd 72 bd a1 bd
       -0.11962042 0.0349777 -0.058054358 -0.07897462
0002d0 19 5c 6b be 40 1c 9e 3a 14 a0 8d bc e0 f3 80 bb
       -0.22984351 0.0012062863 -0.017288245 -0.003935322
0002e0 ef 4c 3e be 80 a3 bf bd 84 14 28 3e 77 11 78 bb
       -0.18584035 -0.09357357 0.16414076 -0.0037852207
0002f0 7b 0d 6b 3d 37 17 83 bd c4 bc ef bd 59 c9 87 bc
       0.057385903 -0.06400912 -0.11705926 -0.016575502
000300 23 34 89 3a b3 61 65 be 7a c2 c4 bb 62 48 0b 3e
       0.0010467808 -0.2240055 -0.0060046287 0.1360183
000310 40 b6 ba 3d 79 ce ab 3d 4c ec fc 3c 93 8e 7b be
       0.09116793 0.08388991 0.030874394 -0.24566106
000320 90 a2 77 be 5b 4a 1d bd 28 84 89 3d 37 6f 41 bd
       -0.24183106 -0.03840099 0.0671466 -0.047225203
000330 ce 61 28 be 63 8a 17 be 11 a7 9a 3c 59 70 84 be
       -0.1644356 -0.14798884 0.018878492 -0.25866964
000340 12 c4 38 3e ad e5 76 be d7 de 21 3e 0f df 26 be
       0.18043545 -0.24111052 0.15807663 -0.16296028
000350 a8 e9 c2 3d 78 10 d5 3d 6b 9e 0e be 48 b1 c9 3d
       0.09517223 0.10403532 -0.13927619 0.09848267
000360 6a 2f 40 3b 0f 4d bc 3e 55 68 49 be 47 f1 b7 bd
       0.0029325136 0.3677754 -0.19668706 -0.08981567
000370 9b 97 b6 bd 40 93 09 be 98 b9 84 3d cc b2 23 3e
       -0.08915635 -0.13435078 0.06480712 0.15986174
000380 6c 98 58 3c 85 92 55 bc cc 1e 71 bb e4 60 78 be
       0.013219934 -0.013035421 -0.0036792038 -0.24255711
000390 4f 3c 77 bc 05 12 b0 3d bf 87 e8 bd b8 02 87 bd
       -0.015090062 0.08597187 -0.113540165 -0.065923154
0003a0 c6 ee 4b bc 68 f1 d5 bd d5 3b 80 3e c6 70 57 3b
       -0.012447065 -0.10446435 0.25045648 0.0032873615
0003b0 50 3d a9 bd da f4 86 be 04 49 87 bd 07 0e ad 3d
       -0.082636476 -0.26358682 -0.066057235 0.08449941
0003c0 ea a9 f3 3d a7 c9 2e bd 54 b3 65 3d 8d 58 7d bd
       0.11897643 -0.04267278 0.056079224 -0.061852027
0003d0 6e 9d 54 bd 7e 4e 4d 3d 0a f2 dc 3d 90 d7 75 be
       -0.05190795 0.050123684 0.10788353 -0.24008012
0003e0 0a b2 52 3d ed c2 aa bd a0 05 19 3c 21 f1 4f 3e
       0.051439323 -0.083379604 0.00933972 0.20306827
0003f0 a8 ff 4f bd 22 88 09 be 7e 50 ed bd 9f 99 95 3d
       -0.050780922 -0.13430837 -0.11587618 0.073046915

encoder.layers.1.linear2.bias f4 [5]
000000 93 34 9b bc 2d 44 46 bd 50 cd c5 3d 90 4a 9c bd
       -0.018945968 -0.04840486 0.09658301 -0.07631409
000010 94 35 61 3d
       0.054982737

encoder.layers.1.norm1.weight f4 [5]
000000 66 4a 7d 3f 95 2c 95 3f f0 c3 3b 3f eb 08 80 3f
       0.9894165 1.165423 0.7334585 1.0002722
000010 ee 5e 93 3f
       1.1513345

encoder.layers.1.norm1.bias f4 [5]
000000 c9 d0 73 3d af 25 55 bd 83 0d b3 bc f8 51 98 bd
       0.059525285 -0.05203789 -0.021857029 -0.07437509
000010 64 d2 12 3d
       0.035845175

encoder.layers.1.norm2.weight f4 [5]
000000 40 48 92 3f b2 0d 83 3f e6 80 87 3f de c2 89 3f
       1.1428299 1.0238554 1.0586212 1.0762594
000010 21 fb 88 3f
       1.0701638

encoder.layers.1.norm2.bias f4 [5]
000000 11 d2 63 bd 94 34 ce bc 70 09 44 3d 33 ac 95 bc
       -0.055620257 -0.025171556 0.047860563 -0.018270588
000010 2e 0d 59 bd
       -0.052991085
