results/nifty/ohlcv/model_best_good_tf.pt (torch, 575330 bytes, 90 tensors)

encoder.layers.0.self_attn.in_proj_weight f4 [15, 5]
-0.45656177 -0.61183304 -0.05747258 -0.45297843 -0.9466746 0.054576695 0.4088191 0.43408018
0.543257 0.9591002 -0.4366638 -0.11745453 -0.28215423 -0.030044172 -0.7297124 0.20108768
-0.6157878 -0.4655548 0.021740934 0.105008714 0.12323881 0.4243259 0.9120002 0.9387887
0.6422876 0.9242929 0.23415516 0.2653943 0.4307448 -0.46814156 -0.8993028 -0.098144166
0.14108393 -0.7874273 -0.8295909 -0.5066478 -1.0546647 -0.9203485 -0.24245049 -0.030249175
-0.299054 -0.14292116 -0.19336203 -0.070456676 0.14978541 -0.3961115 -0.25112236 -0.77387196
-0.676063 -0.6132924 -0.0037357556 0.42103916 -0.3182873 0.3954624 0.10697962 0.04419831
0.5847799 -0.2562 0.12527412 0.33891788 0.20804818 -0.34557384 0.06757635 0.2658998
-0.5883243 0.06690692 0.01987711 0.15682621 -0.06717434 0.51876444 -0.6143865 0.25862214
0.27356517 -0.11181706 -0.32021916
00000000: 77c2 e9be 17a1 1cbf 5e68 6bbd caec e7be
00000010: 4459 72bf d08b 5f3d bd50 d13e c23f de3e
00000020: e412 0b3f 9787 753f 6692 dfbe 008c f0bd
00000030: 8576 90be 321f f6bc 6fce 3abf eee9 4d3e
00000040: 45a4 1dbf 335d eebe 0b1a b23c cf0e d73d
00000050: a164 fc3d 3f41 d93e d878 693f 7554 703f
00000060: f66c 243f 769e 6c3f 5fc6 6f3e c3e1 873e
00000070: 958a dc3e 40b0 efbe b538 66bf cfff c8bd
00000080: 4e78 103e d694 49bf 1260 54bf acb3 01bf
00000090: 41ff 86bf f69b 6bbf f144 78be 1ecd f7bc
000000a0: 9b1d 99be ed59 12be b200 46be 974b 90bd
000000b0: 5961 193e 20cf cabe 1c93 80be 791c 46bf
000000c0: 7712 2dbf bb00 1dbf 94d3 74bb 7292 d73e
000000d0: 8ef6 a2be 0c7a ca3e 2218 db3d 4909 353d
000000e0: 23b4 153f a52c 83be dc47 003e a586 ad3e
000000f0: 950a 553e 0eef b0be 7865 8a3d 0524 883e
00000100: 6c9c 16bf 7f06 893d 52d5 a23c 0d97 203e
00000110: b392 89bd bfcd 043f 6f48 1dbf 1f6a 843e
00000120: bc10 8c3e 5800 e5bd c4f3 a3be

encoder.layers.0.self_attn.in_proj_bias f4 [15]
-0.41027954 0.39574113 -0.13478057 -0.24472475 0.61594033 -0.0032832844 -0.016875988 -5.7967056e-05
0.00021812382 -0.0064309365 -0.18591999 0.11563268 0.077124275 -0.086592086 -0.034316335
00000000: 2910 d2be 959e ca3e eb03 0abe 2099 7abe
00000010: 44ae 1d3f 5f2c 57bb 833f 8abc a721 73b8
00000020: 2bb8 6439 9bba d2bb cf61 3ebe d4d0 ec3d
00000030: 55f3 9d3d 3157 b1bd 498f 0cbd

encoder.layers.0.self_attn.out_proj.weight f4 [5, 5]
-0.33840144 -0.4454584 0.097342946 0.17964825 0.46495086 0.059160423 0.1623003 -0.0052815243
0.4519107 0.360576 -0.1916596 -0.24252923 0.12991482 0.12305539 -0.20339037 0.2084725
-0.12273403 -0.3746582 0.26526216 0.11890472 -0.28772786 0.4064896 0.39194208 0.14127512
0.21632528
00000000: f442 adbe 2013 e4be bd5b c73d b6f5 373e
00000010: 0a0e ee3e 3352 723d 0d32 263e a310 adbb
00000020: d760 e73e 6b9d b83e 6a42 44be 9559 78be
00000030: 6408 053e 7704 fc3d 9145 50be d179 553e
00000040: fb5b fbbd 33d3 bfbe 71d0 873e 5184 f33d
00000050: 1151 93be 681f d03e a2ac c83e 6daa 103e
00000060: 6084 5d3e

encoder.layers.0.self_attn.out_proj.bias f4 [5]
0.05727538 -0.113638304 -0.014091718 -0.1489933 0.1667614
00000000: 9799 6a3d 33bb e8bd f3e0 66bc b391 18be
00000010: 80c3 2a3e

encoder.layers.0.linear1.weight f4 [2048, 5]
0.21432245 0.32764682 0.09577897 0.4593676 0.3757404 -0.53014743 0.1813624 -0.15277801
0.5436911 -0.025477916 0.13124567 0.37240514 0.10535091 0.11849988 -0.29240045 0.07186293
0.3007657 -0.098118216 -0.22941165 -0.50801945 0.14390627 -0.036509704 0.2913627 -0.31980693
0.33818683 -0.5015361 0.009249231 0.27379116 0.46283114 0.15235429 0.46221972 -0.015625134
0.34937713 0.08315654 -0.6200056 0.31690407 -0.32868135 -0.04604125 -0.06342264 -0.04280726
0.19709547 -0.3895798 -0.18216923 -0.22054148 0.022488086 0.25569928 0.28626803 0.26443595
-0.25671214 0.20521177 -0.5217294 -0.21559066 -0.347483 0.51267 0.26336327 -0.48765266
0.21719429 -0.18380013 0.42870933 0.30331126 -0.014266162 0.11799929 0.41772366 -0.09548875
0.11022213 -0.01601027 0.43981242 -0.22670907 0.1401734 -0.45487845 -0.013093975 -0.19801083
0.27978987 -0.18420549 0.43355653 -0.45826778 0.29485115 0.19738623 0.4052453 0.46156648
0.23364517 0.02248696 0.11980312 0.233069 -0.259003 -0.46485072 0.3656422 0.014414242
-0.06872318 0.41356337 -0.45516816 0.47013912 -0.20292272 0.3374215 -0.01974309 0.35946155
0.20166633 -0.05298417 0.16544107 -0.5775963 -0.1247425 0.38971213 -0.24075973 -0.084628925
-0.5546258 -0.10069862 0.10761171 -0.4336455 -0.13567019 -0.14047386 0.20027652 0.08876748
-0.36339024 -0.19922975 -0.3151638 -0.55335236 0.13784753 0.32919347 -0.27157983 -0.09109242
-0.1715392 -0.14476882 -0.04398762 0.49771476 0.18489233 0.29956868 -0.28768802 0.19370408
-0.29191726 0.00062701624 0.29679447 -0.061504416 -0.042146124 -0.119001 -0.53866726 -0.414288
0.5166196 -0.18123022 0.27781415 0.111334905 0.07727445 -0.08186799 -0.10275935 0.017631177
-0.6732928 0.22871305 -0.01964731 -0.22220299 0.009628338 -0.55813336 0.16508429 0.21269457
0.3101045 -0.022300994 0.04800121 0.28971994 0.2552473 0.00255142 0.007925249 -0.25965613
0.15734948 0.10805113 -0.055099525 -0.38911355 -0.26408824 -0.4629467 0.3789598 0.24387401
0.023996592 0.233522 -0.2368063 0.059421342 0.52142763 -0.38291723 -0.24331374 -0.3094156
-0.21840507 0.107224055 0.47316635 -0.032289732 0.29052624 0.01292576 0.19935623 -0.25818965
0.43149114 0.30272415 -0.45427525 0.15170111 -0.47415936 0.017505504 0.32302278 0.05575736
0.22163506 0.08163995 -0.7406785 -0.4097182 -0.09773115 -0.22773093 0.36060676 0.1596841
-0.22140671 0.19716018 -0.37368804 -0.010961184 -0.53710705 -0.1740295 -0.22288696 -0.045900397
0.109153606 0.24543022 0.23456149 0.021626402 -0.11259815 0.0575668 -0.3000323 0.24701181
-0.16546905 -0.10257369 0.024810623 0.2822884 0.35871774 0.39677006 0.19105482 0.19264655
-0.50704163 0.0055185445 -0.042200882 -0.06514447 0.33541065 0.027493523 -0.078187376 0.04751143
-0.16731721 0.4220674 0.43904603 -0.40004274 0.075804815 0.0068396344 0.10353788 0.49000934
-0.20450975 0.2805702 0.16143753 0.5635995 0.24559508 -0.13712598 0.5011327 -0.0020198396
0.11317485 -0.5865179 -0.5807602 0.04478459 -0.10936474 -0.073940806 -0.017267711 0.27696028
00000000: 5877 5b3e 53c1 a73e c427 c43d 3b32 eb3e
00000010: 0c61 c03e beb7 07bf 11b7 393e d771 1cbe
00000020: 572f 0b3f 10b7 d0bc 4465 063e e3ab be3e
00000030: 38c2 d73d 11b0 f23d 83b5 95be df2c 933d
00000040: f6fd 993e 34f2 c8bd e3ea 6abe 900d 02bf
00000050: 2a5c 133e 338b 15bd 7e2d 953e bcbd a3be
00000060: d326 ad3e ab64 00bf 168a 173c 5b2e 8c3e
00000070: 34f8 ec3e c302 1c3e 10a8 ec3e 4800 80bc
00000080: 8fe1 b23e fa4d aa3d b0b8 1ebf 4041 a23e
00000090: ec48 a8be c095 3cbd bbe3 81bd aa56 2fbd
000000a0: 65d3 493e 0177 c7be 928a 3abe a0d5 61be
000000b0: ef38 b83c 04eb 823e b991 923e 2664 873e
000000c0: c66f 83be 0923 523e 0f90 05bf ccc3 5cbe
000000d0: 4be9 b1be 573e 033f 8dd7 863e 9cad f9be
000000e0: 2e68 5e3e 1a36 3cbe ca7f db3e 9d4b 9b3e
000000f0: 9fbc 69bc 9da9 f13d e0df d53e 9b8f c3bd
00000100: 24bc e13d f827 83bc 182f e13e 6c26 68be
00000110: 9e89 0f3e d4e5 e8be 1d88 56bc 5ac3 4abe
00000120: 9e40 8f3e 5da0 3cbe 1ffb dd3e 13a2 eabe
00000130: bbf6 963e 9e1f 4a3e 507c cf3e 7152 ec3e
00000140: ae40 6f3e 9336 b83c 575b f53d a4a9 6e3e
00000150: 0b9c 84be ea00 eebe 7435 bb3e b629 6c3c
00000160: bdbe 8cbd 94be d33e cd0b e9be 13b6 f03e
00000170: f9ca 4fbe 83c2 ac3e 43bc a1bc 580b b83e
00000180: 9e81 4e3e ee05 59bd 6269 293e 5add 13bf
00000190: ff78 ffbd 5988 c73e b889 76be ee51 adbd
000001a0: f5fb 0dbf 143b cebd 8763 dc3d c806 debe
000001b0: 20ed 0abe 61d8 0fbe 4a15 4d3e b9cb b53d
000001c0: 490e babe e202 4cbe 265d a1be 80a8 0dbf
000001d0: e727 0d3e 0c8c a83e 830c 8bbe aa8e babd
000001e0: f9a7 2fbe 473e 14be 5d2c 34bd 78d4 fe3e
000001f0: 6a54 3d3e 1161 993e d84b 93be 5d5a 463e
00000200: 2e76 95be 595e 243a 72f5 973e 0eec 7bbd
00000210: 6aa1 2cbd ccb6 f3bd 19e6 09bf 8f1d d4be
00000220: 2f41 043f 6a94 39be a83d 8e3e 8e03 e43d
00000230: 1142 9e3d 68aa a7bd 7e73 d2bd 426f 903c
00000240: eb5c 2cbf c133 6a3e 65f3 a0bc 2e89 63be
00000250: 2dc0 1d3c d4e1 0ebf db0b 293e 9bcc 593e
00000260: 04c6 9e3e 93b0 b6bc eb9c 443d 2c56 943e
00000270: c6af 823e b935 273b e7d8 013c a6f1 84be
00000280: 3920 213e e949 dd3d 0ab0 61bd e439 c7be
00000290: 9336 87be 5a07 edbe 0507 c23e 1cba 793e
000002a0: 8094 c43c 6420 6f3e 5a7d 72be cb63 733d
000002b0: 487c 053f ba0d c4be 3d27 79be b96b 9ebe
000002c0: 94a5 5fbe 4998 db3d dc42 f23e 3d42 04bd
000002d0: dbbf 943e 91c6 533c 0a24 4c3e 6f31 84be
000002e0: 68ec dc3e a9fe 9a3e c496 e8be 8957 1b3e
000002f0: 04c5 f2be b467 8f3c 3e63 a53e d461 643d
00000300: 4df4 623e d932 a73d 1b9d 3dbf 95c6 d1be
00000310: 4527 c8bd 4c32 69be 73a1 b83e 3b84 233e
00000320: 71b8 62be 5ce4 493e 0a54 bfbe 8a96 33bc
00000330: d97f 09bf ca34 32be 7b3c 64be 0e02 3cbd
00000340: ed8b df3d 0f52 7b3e e330 703e da29 b13c
00000350: dc99 e6bd 2acb 6b3d d59d 99be aaf0 7c3e
00000360: b870 29be 2812 d2bd a63f cb3c 1b88 903e
00000370: daa9 b73e 7225 cb3e e0a3 433e 2345 453e
00000380: 7bcd 01bf e8d4 b43b d5da 2cbd 776a 85bd
00000390: f2ba ab3e 193a e13c b420 a0bd 589b 423d
000003a0: 3455 2bbe 3819 d83e a4ca e03e 67d2 ccbe
000003b0: 8e3f 9b3d 031f e03b ab0b d43d 81e2 fa3e
000003c0: 016b 51be e6a6 8f3e e14f 253e 0f48 103f
000003d0: 477d 7b3e c16a 0cbe 3c4a 003f 495f 04bb
000003e0: 37c8 e73d 0926 16bf b3ac 14bf 0c70 373d
000003f0: 9ffa dfbd 476e 97bd 0475 8dbc bdcd 8d3e

encoder.layers.0.linear1.bias f4 [2048]
-0.2535004 0.2545157 -0.09784858 0.30630243 -0.17670624 0.24383114 0.033751305 -0.3702206
0.2724549 -0.5618258 -0.14505593 0.18476091 0.17993253 0.37449488 0.47559902 0.14494637
0.2913926 -0.34326306 -0.21340497 0.41123572 0.23261923 -0.30999 -0.5836642 -0.024165034
0.10315946 -0.21666194 0.0245876 -0.0670741 0.3809056 0.25318453 0.19904506 -0.277675
0.14161901 -0.15187113 0.30636644 -0.196006 -0.18112215 0.13219118 0.1428394 0.05819767
0.2915032 -0.26885164 0.1884647 0.23024596 0.33775508 -0.08815324 0.06674898 0.085504524
0.29736242 0.22793394 0.07421551 -0.37123948 -0.18953487 -0.354119 0.17169759 -0.09497931
0.27612293 0.008574524 -0.43634427 0.17108321 0.25061926 0.35818312 -0.3694993 -0.38839638
-0.2501357 -0.023716878 0.018989425 0.3574299 0.45243442 -0.2267946 -0.3451874 0.26772407
-0.27539888 -0.24078636 0.40853423 -0.021654522 0.13497047 -0.3213778 -0.098795064 0.14498708
0.36383122 -0.12610666 0.22950421 -0.0015136981 -0.062867716 0.15269092 -0.10384617 -0.13900408
-0.06570942 -0.13810544 0.12568519 -0.25859544 -0.24617395 -0.33848283 0.1597737 -0.2708486
-0.09740757 0.01753262 -0.49455342 0.3681745 0.006983474 -0.0034715151 -0.08598067 -0.01051391
-0.3345939 0.44435376 0.004355853 0.063452944 0.15399367 -0.0656234 -0.2116876 0.243877
0.23054537 -0.0395581 -0.17392147 0.0522551 0.36987135 -0.122857004 -0.39534587 -0.032087807
0.06833839 -0.29060322 -0.1007024 0.25221273 -0.42671636 -0.35940427 0.19611347 -0.4109757
-0.16742182 -0.1318523 0.07385965 0.22994673 -0.39858606 0.24195428 0.36857706 -0.2636456
-0.49458742 -0.2423248 -0.14413768 -0.253634 -0.064699024 0.17401579 0.014963044 0.33468008
-0.27268884 0.28184047 0.19892809 -0.021760538 0.16812928 -0.18978679 -0.27673814 0.42794627
0.31227255 -0.37793356 0.11659016 0.13274878 -0.14877842 0.020939996 0.03546312 -0.51760334
0.2712614 0.11827276 -0.059447967 -0.391935 -0.3422212 -0.27972576 -0.50309473 -0.17745249
0.15850773 -0.52543074 -0.0645385 0.29071555 0.16564293 0.2681143 0.23408376 0.02311114
-0.3586119 -0.4057641 -0.40206352 0.1978016 -0.29915696 -0.63649625 0.1690929 -0.023023793
-0.03692783 -0.1533418 0.12079439 0.00392849 0.2349433 0.26664317 0.3468974 -0.33009526
-0.109174326 -0.048824023 0.16379048 -0.10237338 0.17819633 0.023946587 -0.028037015 0.22861241
0.029055659 0.21428327 0.517233 0.25459835 0.20411247 -0.05282989 -0.24527866 0.13575493
-0.046195954 -0.2690472 -0.38812318 -0.16106601 0.2544739 -0.20084454 0.37130633 0.097325444
-0.018510062 0.10833043 -0.5261446 0.192804 -0.055319756 -0.31210932 0.13777833 0.32750365
0.0067112283 0.05703423 -0.06718448 -0.16693692 0.19489911 -0.5828066 -0.102829725 -0.0086680995
-0.29713085 0.05864177 0.133662 -0.014483425 -0.31111345 -0.23744053 0.21348445 -0.18512087
-0.121146314 -0.13693786 0.19171475 -0.16556655 0.33521244 0.010898466 -0.08050442 -0.11423015
-0.5171683 -0.087582655 -0.34243476 -0.041603804 -0.42981794 0.059521433 0.017804008 0.37642747
00000000: ceca 81be e24f 823e d664 c8bd acd3 9c3e
00000010: 7bf2 34be dfae 793e cf3e 0a3d 8e8d bdbe
00000020: 357f 8b3e d1d3 0fbf 8b89 14be f731 3d3e
00000030: 3c40 383e cbbd bf3e b781 f33e d26c 143e
00000040: 6931 953e 2dc0 afbe d586 5abe 7d8d d23e
00000050: bc33 6e3e 02b7 9ebe 046b 15bf c0f5 c5bc
00000060: 4445 d33d a1dc 5dbe ef6b c93c 255e 89bd
00000070: 0f06 c33e 67a1 813e 78d2 4b3e 6b2b 8ebe
00000080: 9304 113e 1b84 1bbe 10dc 9c3e ccb5 48be
00000090: 1678 39be 205d 073e 7e44 123e ae60 6e3d
000000a0: e83f 953e eca6 89be e4fc 403e 99c5 6b3e
000000b0: 3cee ac3e b089 b4bd b0b3 883d ff1c af3d
000000c0: e33f 983e 8467 693e 4dfe 973d 1a13 bebe
000000d0: 6e15 42be 164f b5be 7ed1 2f3e 8384 c2bd
000000e0: fc5f 8d3e 297c 0c3c 8468 dfbe 7030 2f3e
000000f0: 2b51 803e c763 b73e 032f bdbe e4db c6be
00000100: c911 80be e649 c2bc b68f 9b3c 0d01 b73e
00000110: 7ca5 e73e d83c 68be 67bc b0be 2113 893e
00000120: 1501 8dbe b390 76be 662b d13e d364 b1bc
00000130: b335 0a3e a28b a4be 1155 cabd 7e77 143e
00000140: 1648 ba3e 1b22 01be 2703 6b3e 4867 c6ba
00000150: cac0 80bd 025b 1c3e 4dad d4bd 1657 0ebe
00000160: a992 86bd 836b 0dbe 9eb3 003e 9f66 84be
00000170: 0615 7cbe 9f4d adbe b89b 233e abac 8abe
00000180: 9f7d c7bd 92a0 8f3c 1b36 fdbe 5e81 bc3e
00000190: a0d5 e43b 5c82 63bb a216 b0bd 8942 2cbc
000001a0: e44f abbe 5682 e33e 8bbb 8e3b 9ef3 813d
000001b0: 84b0 1d3e 9065 86bd a2c4 58be e4ba 793e
000001c0: 1614 6c3e ad07 22bd 7818 32be 7209 563d
000001d0: c75f bd3e 749c fbbd c66a cabe 816e 03bd
000001e0: fff4 8b3d f2c9 94be 0f3d cebd 0722 813e
000001f0: 917a dabe d603 b8be f8d1 483e 686b d2be
00000200: a070 2bbe 4a04 07be ba43 973d 2877 6b3e
00000210: 7913 ccbe ddc2 773e 22b6 bc3e 8efc 86be
00000220: 903a fdbe fe23 78be d498 13be 51dc 81be
00000230: ec80 84bd 3231 323e 8e27 753c 305b ab3e
00000240: df9d 8bbe 654d 903e ceb3 4b3e 2843 b2bc
00000250: 152a 2c3e 7857 42be 9fb0 8dbe c61b db3e
00000260: 30e2 9f3e 8280 c1be d2c6 ee3d 4cef 073e
00000270: 5f59 18be 5b8a ab3c c741 113d a781 04bf
00000280: c6e2 8a3e fd38 f23d b67f 73bd b4ab c8be
00000290: 9e37 afbe 3738 8fbe d1ca 00bf 1bb6 35be
000002a0: da4f 223e a182 06bf c32c 84bd abd8 943e
000002b0: 4d9e 293e 4746 893e a7b3 6f3e 9353 bd3c
000002c0: fb9b b7be 50c0 cfbe 45db cdbe 818c 4a3e
000002d0: 1a2b 99be 6bf1 22bf b026 2d3e 659c bcbc
000002e0: a341 17bd a205 1dbe 0d63 f73d 90ba 803b
000002f0: fa94 703e 7485 883e 899c b13e 3f02 a9be
00000300: ca96 dfbd b3fb 47bd b1b8 273e 22a9 d1bd
00000310: 1979 363e a22b c43c e2ad e5bc 5f19 6a3e
00000320: 2206 ee3c 136d 5b3e 6269 043f b75a 823e
00000330: dc02 513e 2864 58bd 542a 7bbe 5703 0b3e
00000340: f837 3dbd 8ec0 89be 15b8 c6be 7dee 24be
00000350: 674a 823e 31aa 4dbe dd1b be3e 9052 c73d
00000360: 6aa2 97bc 58dc dd3d 6ab1 06bf 696e 453e
00000370: f896 62bd cbcc 9fbe c315 0d3e 8fae a73e
00000380: dde9 db3b ba9c 693d 0498 89bd 83f1 2abe
00000390: a293 473e d032 15bf 6498 d2bd a504 0ebc
000003a0: 8921 98be 5a32 703d b1de 083e e34b 6dbc
000003b0: 434a 9fbe 9c23 73be ab9b 5a3e 5390 3dbe
000003c0: 8f1b f8bd 7039 0cbe df50 443e 478a 29be
000003d0: f7a0 ab3e 7b8f 323c 80df a4bd 7ff1 e9bd
000003e0: 2465 04bf 895e b3bd 9c53 afbe c068 2abd
000003f0: 1911 dcbe bfcc 733d b6d9 913c 1abb c03e

encoder.layers.0.linear2.weight f4 [5, 2048]
-0.029671833 -0.26619512 -0.11567379 -0.1351549 0.08676723 -0.1587434 -0.122816004 -0.0028049706
0.05405293 -0.048760004 -0.045515817 -0.13814528 -0.026687056 -0.1777349 0.11763793 -0.106498376
-0.112618655 -0.00017763954 -0.2899867 -0.10606593 -0.10265586 0.06535171 0.013786606 -0.0863485
-0.15972848 0.036374196 -0.041279852 -0.20117572 -0.24621257 -0.037474778 0.0020492934 0.0022238086
-0.025010882 -0.18425366 -0.028623499 -0.1580721 0.16077086 0.057312723 -0.17886318 -0.16099279
-0.17929053 0.19803096 -0.03132859 0.028179405 -0.07203874 -0.07202983 0.014168103 0.0037506507
-0.16627921 -0.19667876 -0.13644262 0.013718442 0.20403323 -0.106062084 -0.10613477 -0.027717128
0.1701782 -0.12752815 0.026650293 -0.1256338 -0.242341 -0.09782775 -0.011175163 -0.12294831
0.2239129 -0.20269457 -0.030012613 -0.07251215 0.11492944 -0.07674436 -0.15907638 -0.07157309
-0.0045193303 0.013419693 0.0058906046 -0.07435204 -0.19127889 -0.030668603 -0.00060251105 -0.038274873
0.13890325 0.26186392 0.13665928 -0.06130972 -0.03856862 0.029963758 -0.052334473 0.04601644
-0.15603061 0.019799057 0.07112088 0.087727785 -0.07197456 -0.16022618 -0.024556804 0.12366907
0.012048602 -0.09779599 0.08416281 0.067153916 0.006099839 -0.08552597 -0.10393858 -0.015293835
0.0024682807 -0.2038474 0.057360508 0.075756334 -0.08963293 -0.08033388 0.007970471 -0.04844934
-0.07895094 0.042487215 -0.107643105 -0.286753 -0.1257989 -0.15556431 0.0059529524 -0.031161359
0.060911715 -0.011409743 -0.073080815 0.046598084 0.017630337 -0.16838177 -0.01380753 0.0063323146
0.003681909 0.038994152 0.086551145 -0.15923406 -0.098579906 -0.079270646 -0.07650782 -0.20198897
-0.020979617 -0.063196905 -0.09842939 -0.095083706 -0.06504773 -0.20115606 -0.18298273 -0.11722214
-0.11185042 0.09711791 -0.048082985 0.0020098703 0.015112325 0.09356784 -0.14174709 -0.1095137
-0.022454584 -0.149739 -0.15852559 0.014438554 -0.084615834 -0.20661183 -0.11689532 -0.16715218
0.07882108 -0.10469506 -0.007625885 0.028458254 0.17604442 -0.0485496 -0.0780667 -0.054547604
-0.1790495 0.038721167 0.11818304 -0.057029877 -0.052422963 -0.064464845 -0.041184146 0.09910296
-0.09674532 -0.0013089364 -0.01677938 0.13137123 -0.14026864 -0.0050931238 -0.04457524 0.11672723
-0.13478616 0.03288499 0.024056744 -0.11389782 -0.06742714 -0.28692898 -0.11530074 -0.0069452613
-0.16132039 -0.0966747 -0.067887604 -0.104656264 0.21737866 0.16636167 -0.065324284 -0.035982173
0.078024246 0.029756067 -0.25346097 -0.015450959 -0.020365948 -0.18804207 -0.011186538 0.12964913
0.14588694 -0.06858543 -0.055518404 -0.044491813 -0.19250399 -0.04462407 -0.2545128 0.13679665
-0.13629186 0.11579746 -0.0021545677 0.1575497 -0.1994457 -0.13787854 -0.07029704 -0.13135116
0.058765892 -0.045184854 -0.18793756 -0.05822465 -0.10982762 0.03053678 -0.08754947 0.04905323
-0.12875575 -0.061267067 0.05278265 -0.043598965 -0.14104243 -0.28686222 0.11919774 0.11264949
0.03050422 -0.09052614 -0.1821344 -0.1823164 -0.03632289 0.16154347 -0.06615412 -0.17917785
-0.10692278 0.11638473 -0.011429661 -0.25115383 0.04679252 -0.23379564 -0.16869555 -0.25703055
00000000: 5812 f3bc ba4a 88be 61e6 ecbd 0c66 0abe
00000010: 04b3 b13d a18d 22be f586 fbbd 99d3 37bb
00000020: 9b66 5d3d 92b8 47bd cb6e 3abd f575 0dbe
00000030: d09e dabc 2300 36be 28ec f03d d21b dabd
00000040: 9ca4 e6bd c044 3ab9 2379 94be 1839 d9bd
00000050: 3c3d d2bd 1ed7 853d 37e1 613c 7bd7 b0bd
00000060: dd8f 23be 1cfd 143d 1015 29bd 0201 4ebe
00000070: 261f 7cbe 277f 19bd 704d 063b 51bd 113b
00000080: 9fe3 ccbc feac 3cbe d47b eabc a7dd 21be
00000090: 1ea1 243e bfc0 6a3d e927 37be 4bdb 24be
000000a0: f097 37be a1c8 4a3e 6852 00bd 7fd8 e63c
000000b0: 0c89 93bd 6084 93bd 5521 683c 7acd 753b
000000c0: 1945 2abe 2866 49be 9db7 0bbe 51c3 603c
000000d0: 16ee 503e 1437 d9bd 305d d9bd 080f e3bc
000000e0: 3243 2e3e bd96 02be b751 da3c 26a6 00be
000000f0: 3d28 78be ea59 c8bd 0818 37bc 53cc fbbd
00000100: 6c49 653e 2a8f 4fbe 03dd f5bc 4081 94bd
00000110: 2060 eb3d 262c 9dbd ebe4 22be ea94 92bd
00000120: e416 94bb 46de 5b3c f905 c13b e245 98bd
00000130: 9dde 43be b93c fbbc d5f1 1dba 1dc6 1cbd
00000140: a73c 0e3e 0713 863e 69f0 0b3e e71f 7bbd
00000150: 21fa 1dbd 8e76 f53c ac5c 56bd bc7b 3c3d
00000160: 7dc6 1fbe a231 a23c d3a7 913d a0aa b33d
00000170: 6667 93bd 5512 24be 5a2b c9bc 3646 fd3d
00000180: 8067 453c 4449 c8bd 8d5d ac3d fe87 893d
00000190: 29e1 c73b 3d28 afbd c0dd d4bd fe92 7abc
000001a0: e1c2 213b 5fbd 50be daf2 6a3d 2326 9b3d
000001b0: 7891 b7bd 1786 a4bd 9496 023c d172 46bd
000001c0: 08b1 a1bd 1307 2e3d fd73 dcbd 4ad1 92be
000001d0: 6dd1 00be 404c 1fbe fc10 c33b 1b46 ffbc
000001e0: 907e 793d eeef 3abc 65ab 95bd a2dd 3e3d
000001f0: 7f6d 903c 456c 2cbe fa38 62bc 4e7f cf3b
00000200: 2f4c 713b 55b8 1f3d ba41 b13d 410e 23be
00000210: 43e4 c9bd a658 a2bd 22b0 9cbd 32d6 4ebe
00000220: 72dd abbc 616d 81bd 5995 c9bd 3fbb c2bd
00000230: bf37 85bd dbfb 4dbe d35f 3bbe 2912 f0bd
00000240: d511 e5bd c1e5 c63d aaf2 44bd 07b8 033b
00000250: af99 773c 7fa0 bf3d 2626 11be b848 e0bd
00000260: adf2 b7bc 2e55 19be 8854 22be af8f 6c3c
00000270: 114b adbd 0d92 53be d066 efbd f129 2bbe
00000280: f26c a13d 5d6a d6bd 8fe2 f9bb 4921 e93c
00000290: fd44 343e f2db 46bd 6fe1 9fbd 4f6d 5fbd
000002a0: c158 37be 169a 1e3d f309 f23d 2998 69bd
000002b0: 76b9 56bd 2506 84bd b5b0 28bd 7ef6 ca3d
000002c0: 6922 c6bd 9e90 abba e974 89bc 2e86 063e
000002d0: 95a2 0fbe 38e4 a6bb 8794 36bd b00e ef3d
000002e0: 6205 0abe 69b2 063d a612 c53c 4343 e9bd
000002f0: 3e17 8abd 5be8 92be cb22 ecbd 1395 e3bb
00000300: 2c31 25be 63fd c5bd a808 8bbd 0656 d6bd
00000310: 8398 5e3e b75a 2a3e bdc8 85bd 0b62 13bd
00000320: 2dcb 9f3d ffc2 f33c a3c5 81be 0526 7dbc
00000330: 7dd6 a6bc 1a8e 40be be47 37bc bec2 043e
00000340: 6363 153e 8576 8cbd 4467 63bd 0c3d 36bd
00000350: c41f 45be bbc7 36bd 804f 82be 6c14 0c3e
00000360: 1890 0bbe 3827 ed3d a633 0dbb b554 213e
00000370: 7e3b 4cbe 0830 0dbe e5f7 8fbd eb80 06be
00000380: 81b4 703d c113 39bd b472 40be f87c 6ebd
00000390: 4eed e0bd 4528 fa3c 234d b3bd 0aec 483d
000003a0: 8cd8 03be 2df3 7abd 9f32 583d d494 32bd
000003b0: 6d6d 10be 9bdf 92be f21d f43d c7b4 e63d
000003c0: fce3 f93c c565 b9bd 7181 3abe 26b1 3abe
000003d0: 50c7 14bd a76b 253e d07b 87bd 667a 37be
000003e0: 55fa dabd 1e5b ee3d 7943 3bbc 3c97 80be
000003f0: 83a9 3f3d 2068 6fbe 87be 2cbe 8299 83be

encoder.layers.0.linear2.bias f4 [5]
0.0018983089 -0.08928168 -0.07500305 0.047279183 0.03933866
00000000: add0 f83a 50d9 b6bd 339b 99bd d1a7 413d
00000010: 9321 213d

encoder.layers.0.norm1.weight f4 [5]
0.9218504 1.1156387 0.74991685 1.07436 1.2047956
00000000: 63fe 6b3f 40cd 8e3f 8dfa 3f3f a184 893f
00000010: be36 9a3f

encoder.layers.0.norm1.bias f4 [5]
0.008604494 0.035121735 0.026577787 0.06093814 -0.10752945
00000000: ddf9 0c3c cfdb 0f3d a9b9 d93c 459a 793d
00000010: 6638 dcbd

encoder.layers.0.norm2.weight f4 [5]
1.0784498 0.5895834 0.8265987 1.1846775 1.1963834
00000000: a50a 8a3f f0ee 163f f99b 533f 83a3 973f
00000010: 1723 993f

encoder.layers.0.norm2.bias f4 [5]
0.055306636 0.013207655 0.09997974 0.044635408 -0.12728941
00000000: 3689 623d ec64 583c 2ec2 cc3d 9ed3 363d
00000010: 2858 02be

encoder.layers.1.self_attn.in_proj_weight f4 [15, 5]
-0.105262145 -0.21627434 0.1618317 0.0330614 -0.630288 -0.43164933 -0.08756502 0.08095832
0.2990439 0.5187083 -0.2074368 0.16258967 0.04545406 0.26592237 -0.3867247 0.16706425
-0.29807445 -0.15583225 -0.05316861 0.3036637 -0.4568936 -0.2382251 0.23349273 0.5688249
-0.15764566 0.25573564 -0.11037377 -0.16037518 0.1459151 -0.51507396 -0.27821907 0.32864338
0.56777185 -0.37042084 -0.51235116 -0.1281472 -0.037531056 -0.2003194 0.23751085 -0.080068976
-0.037776463 -0.09701684 0.039269496 -0.13912818 -0.0601077 -0.09367942 0.2716878 -0.2814046
-0.0039507565 -0.42201754 0.23721547 0.40138653 -0.16950728 0.24398522 0.15425365 0.0021465318
0.32408342 -0.33220905 0.14466572 0.16033956 0.0515684 -0.53614426 0.0869179 0.28292912
-0.5584113 0.17457774 0.10680096 0.3359022 0.120477356 0.36056522 -0.61295307 0.16785838
0.46311265 0.06972903 -0.37803873
00000000: ae93 d7bd 0577 5dbe 36b7 253e 646b 073d
00000010: 8e5a 21bf 2401 ddbe 4a55 b3bd 7acd a53d
00000020: 481c 993e 11ca 043f 506a 54be e87d 263e
00000030: 092e 3a3d fa26 883e c800 c6be e412 2b3e
00000040: 379d 98be 7d92 1fbe 54c7 59bd cf79 9b3e
00000050: f5ed e9be 48f1 73be b818 6f3e 829e 113f
00000060: dd6d 21be c8ef 823e a50b e2bd 6439 24be
00000070: c56a 153e e3db 03bf bb72 8ebe f243 a83e
00000080: 7f59 113f cda7 bdbe 7229 03bf 0539 03be
00000090: 2aba 19bd 8720 4dbe 0b36 733e 34fb a3bd
000000a0: 7ebb 1abd c4b0 c6bd 0dd9 203d 9e77 0ebe
000000b0: 7e33 76bd ffda bfbd aa1a 8b3e 4414 90be
000000c0: 5975 81bb af12 d8be 9de8 723e 8982 cd3e
000000d0: 5193 2dbe 43d7 793e abf4 1d3e d4ac 0c3b
000000e0: 43ee a53e 4e17 aabe 4023 143e 0e30 243e
000000f0: 6339 533d c040 09bf 0302 b23d 16dc 903e
00000100: 0bf4 0ebf 82c4 323e 76ba da3d 60fb ab3e
00000110: d5bc f63d 019c b83e 7eea 1cbf 11e3 2b3e
00000120: 1a1d ed3e 18ce 8e3d 4b8e c1be

encoder.layers.1.self_attn.in_proj_bias f4 [15]
0.17557584 0.034909714 0.027793802 0.05201184 -0.06500569 -3.4760862e-05 5.5652043e-05 0.00029991547
2.40782e-05 -4.153119e-07 0.043330953 -0.13341045 0.00984692 0.05292958 0.013098074
00000000: 27ca 333e 7dfd 0e3d d4af e33c 5e0a 553d
00000010: b421 85bd 31cc 11b8 ed6b 6938 f93d 9d39
00000020: 8afb c937 08f8 deb4 cc7b 313d c09c 08be
00000030: fa54 213c b0cc 583d 4e99 563c

encoder.layers.1.self_attn.out_proj.weight f4 [5, 5]
-0.051203184 -0.29241344 -0.066371985 0.24786837 0.61596787 -0.00074324966 -0.18513156 0.3447773
0.2973251 0.525181 -0.25367922 -0.21811604 -0.36719912 0.06979101 -0.5833135 0.14651741
-0.07398443 -0.278189 0.25399345 -0.023635373 -0.19896935 0.30665615 0.38476977 0.09678072
0.27441463
00000000: 6eba 51bd 37b7 95be 09ee 87bd 35d1 7d3e
00000010: 12b0 1d3f a4d6 42ba 2193 3dbe a686 b03e
00000020: ff3a 983e 4372 063f 3ee2 81be d059 5fbe
00000030: 8601 bcbe 97ee 8e3d 0954 15bf a908 163e
00000040: 2685 97bd ca6e 8ebe 6e0b 823e f89e c1bc
00000050: 9fbe 4bbe 0902 9d3e 8b00 c53e f834 c63d
00000060: 1380 8c3e

encoder.layers.1.self_attn.out_proj.bias f4 [5]
0.032114927 0.05020888 0.060851328 0.039110463 -0.03189439
00000000: f18a 033d d4a7 4d3d 3e3f 793d 4b32 203d
00000010: b1a3 02bd

encoder.layers.1.linear1.weight f4 [2048, 5]
0.39844537 0.24818535 -0.09955625 0.28044793 0.4106261 -0.44416645 0.29224804 -0.009539706
0.46324444 -0.22988196 0.08377831 0.09837298 0.101399384 -0.005659861 0.033669923 0.047451198
0.068487376 -0.25462174 -0.14881356 -0.14091624 0.32850826 0.1815104 0.24371147 -0.48767745
-0.019489428 -0.54633564 0.07795195 0.4805858 0.42471895 -0.12848422 0.24457641 0.098831505
0.020856492 0.33895233 -0.25686213 0.123573326 -0.1636752 0.0019086612 -0.113655426 -0.061828688
0.0755124 -0.2140765 -0.12995808 -0.16831143 -0.028517744 0.34838438 0.097439155 0.45163152
-0.52206933 -0.014503521 -0.11598975 -0.5442826 -0.0933011 0.056507725 0.12628405 -0.19693916
0.31790298 -0.008202916 0.15540363 -0.039668284 0.22170787 0.23015615 0.12434586 -0.18166532
0.23810092 0.04367901 0.3411402 -0.18015015 -0.10903318 -0.17730585 0.1888629 -0.25310588
0.14864756 -0.0369592 0.31631255 -0.35034823 0.33956718 0.40388295 0.1045894 0.3124596
-0.005851143 -0.11136645 0.2630595 0.31942135 -0.2975886 -0.12486968 0.29652774 0.08621032
-0.50270057 0.32808083 -0.35902476 0.398504 -0.3654712 0.20362252 -0.3638061 0.26277354
0.31397486 -0.095393606 0.17207907 -0.54969853 -0.13473168 0.31478828 -0.28488594 -0.022114227
-0.48921323 -0.1630396 0.16996303 -0.3291679 -0.43365934 -0.064918496 0.4209582 0.06961398
-0.10334506 -0.48431975 -0.3258016 -0.2837716 0.05913432 0.07304307 0.14181574 -0.12721983
-0.029649312 0.11517131 0.027712073 -0.010005061 -0.008138679 0.2562428 -0.19871825 0.41364235
-0.540858 -0.14170432 0.049479082 0.23243555 -0.27395588 -0.13921346 -0.1544087 -0.10052436
0.4749731 -0.1743216 0.20295611 -0.14581661 -0.15559593 -0.022593336 -0.17338575 0.17272998
-0.54760313 0.08741741 -0.035222717 -0.22890607 0.15293212 -0.63660985 0.38070002 0.24949323
0.4626629 -0.57156634 -0.04379251 0.22552161 0.28204682 -0.013500552 -0.20036043 -0.018130032
0.38422284 -0.013462913 0.09113261 -0.67233104 -0.3316946 -0.020805547 0.18906447 0.26025772
0.09488172 0.009669365 0.076671146 0.14781822 0.49974105 -0.872488 -0.27743906 -0.41070518
-0.15740074 0.17740461 0.14001761 0.041648798 0.4276652 0.31703404 -0.13609804 -0.19324958
0.4343983 0.31229794 -0.14706615 0.20626885 -0.68285036 -0.24772127 0.084741406 -0.0073215263
0.025921742 0.41303638 -0.49193287 -0.37172928 0.075881094 -0.04960055 -0.031120487 -0.10092358
-0.32284987 0.23820812 -0.24878989 -0.15551536 -0.30058193 -0.24794538 0.033935554 0.23318858
-0.68365794 0.087764025 0.3990082 0.17115371 -0.23109911 -0.16369778 0.017970914 0.32443637
-0.05935719 -0.06402235 -0.12439579 0.20896126 0.2617676 0.38715714 0.12784162 0.22932135
-0.3846335 0.03986419 0.09054291 -0.043323763 0.020712232 -0.1629242 0.12233845 0.08037973
-0.13234437 -0.010285678 0.38834095 -0.08829552 0.23225397 0.11846845 -0.24078287 0.117479704
-0.073064126 0.3074926 0.26242 0.47866932 0.04600298 -0.34387586 0.5067593 -0.034382317
0.19869362 -0.33244467 -0.5733876 0.17978367 -0.009015662 0.017313013 -0.20533632 0.27271748
00000000: 0801 cc3e 4d24 7e3e 26e4 cbbd df96 8f3e
00000010: 963d d23e c969 e3be 89a1 953e 6d4c 1cbc
00000020: 602e ed3e 2d66 6bbe f693 ab3d c677 c93d
00000030: 7baa cf3d 5b76 b9bb 79e9 093d 305c 423d
00000040: 1c43 8c3d c85d 82be 9562 18be 594c 10be
00000050: 3c32 a83e dddd 393e 808f 793e dcb0 f9be
00000060: 4ba8 9fbc a7dc 0bbf 46a5 9f3d 580f f63e
00000070: c374 d93e 5e91 03be 3d72 7a3e 2c68 ca3d
00000080: 3cdb aa3c 298b ad3e 6f83 83be 0314 fd3d
00000090: 799a 27be 0b2c fa3a 2dc4 e8bd 1440 7dbd
000000a0: 3fa6 9a3d df36 5bbe bb13 05be d559 2cbe
000000b0: 0b9e e9bc 705f b23e 2e8e c73d 3f3c e73e
000000c0: 56a6 05bf 2da0 6dbc 098c edbd 1b56 0bbf
000000d0: a614 bfbd a574 673d 9b50 013e 6baa 49be
000000e0: 2ec4 a23e 8665 06bc 2122 1f3e 367b 22bd
000000f0: 6307 633e 0eae 6b3e 0ba9 fe3d 7906 3abe
00000100: bad0 733e c3e8 323d eea9 ae3e 4879 38be
00000110: ca4c dfbd aa8f 35be 4765 413e 1897 81be
00000120: 1137 183e 8862 17bd b8f3 a13e d860 b3be
00000130: c0db ad3e bfc9 ce3e f832 d63d b4fa 9f3e
00000140: f2ba bfbb 1814 e4bd bcaf 863e 328b a33e
00000150: 885d 98be adbb ffbd 7cd2 973e 098f b03d
00000160: fcb0 00bf 36fa a73e 18d2 b7be b708 cc3e
00000170: 0b1f bbbe 6c82 503e cb44 babe 418a 863e
00000180: 50c1 a03e b95d c3bd 7f35 303e 0bb9 0cbf
00000190: 1af7 09be ee2b a13e 92dc 91be e528 b5bc
000001a0: 287a fabe daf3 26be ca0a 2e3e b288 a8be
000001b0: 9908 debe fdf3 84bd d587 d73e c691 8e3d
000001c0: 93a6 d3bd c2f8 f7be 78cf a6be 834a 91be
000001d0: d436 723d 9b97 953d 2538 113e ea45 02be
000001e0: 1de3 f2bc f0de eb3d 6e04 e33c 44ec 23bc
000001f0: 1858 05bc 4232 833e cc7c 4bbe eec8 d33e
00000200: ab75 0abf f01a 11be 94aa 4a3d 9603 6e3e
00000210: f243 8cbe f98d 0ebe 501d 1ebe b7df cdbd
00000220: ad2f f33e 5d81 32be bad3 4f3e f350 15be
00000230: 8a54 1fbe a915 b9bc 098c 31be 21e0 303e
00000240: b82f 0cbf e607 b33d b245 10bd 5a66 6abe
00000250: 3d9a 1c3e ddf8 22bf 1deb c23e 277b 7f3e
00000260: 27e2 ec3e 2c52 12bf c65f 33bd 23ef 663e
00000270: 7168 903e 6b31 5dbc 492b 4dbe 6f85 94bc
00000280: dbb8 c43e 8d93 5cbc bca3 ba3d e31d 2cbf
00000290: e0d3 a9be 6570 aabc 1e9a 413e 8040 853e
000002a0: 5951 c23d 426c 1e3c c305 9d3d a95d 173e
000002b0: 0fde ff3e 605b 5fbf 7e0c 8ebe f347 d2be
000002c0: a92d 21be 8ea9 353e c760 0f3e ee97 2a3d
000002d0: eff6 da3e 4952 a23e 495d 0bbe 38e3 45be
000002e0: 7469 de3e 84e5 9f3e 8298 16be 2438 533e
000002f0: 48cf 2ebf a5aa 7dbe e78c ad3d 6ae9 efbb
00000300: d559 d43c 8179 d33e a0de fbbe 4d53 bebe
00000310: 8c67 9b3d f229 4bbd 64f0 febc 06b1 cebd
00000320: 944c a5be d4ec 733e c7c2 7ebe 6b3f 1fbe
00000330: e0e5 99be 65e5 7dbe 0200 0b3d fdc8 6e3e
00000340: 3504 2fbf a0bd b33d ce4a cc3e eb42 2f3e
00000350: 3fa5 6cbe 64a0 27be bd37 933c 861c a63e
00000360: 8620 73bd 261e 83bd 38c3 febd f1f9 553e
00000370: 6706 863e 7639 c63e eae8 023e 37d3 6a3e
00000380: afee c4be a248 233d 906e b93d 4274 31bd
00000390: b3ac a93c 9ad5 26be 958c fa3d 219e a43d
000003a0: 4885 07be 4385 28bc a0d4 c63e 48d4 b4bd
000003b0: fcd3 6d3e 969f f23d c98f 76be 3399 f03d
000003c0: a5a2 95bd ac6f 9d3e ea5b 863e 2514 f53e
000003d0: 9f6d 3c3d 7f10 b0be faba 013f 79d4 0cbd
000003e0: 5776 4b3e 3036 aabe 88c9 12bf 3619 383e
000003f0: 6db6 13bc 05d4 8d3c af43 52be a0a1 8b3e

encoder.layers.1.linear1.bias f4 [2048]
-0.17077751 0.22971825 -0.26766115 0.1521299 -0.111956626 0.2794614 -0.277673 -0.48549053
0.21620789 -0.23302595 -0.34438154 0.11411952 0.22420277 0.16429429 0.23554061 0.041977867
0.26023272 -0.21544136 -0.30524573 0.17188063 0.18333857 -0.1226181 -0.41370392 -0.35526228
-0.093207665 -0.16562586 -0.1055217 -0.26910993 0.051474277 0.08715839 0.29821977 -0.3840709
0.27689853 -0.34975657 0.44686565 -0.11919899 0.0680853 0.107305534 -0.12253973 0.052457232
0.18227723 -0.22109084 0.20255286 0.2533752 0.22048338 0.030668404 -0.06566093 0.018025326
0.28149566 0.13517094 -0.07025558 -0.32255965 -0.27718365 -0.25694576 -0.124364085 0.11909264
0.22466996 -0.17724815 -0.49624527 -0.12410957 0.05814035 0.3309102 -0.5449246 -0.32969192
-0.25391313 -0.32654014 -0.07621617 0.20695606 0.2714899 -0.18421645 -0.5684807 0.2857968
-0.28915888 -0.26764596 0.055148914 -0.12871541 -0.17794633 -0.16436929 -0.44640413 0.10613175
0.41889364 -0.30040708 0.23311922 -0.25886998 -0.0024395424 -0.04388068 -0.19227941 -0.111797765
-0.1669389 -0.004594397 0.025015542 -0.23288323 -0.3735219 -0.42586172 0.21398719 -0.28347132
-0.061059847 0.21429375 -0.45747653 0.2252752 -0.0444328 -0.10771577 -0.3365403 0.11936624
-0.34378448 0.22459653 -0.22140442 0.2417748 0.14516342 -0.1719069 -0.29659304 0.22840074
0.040063374 -0.12907746 -0.32284108 -0.13907544 0.2889069 -0.22199515 0.16587134 -0.27346918
0.03710639 -0.2935659 -0.088751696 0.37874362 -0.45030224 -0.60299 0.09209525 -0.38558748
-0.17282735 0.23761454 -0.03701782 0.09304061 -0.30331063 0.1008566 0.16441236 -0.19717185
-0.38813025 -0.41489312 -0.45658568 0.07957978 -0.1107229 0.29974067 -0.3035136 0.021337545
-0.2669252 0.294607 0.19764456 -0.20194837 -0.00824873 -0.4075889 -0.36601484 0.39893287
0.035382167 -0.5682521 -0.11067079 0.02447869 0.0175559 -0.031503264 0.17742872 -0.5782132
0.31743467 -0.13575071 -0.17712145 -0.40743524 -0.58137935 -0.16571267 -0.4689124 -0.1641928
-0.056814183 -0.35808274 0.048351657 0.24634978 -0.12954293 0.28397566 0.2170277 0.16628405
-0.3305701 -0.47917145 -0.37832934 0.082996055 -0.30557078 -0.49596578 0.2893664 0.031012243
-0.20799907 -0.15092194 -0.16856444 -0.35513112 0.20833588 0.029970279 0.1492106 -0.13524862
-0.3410222 0.09489623 0.028657613 -0.036743358 0.29746452 0.23782572 -0.11066115 0.15109214
0.34249938 0.12631465 0.3082204 0.13952343 0.19854127 -0.18321379 -0.032639526 -0.086453296
-0.029569292 -0.2841084 -0.40018347 -0.07676522 -0.11601013 -0.09000868 0.32737842 -0.0077030445
0.05307506 0.022262925 -0.4146793 0.12412487 -0.3267167 -0.31069466 0.15582329 0.23609762
-0.019584648 0.018037552 -0.10540206 -0.2591058 0.20255937 -0.4644245 -0.07001695 -0.21719415
-0.43505988 -0.01404777 0.19179714 -0.14771801 -0.3181546 -0.34130892 0.21629597 -0.25372195
-0.40275562 -0.18138045 0.11557518 -0.18207507 0.21530524 0.006441611 -0.29519033 -0.24716297
-0.4545589 0.0071858284 -0.32524276 -0.40590265 -0.43430883 -0.17687029 0.110401265 0.20976478
00000000: 4de0 2ebe 433b 6b3e e20a 89be f1c7 1b3e
00000010: 8449 e5bd 9115 8f3e 282b 8ebe 3792 f8be
00000020: 9a65 5d3e 5b9e 6ebe c752 b0be 7fb7 e93d
00000030: 6995 653e c33c 283e 8f31 713e fcf0 2b3d
00000040: 393d 853e a99c 5cbe 2b49 9cbe 7a01 303e
00000050: 1bbd 3b3e 331f fbbd 00d1 d3be f0e4 b5be
00000060: a9e3 bebd d399 29be c31b d8bd c7c8 89be
00000070: b1d6 523d 1980 b23d 43b0 983e f1a4 c4be
00000080: a5c5 8d3e 4b13 b3be 93cb e43e 9a1e f4bd
00000090: 4e70 8b3d 01c3 db3d 1cf6 fabd 65dd 563d
000000a0: e2a6 3a3e a365 62be 046a 4f3e 65ba 813e
000000b0: 65c6 613e 4e3c fb3c 3d79 86bd d9a9 933c
000000c0: 3320 903e 406a 0a3e 28e2 8fbd 8a26 a5be
000000d0: 04eb 8dbe 658e 83be 99b2 febd d8e6 f33d
000000e0: e20f 663e 8a80 35be dc13 febe 292d febd
000000f0: 9324 6e3d 106d a93e 2e80 0bbf 61cd a8be
00000100: e700 82be 4530 a7be 3917 9cbd 4aec 533e
00000110: b900 8b3e 3da3 3cbe f387 11bf f553 923e
00000120: a20c 94be e408 89be d4e3 613d f9cd 03be
00000130: 9037 36be 6c50 28be 158f e4be 9a5b d93d
00000140: 3a79 d63e f5ce 99be ceb6 6e3e 9b8a 84be
00000150: bbe0 1fbb 3abc 33bd e5e4 44be 3af6 e4bd
00000160: 08f2 2abe 988c 96bb 65ed cc3c f178 6ebe
00000170: 433e bfbe 8c0a dabe 751f 5b3e 2723 91be
00000180: e419 7abd d26f 5b3e 5d3a eabe 8bae 663e
00000190: 2bff 35bd 169a dcbd 034f acbe 4a76 f43d
000001a0: 8504 b0be a2fc 653e d7b7 62be d093 773e
000001b0: b8a5 143e 5d08 30be 0bdb 97be e2e1 693e
000001c0: 7e19 243d e22c 04be 6d4b a5be cb69 0ebe
000001d0: 9beb 933e b252 63be 2dda 293e 2704 8cbe
000001e0: dffc 173d 454e 96be 73c3 b5bd afea c13e
000001f0: 048e e6be 8d5d 1abf 6f9c bc3d b96b c5be
00000200: a7f9 30be 3a51 733e ff9f 17bd 138c be3d
00000210: 884b 9bbe e88d ce3d b75b 283e 6be7 49be
00000220: 02b9 c6be df6c d4be 99c5 e9be b9fa a23d
00000230: b0c2 e2bd 9c77 993e 2266 9bbe 13cc ae3c
00000240: 6baa 88be bbd6 963e 5663 4a3e 8ecb 4ebe
00000250: ae25 07bc 7eaf d0be 4c66 bbbe ee40 cc3e
00000260: e4ec 103d f878 11bf 5ea7 e2bd 8987 c83c
00000270: 64d1 8f3c 9109 01bd e0af 353e c805 14bf
00000280: cc86 a23e 3c02 0bbe 535f 35be 5a9b d0be
00000290: 47d5 14bf 95b0 29be 4915 f0be 2822 28be
000002a0: fdb5 68bd 9f56 b7be 630c 463d 1e43 7c3e
000002b0: e7a6 04be 4265 913e 823c 5e3e 5e46 2a3e
000002c0: 7c40 a9be f655 f5be 62b4 c1be d6f9 a93d
000002d0: c673 9cbe 3aef fdbe d527 943e 630d fe3c
000002e0: b5fd 54be 488b 1abe 289c 2cbe bfd3 b5be
000002f0: 0056 553e 3b84 f53c aaca 183e 9d7e 0abe
00000300: 769a aebe f458 c23d 5fc3 ea3c 3480 16bd
00000310: 454d 983e 9688 733e 50a2 e2bd e6b7 1a3e
00000320: 145c af3e a158 013e 10cf 9d3e 3bdf 0e3e
00000330: 674e 4b3e 659c 3bbe 06b1 05bd 6d0e b1bd
00000340: 4d3b f2bc a876 91be d9e4 ccbe 1537 9dbd
00000350: b896 edbd 7956 b8bd 259e a73e d269 fcbb
00000360: 3c65 593d bd60 b63c d850 d4be 2e35 fe3d
00000370: 6947 a7be 5f13 9fbe 2490 1f3e 93c3 713e
00000380: fc6f a0bc 7dc3 933c 09dd d7bd 84a9 84be
00000390: b96b 4f3e 0cc9 edbe 0c65 8fbd 2568 5ebe
000003a0: 2bc0 debe 9e28 66bc 7866 443e 6443 17be
000003b0: 29e5 a2be 0bc0 aebe b17c 5d3e d8e7 81be
000003c0: fc35 cebe ccbb 39be aeb2 ec3d e371 3abe
000003d0: fa78 5c3e 2614 d33b 3023 97be 4a18 7dbe
000003e0: f2bb e8be 1977 eb3b 3886 a6be 79d2 cfbe
000003f0: ba5d debe 7c1d 35be 0f1a e23d 94cc 563e

encoder.layers.1.linear2.weight f4 [5, 2048]
-0.034730118 0.05311805 -0.010946076 -0.147461 -0.24782164 0.1279634 -0.044989876 0.019679049
0.085178 -0.2851016 0.13250464 -0.010828547 0.06405878 -0.09073492 0.16130207 0.09186677
0.085408114 -0.16370203 -0.044530485 -0.049748506 -0.017938588 0.017839607 -0.14340763 -1.0551914e-05
0.0006502981 -0.078269415 0.054049797 -0.105119646 -0.029774228 -0.0032533456 -0.1867993 -0.047349233
-0.18606728 -0.0091764415 -0.2457309 0.09677745 -0.07430591 -0.14005657 0.062315978 -0.017558342
-0.08179813 -0.38846943 -0.0484938 0.12176844 0.014296936 -0.03574696 0.07712359 -0.04003766
0.073880285 0.040049966 0.07226383 0.43326464 -0.16995463 -0.18454218 -0.0021086675 0.21406443
-0.012569469 0.06273496 -0.009227892 -0.0011181207 -0.036875896 -0.28899089 0.014908841 0.14599477
-0.21587491 0.0020452342 0.30606568 -0.053081147 0.18965079 0.1374469 0.02011164 -0.015192859
-0.16024159 0.45104924 0.12536809 0.1442848 -0.102164686 0.427425 -0.0037465286 -0.14370582
0.05589131 -0.08457826 -0.21118277 -0.16541788 -0.23125927 0.21865782 -0.10232942 -0.00069876463
0.0005407126 0.09496243 -0.1508213 -0.28417525 0.15581152 0.055794924 -0.20037133 -0.23583542
-0.14769661 -0.26296455 -0.05096557 0.1940842 0.28456676 0.016225493 -0.029884703 0.2382919
0.53015935 -0.12029104 0.03206369 0.14780867 -0.20082234 -0.12583755 0.0112473015 -0.13188551
0.00032093894 0.015358497 -0.042043 0.010496589 0.094555445 0.20940356 -0.2184096 0.08029625
-0.21093628 0.39729288 0.06036664 0.11357766 0.11949109 -0.04511674 0.14285143 0.01345587
0.08077564 -0.22177508 0.10480152 0.0543008 -0.19499412 -0.10248639 -0.004340225 0.095212944
-0.16824628 -0.020157741 0.13971204 0.3309722 0.20454668 -0.009190037 0.008499262 -0.032903414
0.19363768 -0.1489497 0.12878442 0.39518693 0.1995725 0.08230677 -0.050421637 0.007102928
-0.035622522 0.0449925 0.15284348 0.29130605 -0.245385 0.045832533 -0.0021933753 0.082124755
-0.2322268 -0.04276455 0.20812169 -0.14069806 -0.055938344 0.23513716 0.21042173 0.082750045
-0.094064645 -0.16442959 -0.3025491 0.07651808 0.026357235 0.081715494 0.051962398 -0.2061882
-0.12681657 -0.04247268 -0.08285134 0.04942531 0.07280925 -0.077282235 0.073496416 -0.008084809
-0.049696196 -0.12114216 -0.03305296 0.044376176 0.29616338 -0.12567498 -0.0362899 -0.06446972
0.03754625 0.15651132 0.043171015 -0.077968374 -0.061047185 -0.03946116 0.022370894 0.06965789
-0.07725747 0.15354185 -0.0034759769 -0.031495076 -0.12002131 0.1226996 0.21384983 -0.13011082
-0.017589143 -0.069239706 0.07226255 -0.17645398 -0.0735183 -0.22909075 0.009079316 0.06693297
0.21456945 0.004496266 0.06818578 -0.2240815 0.08286278 0.08432494 0.0784358 -0.025979532
-0.05597725 -0.17823155 0.09959233 0.05070154 0.062363584 0.083664104 -0.11524042 0.26664242
-0.15919231 -0.015638016 -0.07771932 0.25369653 0.14561819 0.018973628 -0.065782055 -0.057243634
0.0074142385 0.045739714 -0.0016682886 0.09984279 -0.121046044 0.045538858 -0.039564278 0.23282906
0.33511826 -0.103911586 0.079403475 -0.0057054986 0.0023725221 0.06281629 0.15263769 -0.15552501
00000000: 2b41 0ebd 5092 593d 2c57 33bc 0400 17be
00000010: f5c4 7dbe d608 033e 4e47 38bd f535 a13c
00000020: ce71 ae3d d6f8 91be 4caf 073e 386a 31bc
00000030: 4031 833d 3bd3 b9bd 5f2c 253e a524 bc3d
00000040: 73ea ae3d 81a1 27be 9965 36bd 17c5 4bbd
00000050: f2f3 92bc 5e24 923c 73d9 12be 2008 31b7
00000060: c478 2a3a b74b a0bd 5263 5d3d f848 d7bd
00000070: 15e9 f3bc 1536 55bb 5148 3fbe 45f1 41bd
00000080: 6c88 3ebe c958 16bc e2a0 7bbe 4133 c63d
00000090: b22d 98bd fd6a 0fbe 0a3f 7f3d 83d6 8fbc
000000a0: c785 a7bd 77e5 c6be 6fa1 46bd bb61 f93d
000000b0: b23d 6a3c 686b 12bd f9f2 9d3d 88fe 23bd
000000c0: 8c4e 973d 6f0b 243d 0fff 933d ddd4 dd3e
000000d0: 9608 2ebe a0f8 3cbe 9231 0abb b533 5b3e
000000e0: 2df0 4dbc 307b 803d 9630 17bc e88d 92ba
000000f0: 2e0b 17bd 9df6 93be 3644 743c a77f 153e
00000100: 500e 5dbe 5609 063b a4b4 9c3e 9e6b 59bd
00000110: d133 423e e1be 0c3e 2bc1 a43c 78eb 78bc
00000120: 5f16 24be edef e63e 7e60 003e 65bf 133e
00000130: b83b d1bd 73d7 da3e 5288 75bb 9e27 13be
00000140: 49ee 643d 5e37 adbd 4c40 58be 4e63 29be
00000150: 3bcf 6cbe d6e7 5f3e 1692 d1bd 4d2d 37ba
00000160: 9cbe 0d3a aa7b c23d e670 1abe 6b7f 91be
00000170: 0e8d 1f3e 3889 643d 242e 4dbe d77e 71be
00000180: c83d 17be 4aa3 86be 46c1 50bd 02be 463e
00000190: bcb2 913e 53eb 843c c4d0 f4bc cb02 743e
000001a0: 86b8 073f 265b f6bd 3755 033d 285b 173e
000001b0: 5fa4 4dbe 8fdb 00be 9a46 383c ff0c 07be
000001c0: b243 a839 35a2 7b3c 4835 2cbd e3f9 2b3c
000001d0: 49a6 c13d e36d 563e c4a6 5fbe 5c72 a43d
000001e0: aeff 57be f969 cb3e 0343 773d 679b e83d
000001f0: bfb7 f43d 55cc 38bd a547 123e 0276 5c3c
00000200: b36d a53d 0219 63be 2ea2 d63d 846a 5e3d
00000210: 8aac 47be 62e4 d1bd 7238 8ebb 01ff c23d
00000220: c148 2cbe d921 a5bc ac10 0f3e 3075 a93e
00000230: af74 513e cf91 16bc 7d40 0b3c bbc5 06bd
00000240: f548 463e 4586 18be 10e0 033e f155 ca3e
00000250: bc5c 4c3e 7490 a83d eb86 4ebd aebf e83b
00000260: ece8 11bd 0e4a 383d 0083 1c3e 1126 953e
00000270: 3546 7bbe e5ba 3b3d bbbe 0fbb 0631 a83d
00000280: ddcc 6dbe e129 2fbd da1d 553e 2713 10be
00000290: 9b1f 65bd ccc7 703e cb78 573e db78 a93d
000002a0: f7a4 c0bd 3b60 28be b7e7 9abe 83b5 9c3d
000002b0: 21eb d73c 745a a73d 86d6 543d 0023 53be
000002c0: 34dc 01be d5f7 2dbd f7ad a9bd 3272 4a3d
000002d0: 041d 953d 2646 9ebd 4a85 963d 2676 04bc
000002e0: 3d8e 4bbd 6119 f8bd 8a62 07bd cbc3 353d
000002f0: baa2 973e f1b0 00be b8a4 14bd b308 84bd
00000300: 19ca 193d 8144 203e 17d4 303d e2ad 9fbd
00000310: 9d0c 7abd 06a2 21bd 2a43 b73c cca8 8e3d
00000320: 2a39 9ebd 133a 1d3e 37cd 63bb fb00 01bd
00000330: bccd f5bd ee49 fb3d 73fb 5a3e c53b 05be
00000340: 1b17 90bc 8ccd 8dbd 63fe 933d 5ab0 34be
00000350: c390 96bd c496 6abe 69c1 143c 2714 893d
00000360: 18b8 5b3e 6a55 933b fca4 8b3d 9f75 65be
00000370: f6b3 a93d 8eb2 ac3d f3a2 a03d 07d3 d4bc
00000380: 6748 65bd 5582 36be 10f7 cb3d 6bac 4f3d
00000390: f570 7f3d 1658 ab3d 2b03 ecbd 5b85 883e
000003a0: 4f03 23be 4c1b 80bc 4f2b 9fbd 83e4 813e
000003b0: ef1c 153e 956e 9b3c beb8 86bd 4d78 6abd
000003c0: 24f3 f23b 9159 3b3d 7aaa daba 607a cc3d
000003d0: fde6 f7bd f486 3a3d 270e 22bd be6a 6e3e
000003e0: 9f94 ab3e 99cf d4bd 4a9e a23d 31f5 babb
000003f0: 517c 1b3b d4a5 803d 0e4d 1c3e f341 1fbe

encoder.layers.1.linear2.bias f4 [5]
0.054900177 -0.0042209444 0.007854413 -0.039107542 0.012618911
00000000: 02df 603d d94f 8abb ccaf 003c 3b2f 20bd
00000010: 8dbf 4e3c

encoder.layers.1.norm1.weight f4 [5]
1.0114539 0.72281754 0.9188482 1.2417578 1.1369543
00000000: 5277 813f 920a 393f a339 6b3f ebf1 9e3f
00000010: b887 913f

encoder.layers.1.norm1.bias f4 [5]
0.052661493 0.053028706 -0.012777804 -0.016971547 -0.006841123
00000000: 94b3 573d a134 593d ff59 51bc ea07 8bbc
00000010: 802b e0bb

encoder.layers.1.norm2.weight f4 [5]
0.94458735 0.998606 0.6405566 1.2715474 1.029162
00000000: 7ad0 713f a5a4 7f3f 84fb 233f 11c2 a23f
00000010: 95bb 833f

encoder.layers.1.norm2.bias f4 [5]
-0.13506736 0.07187836 -0.04249187 -0.09735536 0.052654415
00000000: 194f 0abe f634 933d f40b 2ebd 3f62 c7bd
00000010: 28ac 573d

encoder.layers.2.self_attn.in_proj_weight f4 [15, 5]
-0.2545258 -0.20751628 -0.055737574 -0.5906905 0.048387695 -0.51272297 -0.077454336 0.23613253
0.59823716 0.099255994 -0.22186908 0.18364172 -0.1696911 -0.011467705 -0.18527108 0.11758256
-0.36651957 -0.15589091 0.026570022 0.6609312 -0.3338439 -0.30576897 0.26731798 0.31921047
-0.07066541 0.7303325 -0.39569557 -0.29495484 0.099976525 -0.44875038 -0.6534624 0.56654775
0.43455985 -0.7003446 0.0035195749 0.037426535 -0.1643338 -0.48036516 0.09350845 -0.12203919
-0.26709837 -0.1552484 -0.2378274 -0.1264514 0.14520326 0.15357852 0.08226825 -0.36864126
-0.18135002 -0.33102807 0.23057343 0.36975312 -0.14863412 0.6497677 -0.16149057 0.013166225
0.4707712 -0.338756 -0.15496528 0.37744814 0.23325166 -0.5863227 -0.07727253 0.24421461
-0.47398502 0.3425931 -0.014990038 0.25418958 0.255338 0.3315021 -0.62029874 0.44128653
0.38517657 -0.30652484 -0.15100795
00000000: 3551 82be 267f 54be 154d 64bd 7e37 17bf
00000010: 2d32 463d d041 03bf 61a0 9ebd bacc 713e
00000020: 1226 193f ba46 cb3d a631 63be 930c 3c3e
00000030: 81c3 2dbe 0ae3 3bbc b4b7 3dbe 20cf f03d
00000040: 74a8 bbbe dea1 1fbe 60a9 d93c ca32 293f
00000050: 96ed aabe c08d 9cbe e7dd 883e 8e6f a33e
00000060: 07b9 90bd 12f7 3a3f 9c98 cabe 5204 97be
00000070: 7ec0 cc3d 9cc2 e5be 5049 27bf 4609 113f
00000080: a17e de3e c949 33bf aba8 663b 914c 193d
00000090: 1f47 28be 6cf2 f5be 5c81 bf3d afef f9bd
000000a0: 1ec1 88be 70f9 1ebe 0789 73be 7a7c 01be
000000b0: 2ab0 143e b043 1d3e 427c a83d 8cbe bcbe
000000c0: d2b3 39be 837c a9be 711b 6c3e 4850 bd3e
000000d0: 8b33 18be 2d57 263f c95d 25be 26b7 573c
000000e0: ec08 f13e 6d71 adbe 38af 1ebe e240 c13e
000000f0: 86d9 6e3e 3f19 16bf 0f41 9ebd 6513 7a3e
00000100: 2aae f2be 5d68 af3e c798 75bc 2325 823e
00000110: aabb 823e a5ba a93e e6cb 1ebf 4ff0 e13e
00000120: dd35 c53e d3f0 9cbe d4a1 1abe

encoder.layers.2.self_attn.in_proj_bias f4 [15]
0.35580823 -0.14835161 0.08818472 -0.18246415 0.03446511 3.6439138e-05 -8.518682e-05 4.4531145e-05
3.32349e-06 -3.84158e-05 0.019148413 0.076687746 0.15359084 0.0065679876 -0.039273974
00000000: 7f2c b63e 7ce9 17be 319a b43d e2d7 3abe
00000010: 4a2b 0d3d 3ad6 1838 53a6 b2b8 f4c6 3a38
00000020: 2009 5f36 a720 21b8 22dd 9c3c 770e 9d3d
00000030: eb46 1d3e 4638 d73b bfdd 20bd

encoder.layers.2.self_attn.out_proj.weight f4 [5, 5]
-0.3541317 -0.3343568 -0.39382872 0.3698944 0.7187358 0.2836194 0.04858553 0.40697768
0.33249032 0.061416823 0.03388284 -0.3373713 0.027851224 0.14219521 -0.560679 0.38360453
-0.24217871 -0.1620818 0.13219236 0.17174765 -0.51667476 0.47373024 0.15387164 0.30617765
0.12369846
00000000: c050 b5be d130 abbe eba3 c9be cc62 bd3e
00000010: 12ff 373f 9036 913e 9f01 473d 615f d03e
00000020: 2c3c aa3e 3590 7b3d bcc8 0a3d eebb acbe
00000030: 4028 e43c 9f9b 113e a988 0fbf d067 c43e
00000040: b2fd 77be c5f8 25be 6f5d 073e 9ede 2f3e
00000050: cc44 04bf c58c f23e 8790 1d3e 51c3 9c3e
00000060: 9e55 fd3d

encoder.layers.2.self_attn.out_proj.bias f4 [5]
-0.10095508 0.15410364 -0.006010199 -0.06374368 0.06100974
00000000: 89c1 cebd 58cd 1d3e 34f1 c4bb 0c8c 82bd
00000010: 59e5 793d
