results/nifty/ohlcv/model_best.pt (torch, 574891 bytes, 90 tensors)

encoder.layers.0.self_attn.in_proj_weight f4 [15, 5]
00000000: ed12 853e 24e5 0cbe 667b 563e e7ca 9a3e
00000010: 56d0 cc3e f601 f13d 29ff a53e f6f4 393e
00000020: 4c86 323f fd3e c03e e3e5 cc3e eafe d23e
00000030: 9cee f33d 873c b93e 4d7d c3be 607a f7bd
00000040: ed97 11bf 1d53 43bf b8fe 81be d9cb a0bb
00000050: 80bd 8cbe 0c0c 7d3e 35d4 de3d 9528 3a3e
00000060: 1017 d33e 9775 c93e ae2f 5a3f 5dfc 70be
00000070: 95f2 a23e 33a9 9b3e 8863 d0be 7c42 98be
00000080: 08e2 f53d df34 1cbf 0eae bebe f4ba 91be
00000090: f1f2 95bd ab29 82be 798c 713d 600a 933e
000000a0: 8173 0dbf e1e2 b0be 0f47 6cbf e459 07bf
000000b0: 2e8e 66be bb54 853e 7ab2 5f3e 01d5 2b3f
000000c0: e79c 96bd 74d2 ce3e 1fed 26bf e849 983e
000000d0: a3b7 fb3c b772 9fbe d1b4 483f 7fe0 ecbe
000000e0: f0d2 8f3d ce8f d73d 65d0 81be c720 873e
000000f0: 7a5a 9fbe f6e1 d63d e25a f13e 28e5 65be
00000100: d1b7 4cbf 3996 8ebe 1b97 ca3e f98b 5cbd
00000110: 4c99 5c3e e317 0d3f 3262 a23e a743 e8be
00000120: 9bdd 133e d7aa 4e3d 30ed 773f
0.25991002 -0.13759285 0.2094551 0.30232927 0.40002698 0.11767952 0.32421234 0.18159851
0.6973617 0.37548056 0.4001914 0.4121011 0.119107455 0.3617899 -0.38181534 -0.12083888
-0.56872445 -0.76298696 -0.25389647 -0.004907113 -0.27488327 0.24711627 0.10880319 0.18179543
0.41228533 0.39347526 0.85229003 -0.23533769 0.318257 0.30402526 -0.40700936 -0.29738224
0.12006003 -0.61018175 -0.37242168 -0.28462946 -0.07321728 -0.25422415 0.058971856 0.28718853
-0.5525437 -0.34548095 -0.92295927 -0.5287154 -0.22515175 0.26041207 0.21845427 0.67121893
-0.073541455 0.40394938 -0.6520557 0.29743886 0.030727213 -0.31142208 0.78400904 -0.46265027
0.07022655 0.105254754 -0.25354305 0.26392195 -0.31123716 0.104923174 0.4713965 -0.22450697
-0.7996798 -0.27848986 0.3956841 -0.053844426 0.21542853 0.55114573 0.31715542 -0.45364115
0.14440005 0.050455894 0.96846294

encoder.layers.0.self_attn.in_proj_bias f4 [15]
00000000: 76e9 fdbc 0472 d63e 9989 c8bd 5f77 ab3e
00000010: bcfa b2be 24c8 ba3b db9e aabb 3ebe 233c
00000020: 269b 0cbc f0c8 2abc 41db 093e f9e6 6a3e
00000030: 0096 333e 432e 70be 83ab 1abe
-0.030995112 0.41883862 -0.0979187 0.3348951 -0.3495692 0.005700128 -0.0052069253 0.009994088
-0.008581912 -0.010423884 0.13462545 0.22939672 0.17537689 -0.23455147 -0.15104489

encoder.layers.0.self_attn.out_proj.weight f4 [5, 5]
00000000: 35bd cabe 2fc3 d8bd b701 303d f646 313d
00000010: 9988 153f 3851 f03e 6227 50bd 00e3 4bbe
00000020: 3f9f 393e dff6 143f 3d74 003f 651b a0bd
00000030: 6990 4ebd 56a3 c03e 7753 253e 3bfd 0e3f
00000040: 076e 943e e061 49be 7f1e a8bd 0895 543f
00000050: 4e10 da3d a334 b53d 6b09 ff3e 4aa5 9fbe
00000060: 376b 8abe
-0.39597479 -0.10584103 0.042970385 0.043280564 0.58411556 0.46936965 -0.05081881 -0.19910812
0.18127154 0.58189195 0.50177366 -0.07817725 -0.05043069 0.37624615 0.1614512 0.5585515
0.28990194 -0.19666243 -0.08208942 0.83039904 0.10647641 0.0884793 0.49811873 -0.31180793
-0.27034923

encoder.layers.0.self_attn.out_proj.bias f4 [5]
00000000: 439b cdbd b335 36be bd2d 1fbe 6fac cebd
00000010: 83ca 403e
-0.100393794 -0.17793922 -0.15544792 -0.10091483 0.18827252

encoder.layers.0.linear1.weight f4 [2048, 5]
00000000: 8c92 62bf 3f1f 8c3e 0cb8 18bd 1f04 4e3e
00000010: 6fdf 053f ed1f e53e 8754 043f cbf0 713e
00000020: 47d3 6b3e 6fdb 023f cde9 6c3e ad81 30bf
00000030: 77e0 cabe 3aff febe b789 a9be 5760 46bf
00000040: 4b73 093e 2a06 00be 4d33 65bd 0c86 943e
00000050: 016a 88be c2ee 01be dbc8 1bbb 9824 fe3e
00000060: 29cd 403f d3e0 9c3e debf 04bf 08c2 adbe
00000070: 8e8c c4be 10f3 333a 7005 01be 0013 7bbe
00000080: 1a6a c8be 35c6 c3be 3f2d a03e 78a1 bfbd
00000090: c01c dcbd 8d86 323e 7199 9f3e fbf5 4e3f
000000a0: 3a4e f5bd aac6 a03d 1a77 ae3d 3df3 093f
000000b0: be68 6d3f 04ce aebe a02e 8e3e ed08 6fbe
000000c0: eaf5 0abe a6c5 15bf 539e 93bc f762 7f3d
000000d0: 0fcb fdbb 620d d23d 30ee 4dbf 5036 f63e
000000e0: 204d d33c 9543 033e b6c8 b6be 9be2 cabd
000000f0: 2052 24be 3b36 333f 68f2 6fbc 60a8 13bc
00000100: af00 34bf 6f0e 24be 5c49 1c3f a6f7 8c3d
00000110: 7800 00bf daf4 a93d 029a b8bc 9af2 b73d
00000120: 8832 0f3e 5aca c13e 2378 ed3e 0854 0f3e
00000130: cf71 d9bc 5776 70be 0476 e2bd e084 91be
00000140: e878 d33e 610f e5be 810b a0bd 72d5 4ebe
00000150: a084 f83e 028d 8b3e bc73 49be 0544 e5bd
00000160: b7c9 42bc 6370 abbe 38c5 4abe d846 adbe
00000170: b79d 7a3d 365e 353d 6faa 9e3d 8b2b a1bd
00000180: 59e2 2b3d ff5d 7cbb 318a 953c e41a 18bd
00000190: 5ed7 98bd 84b6 063f 7496 9d3d 77f0 e4bd
000001a0: 08ed a6be 8b05 bc3c aff0 a5be 3fbf 8e3e
000001b0: c7f1 12bf 7826 ae3e 14ff 85be 165d a9bd
000001c0: e037 6dbd a240 043e 49f6 283f 165a 833e
000001d0: d89a 9cbd 297a 6f3e a5a2 ec3e 1084 14bf
000001e0: 1546 87bd c1b0 d83e ff18 b2be 5ca9 be3e
000001f0: 9b17 34bf 2f27 2e3e 3c05 033f cbbe 0e3f
00000200: 3ec3 cd3e 244b 4bbf 01ff 633d e363 c03e
00000210: ce05 d2bd 2139 4b3e 170f 11bf 7ab7 933e
00000220: d39a c0be 7874 22bd 8d56 ddbe 5b27 eabe
00000230: a189 02bd ebea 603e 8dc3 083f eed7 703e
00000240: b7b5 44bf 1c85 f63e fc6e 98be 97cb e4bd
00000250: d6a7 f8bd 2ac2 fb3c eab2 29be 331a cd3d
00000260: 80d6 14bf c1b0 f0bd 962a cbbe e39c 003f
00000270: a8a2 683b 881c 19be 027b 3f3e cca4 eabe
00000280: cf14 3bbe a98c 403e 7d4d 933e c98a 213f
00000290: 8f5b 67bf 1ddb 6ebc 7fae bc3e d160 bcbd
000002a0: 0950 0c3f 0f4a ccbe 91a7 92bf 5f17 9e3e
000002b0: 812b 90bd e05f 883e 2358 0c3f 1680 df3d
000002c0: 3b80 4a3d 1282 ce3d c938 0f3e aadd 983d
000002d0: 1eba 25be 6c91 aebd 0682 ea3e 89b0 433e
000002e0: a876 b5be 4641 1c3f 39cf 153e 9cd5 b53e
000002f0: 2fa6 aa3e 74d9 96be b93e 4cbe 07a9 353e
00000300: c1a9 b1be efd4 1b3d ce4f e5be 4e7b 76be
00000310: c62c 46be 0513 03be 3b2a 823d ea91 4d3f
00000320: 1fbb 473d c451 cc3e decc af3e 9b7a 083e
00000330: b97d 1abf 6f71 5c3e b0f9 df3d 12ed 363d
00000340: b820 013d 2968 60bf 12a0 0b3f 899a 36be
00000350: e6ea 23be 1033 8eba 173a 8a3e 89ab a5be
00000360: 9633 d1bd 49af 46bd 6357 2f3e befe 173f
00000370: 3c4c 7a3d fb9f d8be 7a70 6abb 83c3 acbe
00000380: bcb5 8f3e cd8e c03d 05f8 9a3d 5fe9 86be
00000390: fae6 0cbf f751 afbe 1e23 0b3f 9837 bbbe
000003a0: 6b07 febe 2a85 c6be 44cd 3b3d 8270 68bb
000003b0: 862d ab3d 7667 983a 6e93 2dbe 607c 88bd
000003c0: e5c3 b5be 69d6 943d 1c0a 76be f4b1 64bb
000003d0: 20f8 2b3f 1655 3d3e f63c 493e 651a dd3d
000003e0: 53e6 813e df13 92be e703 103f 6fe8 96be
000003f0: 9d8d a2bd d914 b8be 5183 e0be 1c0e 46be
-0.8850486 0.2736759 -0.037284896 0.2011876 0.5229406 0.4475092 0.5169148 0.23627011
0.23029815 0.5111608 0.23136063 -0.6894787 -0.39624378 -0.49804097 -0.3311288 -0.7749075
0.13422887 -0.12502351 -0.055957127 0.2900852 -0.26643375 -0.12688735 -0.0023770842 0.49637294
0.7531305 0.30640277 -0.51855266 -0.33937097 -0.38388485 0.0006864527 -0.1259973 -0.24518967
-0.3914345 -0.38237157 0.3128452 -0.093569696 -0.10747671 0.1743414 0.31171754 0.80844086
-0.11977811 0.07850392 0.085188106 0.5388678 0.9273795 -0.34141552 0.27769947 -0.23343249
-0.13570371 -0.5850471 -0.01801983 0.06235024 -0.0077451537 0.10256459 -0.8044157 0.48088312
0.025793612 0.12818749 -0.35700005 -0.09906503 -0.16046953 0.70004624 -0.0146451965 -0.009012312
-0.70313543 -0.16021131 0.6104944 0.06883173 -0.50000715 0.08298655 -0.022534374 0.089818195
0.1398412 0.37849694 0.4638072 0.13996899 -0.026543526 -0.23482643 -0.11057666 -0.28421688
0.41303182 -0.44738296 -0.07814694 -0.2019861 0.48538685 0.27256018 -0.19673055 -0.11194614
-0.011888913 -0.33484182 -0.19801795 -0.33843112 0.061185565 0.0442793 0.077473514 -0.07869633
0.04196391 -0.0038508174 0.018254371 -0.03713502 -0.07462953 0.52622247 0.07694712 -0.111786775
-0.32602715 0.022951862 -0.3241019 0.27880284 -0.5740017 0.34013724 -0.26171172 -0.08269708
-0.057914615 0.1291528 0.660008 0.25654668 -0.076467216 0.23386444 0.46217838 -0.5801401
-0.06605164 0.42322353 -0.34784696 0.37238586 -0.7034852 0.17007135 0.5117986 0.55759877
0.4018802 -0.7941153 0.055663113 0.37576208 -0.102550134 0.19846012 -0.5666365 0.2885092
-0.37618122 -0.039661855 -0.43230096 -0.4573315 -0.031869534 0.21964614 0.53423387 0.2351987
-0.76839775 0.4814843 -0.29772174 -0.11171644 -0.12141387 0.030732233 -0.16572157 0.10014763
-0.581398 -0.11752463 -0.39680928 0.5023939 0.0035497341 -0.1495229 0.18699268 -0.45828855
-0.18269657 0.18803658 0.28770056 0.63102394 -0.9037408 -0.014578608 0.3685188 -0.09198154
0.54809624 -0.39900252 -1.1457387 0.30877206 -0.07039548 0.26635647 0.54821986 0.10913102
0.049438696 0.10083403 0.13986506 0.07464154 -0.1618428 -0.08523831 0.45802325 0.19110312
-0.3544209 0.610371 0.1462983 0.35514534 0.33329913 -0.2946278 -0.19945802 0.1774026
-0.34699824 0.038044866 -0.4478745 -0.24070475 -0.19353017 -0.12800224 0.06355711 0.8030077
0.048762437 0.39906132 0.3433599 0.1332802 -0.6034809 0.21527646 0.10936296 0.04465968
0.031525344 -0.87658936 0.5454112 -0.17832388 -0.16007575 -0.0010848958 0.26997444 -0.32357433
-0.10214917 -0.04850701 0.17123179 0.5937308 0.06110786 -0.42309555 -0.0035772608 -0.33742914
0.2806834 0.09402237 0.07566837 -0.26349923 -0.5503994 -0.34242222 0.5435046 -0.36565852
-0.49615034 -0.3877347 0.045850053 -0.003546745 0.08358292 0.0011627513 -0.16950771 -0.06664348
-0.35501018 0.07267458 -0.24027294 -0.0034896107 0.67175484 0.18489489 0.19652161 0.1079605
0.25371036 -0.28530785 0.56255955 -0.29474208 -0.07937167 -0.35953405 -0.43850186 -0.1934132

encoder.layers.0.linear1.bias f4 [2048]
00000000: 6d94 80be c2bd 99be 0219 1abe f28f 12be
00000010: cf9c 413e 8bed aebe f4aa 873c 3916 6bbc
00000020: fc5c 543e 7b2e 33be 69a5 803e c5bf 9bbc
00000030: 4a7c debc 8d93 4fb7 db7a 473d 0d9d fcbd
00000040: dbe5 473e b340 c83e 0192 83bc 6120 7ebe
00000050: 80da 45bc 707e c1be e150 143d 10dd 70be
00000060: 6f2b 90bd 7358 c5be e032 813e 3fbc c53d
00000070: 8922 8fbe 9619 01be 1e5c cebd eded 9d3e
00000080: fb62 f03b ffcb 173e b0df acbe dd25 27be
00000090: 7da9 9c3e 9d19 f03e 1dba cabd 6883 18be
000000a0: 7a88 babe f01f 513f 373b f9bd bad7 053e
000000b0: bf3f 833e d760 93bd 3fd6 c5be 481a e7be
000000c0: b49a 89be 4815 9abd 231b babe 0c0f 9cbe
000000d0: fdbd 87be bbb7 66be febe a8be 5e84 6ebe
000000e0: 5b59 e1be d428 a3be 0270 d6be c038 6e3d
000000f0: dfe4 bc3d 4378 8bbe d431 a1be baf7 a1be
00000100: 92a6 fcbc 4273 b8be 7b0f 203d 51b7 9bbd
00000110: b1c5 2ebd 87c6 db3e c771 ccbe 0e38 fbbd
00000120: ac6d ec3e fc61 0abf 7ba4 bb3d 4d29 833c
00000130: 68db 443e a887 efbc beef 4bbe 335d 82be
00000140: 4b0e 2f3e b256 edbe dee2 bcbd c6d7 f63d
00000150: 9819 573d c55b f8be 261f 88be e7c5 3d3d
00000160: 2bd1 28bd c583 683b 2440 9e3d 57e6 cdbc
00000170: 9793 9ebe 989b 82be 0256 113e d4df 6c3b
00000180: 829e 773e 928f acbd bb42 613e de39 31be
00000190: 78a2 5fbc fffa 5ebd bf24 a3bd 81c5 e0bd
000001a0: bf7d 923e 1e07 5e3d 2e2b ac3d 35f8 1cbe
000001b0: a6bb 2abc c940 a5be e9fa c5bd a36f 2fbe
000001c0: 8649 47be 8f21 38be 7047 96be bd3b 103e
000001d0: 925d 8bbd 8e89 5d3e fe11 bf3e 318e 72bd
000001e0: 05f2 9c3e 2342 43be f85a f6be 4f70 05be
000001f0: 4c52 6abe c187 acbe 6518 28be 7e9d 1c3d
00000200: e4a3 d0be dcdd 10be a71d 3e3e 4f23 2dbd
00000210: 0fa9 943e eb12 673e 9853 2bbe dc2a 783d
00000220: 5dd5 d8be fd30 1abe da42 903e 3e84 ae3e
00000230: e46a 92be 34cd 4a3e f5b4 7fbe 6538 213e
00000240: fb02 8b3d 11ba 503d e612 f03c 719d b9be
00000250: f9a3 0cbf c60c 16bd 388b bbbe 9673 153e
00000260: 807f ebbe cc48 7bbe ac86 b03c 21d9 923d
00000270: a24a d0be 3221 6dbe a4c4 2ebe d95b 4abe
00000280: 85ae 06bc 686b bb3d 30c7 85be e29e cb3e
00000290: 7388 593d 95d9 1b3c e415 633e b4f0 01be
000002a0: 50b9 6dbe 5d80 c9be 27fa c8bc 2d80 cb3d
000002b0: 97ee 95be 390d 5fbe 7f42 963e fc4f e83e
000002c0: 3792 0bbe f6f6 203f 4b01 dabd 8aa7 5a3e
000002d0: 43af 8ebe 9ff9 d43d 8a7e 68be b888 8f3d
000002e0: d92c cdbe c322 93be 7fa5 fb3d 5f91 7b3d
000002f0: 350b de3e f42c 1bbf 3311 ab3e 662b c33d
00000300: 626a 81be 34b8 903d 2579 efbe 7e52 c43d
00000310: 90c5 af3d 8f7c 7d3e a43e 353d 2b06 cf3e
00000320: 7b05 9bbe 29d3 8fbc fc90 743e 14ce 8cbe
00000330: 1436 7dbe eaf0 5cbd f72b 2f3e 0d68 3bbe
00000340: bf96 1d3e 0884 9abc 22af 713e ca47 cbbd
00000350: 8273 943d 911a 9b3e b651 b2be 9f01 513d
00000360: 2dab 9ebe 81ef 2a3e 7fa3 7bbe d49f 14be
00000370: 8eca b23c a3c5 0f3e 6849 8ebe d083 8a3e
00000380: d864 b93c 93b6 a1bd cb8f 2f3e cc3a 51be
00000390: 89f0 85be f82d 2cbe ce90 ffbc 4cc6 2f3e
000003a0: 5c5f 8fbe 3d49 8ebe 1fae aebb 9211 483d
000003b0: 2f6c 95bd 886e b53d d2ba 603e e3ce 8cbe
000003c0: 68e2 7a3e f5c4 eebe 73cf 83be 09a0 01be
000003d0: b074 09be 9aee 953e 6979 4e3c 277c d7be
000003e0: 32f1 c9bd 1186 923d 381e 16be df71 8dbe
000003f0: a8ed fbbd 8aaf 72bd 17ad 9fbe e5a8 213c
-0.2511324 -0.30027586 -0.15048602 -0.14312723 0.18907474 -0.34165606 0.016561009 -0.01434856
0.20738596 -0.174982 0.25126198 -0.019012341 -0.027158875 -1.2372516e-05 0.04870115 -0.123346426
0.19521277 0.39111862 -0.016060831 -0.24817039 -0.01207602 -0.37791777 0.036209945 -0.23521829
-0.07039534 -0.38544044 0.25234127 0.09655046 -0.27956036 -0.12607417 -0.10076164 0.30845585
0.007336018 0.14823912 -0.3376441 -0.16323037 0.3059806 0.4689454 -0.098987795 -0.14893878
-0.36432248 0.8168936 -0.121694975 0.13070574 0.25634572 -0.07196205 -0.3864002 -0.45137239
-0.26875842 -0.0752359 -0.3634883 -0.3048023 -0.26512137 -0.22531025 -0.32958215 -0.23292682
-0.44013485 -0.31867087 -0.4188233 0.05815959 0.09223341 -0.2724019 -0.31483328 -0.31634313
-0.030841146 -0.36025435 0.039077263 -0.07603324 -0.042669002 0.42924902 -0.39930555 -0.12266551
0.46177423 -0.5405576 0.091622315 0.016010905 0.19224322 -0.02923949 -0.19915673 -0.2546173
0.17095296 -0.46355206 -0.09222959 0.12052874 0.052514642 -0.48507515 -0.26586264 0.046331313
-0.041215103 0.0035478931 0.077270776 -0.025134249 -0.30971977 -0.25509334 0.14192966 0.0036144154
0.2418156 -0.08425821 0.21998112 -0.17307231 -0.013649575 -0.054438587 -0.07965993 -0.10975171
0.28611562 0.054206006 0.08406673 -0.15329058 -0.010420715 -0.3227599 -0.09666998 -0.1713243
-0.1946164 -0.17981552 -0.29351377 0.14085288 -0.068049565 0.21634504 0.37318414 -0.059217636
0.30653396 -0.19068198 -0.4811628 -0.13031124 -0.22882956 -0.33697322 -0.16415556 0.038236134
-0.4075004 -0.14147133 0.18565999 -0.04227 0.2903523 0.2256581 -0.16731107 0.06058775
-0.42350283 -0.1505775 0.28176004 0.34085268 -0.28597176 0.19804841 -0.24971373 0.15744169
0.06787678 0.050958697 0.029305886 -0.3625293 -0.549377 -0.036633275 -0.36629653 0.14594874
-0.45995712 -0.24539489 0.021548592 0.0717032 -0.4068194 -0.23157194 -0.170672 -0.197616
-0.00822032 0.091513455 -0.2612853 0.39769655 0.053108644 0.009512325 0.2217632 -0.12689477
-0.23215222 -0.39355746 -0.024533344 0.09936557 -0.29283592 -0.21782388 0.29347607 0.45373523
-0.13629995 0.6287683 -0.10644778 0.21352974 -0.2786809 0.10399174 -0.22704521 0.07008499
-0.4007328 -0.2873746 0.12287425 0.061417934 0.43367925 -0.6061547 0.3341156 0.09529762
-0.25276476 0.07066384 -0.46772113 0.09586047 0.08582604 0.24754547 0.044249192 0.40434393
-0.3027762 -0.017556744 0.23883432 -0.27500975 -0.2472766 -0.05394069 0.17106615 -0.18301411
0.15389536 -0.018861786 0.23601964 -0.09925802 0.07248594 0.30293706 -0.34827965 0.051026937
-0.30989972 0.16692926 -0.24574088 -0.14514095 0.021825101 0.14040236 -0.2779038 0.2705369
0.022631094 -0.078961514 0.17144696 -0.20432585 -0.26160076 -0.1681441 -0.031196978 0.17165488
-0.2800244 -0.2779025 -0.0053308154 0.04884488 -0.07296025 0.08858973 0.21946266 -0.27501592
0.2450043 -0.4663464 -0.2574421 -0.12658705 -0.13423419 0.292836 0.012602189 -0.42086908
-0.098604575 0.071544774 -0.14659965 -0.2762594 -0.12301189 -0.05924944 -0.31186745 0.009866928

encoder.layers.0.linear2.weight f4 [5, 2048]
00000000: 1672 f7bd f418 bebd 2e43 a3be 39fe 01bd
00000010: 310b e2bc 64ac a5be 4e5d b1bd a30d 43bd
00000020: 2df4 a23d ac1c 453d 90d8 ad3c 54b6 84be
00000030: 37cb e73e bd9a 633e a641 453e f215 27be
00000040: 4637 71be b981 93bd 14f6 2c3e 053a 07bd
00000050: 6e68 033e b4eb 2c3e 3215 633d e317 bfbc
00000060: 6d59 d93e aea0 123e ec59 95bd 774d 6cbe
00000070: b2ed 4c3e 1b2a 52be 27c7 8f3e 2604 abbd
00000080: d975 c13e db4e a93e eb52 be3d 1e13 7d3c
00000090: beb5 823e 6545 7e3c ec46 1a3e 9f8a aebd
000000a0: f2db 113e 03db 273c b3a0 0ebe 080a 863d
000000b0: f485 10be 3775 6cbe 3867 9abe 10b0 adbc
000000c0: cf5b 04bd 10d8 c4bd aa4c a1be 26d7 493e
000000d0: 7a69 8abd e7ae 54be 7afa b83e f53a fa3e
000000e0: 7ec8 2bbd 5102 c4bd 2da2 acbe 4ba9 cabd
000000f0: 23fd 41be 3dff 10be 2a1a 253e 6c1f f13e
00000100: 6d6e 85bd 8bdd 883d f631 b2bc 043a a73c
00000110: c354 07bd 054b ddbd a191 163e 838d 0e3e
00000120: 6aac 0b3e d6b9 b03d d989 e33c fe22 483c
00000130: c5d8 81bd a2d6 99bd f5b6 823e d3f8 16bd
00000140: 6c79 24be 509d 1a3c c7ee e93d 2b1d 1cbe
00000150: 88bb 57bd c6a0 ebbd c70d e43d d278 c33e
00000160: b19b 9bbe fd6a a53e a6d6 c93b 1c69 cd3e
00000170: 6ffa 5e3e fa81 a5bd be85 c0bd b1bf 58be
00000180: 3aab 913d 29a2 9abe 7f92 503e 4a35 42be
00000190: 186a 723e 2c62 e33b 1c5c 113e a3d4 a33e
000001a0: 3837 ec3d c590 5cbe 37aa 803d c073 173b
000001b0: d5c7 20bd 6a08 0d3b 9de3 a93e 86a8 0dbd
000001c0: 3cc6 173f 9dc2 42bd ee7d f73b 9458 e03e
000001d0: 0f87 4d3e c53f 09bd b543 68bd 4784 023f
000001e0: cc98 e9bd 3d96 9fbd 142a a93d 0cad 173e
000001f0: 62a4 6d3e 63f8 afbd a554 31bd bcae 09be
00000200: 8ece 9ebe 895d 77be aa1c 183e 57d7 53bd
00000210: 0199 67bd bfed 90be dd57 ab3e c523 a43d
00000220: 7479 c6bd be8b 29be 10e3 8fbd 92a2 503e
00000230: 5c91 48bd 094e 823d de90 553d 4100 e1bd
00000240: e77b 2e3e 4cb8 6b3d 2e74 d7be 3202 823e
00000250: 3a4d 94bc 25d2 4fbe 5286 f0bd a2c5 7bbd
00000260: ef26 1ebe 15b9 a13e 967c a43d 38da 1cbe
00000270: 7ad5 b73e fc73 80bc 0b0c 8ebe 73e7 6fbd
00000280: 6eed f23d 1e77 5abd a29b 67bd 08f7 d13d
00000290: ca9f 16be 5339 ad3d 50ad 073e e3fa 873e
000002a0: 4d68 b4bc be6b c7bd c02f 75bd 45dc 02be
000002b0: 287a 023e 0fbe 48be 13e6 99bc bd15 c8bd
000002c0: 196d 4bbe 932c 153d 1f26 e9bd 822e de3d
000002d0: 2f7a b1bd f3d1 0cbe c041 233e 7c86 1c3f
000002e0: 92d7 9abd b6c0 cb3d a190 613e 69fb 543e
000002f0: 9569 e5bd 7714 f13b 4286 93be 9fad 953e
00000300: 8ddc d53e adbc 63bb 6ab0 843e 7a86 d5bd
00000310: 2dbc 5bbe 5529 a33d d228 f4bd 3493 11be
00000320: 84b3 3abe 1f04 d53d f300 18be e457 56bc
00000330: 24b6 963e bb7f d83d e296 573c 84b8 2abe
00000340: abfa 90be 6b1d 9a3e 65ba 223e 72c1 a33e
00000350: 2655 c7bd 93a9 b8bc 41c7 82be d27a a33e
00000360: 3fdf 43bd 3dbc 72bc e284 d73d d5b6 e83e
00000370: 963c e93e 736a 2fbe df7b ce3e 9ba2 923c
00000380: 3c44 303c 5547 3abe 6a56 b9bc 371e 2dbe
00000390: a0dc 35be 834b 623e fee5 75bd 2543 bd3d
000003a0: 6b87 903d cab6 913e 62fb 75bd 1f6d ba3c
000003b0: d900 f83d 0788 e23d 2155 793e 4f95 29bc
000003c0: 5d64 10be aa31 1b3e c053 553e 9410 4ebc
000003d0: 66d8 a23e a0fc 513e a32e 973e 8763 6c3e
000003e0: 0d99 04bd 2d5b 9ebd b6ef e43d 12c1 c8bc
000003f0: d792 0dbe aa91 0fbe 9a3f 71bb 4409 bbbd
-0.12082307 -0.09282103 -0.31887192 -0.031736586 -0.027593227 -0.32358086 -0.086603746 -0.047620427
0.07956729 0.048123047 0.02122143 -0.25920355 0.45272228 0.22226997 0.19263324 -0.16316965
-0.23556241 -0.07202477 0.16890746 -0.033014316 0.12832806 0.16886789 0.055440135 -0.02332682
0.4245104 0.14319107 -0.07292542 -0.23076425 0.20012549 -0.20523874 0.2808163 -0.083504006
0.37785223 0.33067974 0.09293159 0.015446452 0.25529283 0.015519475 0.15066117 -0.085225336
0.14244059 0.010245088 -0.1392849 0.06544882 -0.14113599 -0.23091589 -0.30156875 -0.021202117
-0.032314118 -0.09611523 -0.31503803 0.19710979 -0.06758399 -0.20769845 0.36128598 0.48873106
-0.04193925 -0.09570754 -0.3371748 -0.09895571 -0.1894422 -0.14159866 0.16123262 0.47094285
-0.06515203 0.06682881 -0.021752339 0.020413406 -0.03303982 -0.108053245 0.1470399 0.1392117
0.1363999 0.086291954 0.027775692 0.012215374 -0.06340174 -0.07511641 0.2553021 -0.03685839
-0.16061944 0.00943692 0.11422496 -0.15245502 -0.052669078 -0.115052745 0.1113544 0.38178116
-0.3039222 0.32308188 0.0061596213 0.40119255 0.2177522 -0.08081432 -0.09400509 -0.21166874
0.07112737 -0.30201843 0.20368384 -0.1896564 0.23673284 0.0069391932 0.14195293 0.31998166
0.1153397 -0.215396 0.06282466 0.0023109764 -0.039253075 0.0021519908 0.33181468 -0.034584545
0.59286857 -0.04754888 0.007552854 0.4381758 0.20071052 -0.03350808 -0.056705195 0.5098309
-0.11406097 -0.077923276 0.08259979 0.14812106 0.23207238 -0.08592298 -0.043293614 -0.13445562
-0.31016964 -0.24156775 0.14854684 -0.051719036 -0.0565424 -0.28306386 0.33465472 0.08014635
-0.09691134 -0.16557214 -0.070257306 0.20374516 -0.04896675 0.0636254 0.05214011 -0.109863766
0.17039452 0.057548806 -0.42080826 0.253923 -0.01810323 -0.20295008 -0.117443696 -0.061467774
-0.1544454 0.3158652 0.080315754 -0.15317619 0.35905057 -0.015680306 -0.27743563 -0.058570337
0.11861692 -0.053336255 -0.056544907 0.102521956 -0.14709392 0.08458199 0.13249707 0.265586
-0.02202239 -0.09737347 -0.05985999 -0.12779339 0.12741911 -0.19603752 -0.018786466 -0.09769771
-0.19865836 0.036419462 -0.11384224 0.108487144 -0.08665883 -0.13751964 0.1594305 0.61142707
-0.07560648 0.09948866 0.22027828 0.2079903 -0.11201779 0.007357176 -0.28813368 0.29234025
0.4176983 -0.003474991 0.25915843 -0.1042604 -0.21458502 0.07966868 -0.11921848 -0.1421631
-0.18232542 0.10401177 -0.14844112 -0.013082478 0.29435837 0.10571238 0.013158532 -0.1667195
-0.28316244 0.3010057 0.15891416 0.31983525 -0.09733038 -0.022541797 -0.25542644 0.31929642
-0.047820326 -0.014815387 0.10523392 0.4545199 0.45554036 -0.17130451 0.4032888 0.017899802
0.010758456 -0.18191274 -0.022624213 -0.16906057 -0.17759943 0.22099118 -0.06003379 0.092413224
0.07057079 0.2845977 -0.06005419 0.022757111 0.12109537 0.110611014 0.2434888 -0.010350539
-0.14100786 0.15155664 0.2083273 -0.012577195 0.31805724 0.20506525 0.29527768 0.23084842
-0.032372523 -0.07732234 0.11178534 -0.024506126 -0.13825546 -0.1402041 -0.003681159 -0.09132627

encoder.layers.0.linear2.bias f4 [5]
00000000: 3dca f3bc eb35 3c3e d0a8 223d 0e61 853c
00000010: 43d9 87bd
-0.02975952 0.18379943 0.039711773 0.01628163 -0.06633236

encoder.layers.0.norm1.weight f4 [5]
00000000: 0f82 3c3f 7928 713f 9810 6d3f 248f 803f
00000010: 816c c43f
0.73635954 0.9420238 0.92603445 1.0043683 1.5345613

encoder.layers.0.norm1.bias f4 [5]
00000000: 44bd 94be 9d20 303e cd3e 883d 0f33 3e3c
00000010: b672 773d
-0.29050648 0.17199941 0.06652603 0.011608853 0.06041213

encoder.layers.0.norm2.weight f4 [5]
00000000: d3b3 813f bccc 933f d86f 5f3f 5a99 913f
00000010: d21a 953f
1.0133003 1.1546855 0.87280035 1.1374924 1.164881

encoder.layers.0.norm2.bias f4 [5]
00000000: e8dc 6abd 1741 7d3d 8e27 d4bd 5d4b 51be
00000010: 8e2d 633e
-0.05733958 0.061829653 -0.10359107 -0.20438905 0.22185346

encoder.layers.1.self_attn.in_proj_weight f4 [15, 5]
00000000: b94a 453e 4905 72be 9a98 403e f693 c43e
00000010: 0a5c 883e 3efd 52bf bffe 323f 8e22 e93e
00000020: 32e2 b0be 942c 7e3e e6c9 0f3e 8476 8b3e
00000030: c88f 3f3e f567 6d3e ef71 1ebf 4332 f83d
00000040: acff d4bd a1cc 09bf b8c4 c5be ab9c 163e
00000050: 0929 fcbe b44b 153f 6b01 033e 78e5 2b3e
00000060: 05c0 e63e 94db 7b3e e939 813e b3c4 aabe
00000070: d2c6 aa3e 07d8 0f3f 0d6a 9bbe fac7 4a3d
00000080: efa1 213e e44d 7dbf b067 e53e 3d0b b8be
00000090: a13c 3dbf d2c6 78be 6ccc 3bbe 6d37 5f3e
000000a0: 9277 093e de01 113d 372e ac3b 3a55 f9bd
000000b0: 2d4d 8dbe beaf 05be cd2d 313e f44d cebe
000000c0: 9151 edbe f8c3 283f 29e0 aa3c 0443 6b3e
000000d0: 2e98 ac3e d69f 793e b344 273e 91a5 98be
000000e0: ee24 9e3e 26ea 993e d129 c5bd 2b10 abbd
000000f0: 261c 33bf d537 d83d 86c0 44bd 7d25 36bf
00000100: abfb cabc e6a9 b7be 21c3 dc3e e6ef 2dbe
00000110: 67af f43d 1afa 973e 06d0 c03e 9bf1 483e
00000120: 726a ad3e 88cb d2bd 63c1 883e
0.19266786 -0.23634829 0.18808213 0.38394135 0.2663272 -0.82417667 0.6991996 0.45534176
-0.34547573 0.24821693 0.14041862 0.27238858 0.18707192 0.23184188 -0.618926 0.12118962
-0.10400328 -0.53827864 -0.38626647 0.14708202 -0.49250057 0.5831864 0.1279351 0.16786754
0.45068374 0.24595481 0.25239494 -0.33353195 0.33354813 0.56189007 -0.30354348 0.04950712
0.15784429 -0.98946977 0.4480567 -0.35946074 -0.7392064 -0.24294594 -0.183397 0.21798487
0.13424519 0.03540217 0.0052545327 -0.12174459 -0.27597943 -0.13055322 0.17302628 -0.4029385
-0.46351293 0.65924025 0.020858841 0.22974783 0.33709854 0.24377379 0.163348 -0.29813817
0.3088755 0.30061454 -0.096271165 -0.08352693 -0.69964826 0.10557524 -0.048035167 -0.7115095
-0.024778208 -0.3587181 0.43117622 -0.16986045 0.11947518 0.29683 0.3765871 0.19623415
0.33870274 -0.10292727 0.26710042

encoder.layers.1.self_attn.in_proj_bias f4 [15]
00000000: fc4e b83d 237e 7a3e ec32 653e a3c0 203e
00000010: 7592 533e 2b94 33ba 91de 7a3a ed0b 6e3b
00000020: f3e1 d63a f3a9 28b9 f032 0c3e b0ff 653d
00000030: 39ae 28bd a0f6 333e 48db 3f3d
0.0899944 0.2446218 0.22382706 0.15698485 0.20661338 -0.0006850387 0.0009569908 0.0036323026
0.0016394242 -0.0001608504 0.13691306 0.056152046 -0.041181777 0.17574549 0.046839982

encoder.layers.1.self_attn.out_proj.weight f4 [5, 5]
00000000: b718 dfbc cdb7 a13e daf3 143f a1c4 d83d
00000010: c645 8d3e efa0 05be 88fd 81bd fb71 0e3d
00000020: c500 8cbe 3adf 9d3e bb08 a23d d08e 81be
00000030: 1c6a 263e 6b92 f13e 4e90 a23d 293d 853e
00000040: 36ce 52bd f10e e63e 013d 9cbe b810 083f
00000050: 45d9 e53e 69f7 343e c0a8 a4bc 9ef6 87be
00000060: 2c9f 013e
-0.027233465 0.3158554 0.5818459 0.10584379 0.27592295 -0.13049673 -0.063471854 0.03477667
-0.27344337 0.3083437 0.079118215 -0.2530427 0.16251415 0.4718202 0.0793768 0.26023224
-0.05146619 0.44933274 -0.30515292 0.5315051 0.44892326 0.17672504 -0.020099998 -0.2655534
0.12658376

encoder.layers.1.self_attn.out_proj.bias f4 [5]
00000000: e03a 21bb a67b dfbb a24e 32be 52e4 7ebc
00000010: b953 f83d
-0.0024601743 -0.00682016 -0.17412809 -0.0155573655 0.12125344

encoder.layers.1.linear1.weight f4 [2048, 5]
00000000: 0c27 34bf 6655 dc3e 3eb7 8ebc f51b 99bd
00000010: 5762 553e 6f9e 08bd 6fce 253f 41f1 d83e
00000020: 6f6d 6e3d dcd9 4e3f e56f 003d b190 75be
00000030: 08af d9be b7bc eabe 0c11 c23b cbe1 aabe
00000040: 5a1e d93e 0615 25bd 085f ccbe 7779 5cbd
00000050: 749c 02bd 651a 03bf 550d cf3d 9c65 693f
00000060: b27c f83d 8991 953d 9c1d 8cbe 81bd dfbd
00000070: 7b56 90be 2f75 78bd f831 b7be 7c2c 963d
00000080: a90f bfbe 60d4 70be 9de7 7cbc 0a6c a43d
00000090: c4ca e3be e0a9 973e 61de 9f3e 608a d83e
000000a0: 4df9 123f b25a 73bd 7d28 93bd b0e0 9a3e
000000b0: fc73 ae3e 8522 59be e83c 26be 7faa 87be
000000c0: 76cb 14be 2be5 8abe 7b1b 80be 94ce c8be
000000d0: 0a41 6abe 4911 5d3e bf21 143c a626 543e
000000e0: c195 ea3d 054f 87be 5b63 acbe 67c5 093f
000000f0: 5de5 d1be 386c 003f bd1a 0bbe d091 843d
00000100: 958c 9fbe 85f7 d1be 067b f73e 299d 043e
00000110: 9f26 6fbe 5976 c0be 519e f43d 8f37 0abe
00000120: f317 233e 7e73 123f e51e 723e 16ff 87bd
00000130: 53e4 8a3d 97c3 3cbe b790 e13d e118 253d
00000140: ee5a 943e 10c4 c53c 4bd8 a6be 68c3 54be
00000150: 6ec4 e93e f8ed 893e 2e1b 4ebf 4192 bb3e
00000160: 8c52 743d 93c5 abbe 6d71 f3bc 8edd 51bf
00000170: e55b de3e 549b fd3d 6bf9 63be 901f c5be
00000180: 9a4d 8c3e 9264 a5be 0a2d 4abe 8d8e 573e
00000190: dad5 2bbd f946 c33d 3f5e 16bf 6382 9e3e
000001a0: 788b 91bc 8511 8fbd 19b1 cdbc f300 b4be
000001b0: 4d8b f9be 9495 253f 7da4 81be b5af a73e
000001c0: 3ec2 35be a151 1fbe ddd5 883e d638 733f
000001d0: 3805 03bf 89f5 383f 1bcb 5bbe 2bad 44bf
000001e0: af1a a0bd 7b27 113e 57fc 79be a19b 483d
000001f0: 9ade 8ebd 2828 183f 8a3c 05bf ed38 263f
00000200: ca4a 29be 6040 17bf 7c02 adbe 27f5 0c3f
00000210: 53e1 b0bb dbab 8ebe a83d 103e f760 30be
00000220: 8eb6 ffbe 6001 b73e 35c1 efbe d3ee 84be
00000230: 27f5 283f 0bff 08bf 2326 423f 3059 8ebd
00000240: 6339 44bf bd82 db3e a9c6 a5be 6847 26be
00000250: a834 b53e e968 603d 90b9 a8be 5631 95be
00000260: d1d7 16bf 3b30 3f3e 3307 91be 06fe 333e
00000270: 10a2 66ba a6a2 25be 0298 41bd dc5e 283e
00000280: 47d6 5abe 07a2 02bf 61bd 0a3e dff6 913f
00000290: 9378 cebc 43e3 24be 85b3 b23e 9da1 b5bd
000002a0: 6d19 e83e 0a4b 27be 21a5 1dbe ce15 7c3e
000002b0: 7bca a8be ccc8 043e 3176 54be 974c 753e
000002c0: cea5 94be 7f29 4e3d 9db5 483e 20c7 3a3d
000002d0: 8282 923d faff eebe 8b33 adbd 8a10 fb3e
000002e0: 38c0 edbd 0100 6d3e 5c07 94bd 2405 953e
000002f0: cea1 0a3f 0cb1 a43e 46fb f4be 71f3 20bf
00000300: 5a83 09be 7eea 243f 5fac ddbc ddb2 6a3e
00000310: 2735 b0be 3076 33bf c92a b93e 15b2 273e
00000320: 526c f33e 156b 35bf a8af 9f3e bd25 db3e
00000330: c24d f5be c35a c3bd e99b 53be 77f6 153d
00000340: 29c4 b03d 45b6 18be 5854 063f a5ce d8be
00000350: 7cb9 a9bd 607d f13e b11f 563e 60f6 3dbe
00000360: 0ec0 26bf 1d06 493e 4c58 123f 2540 243e
00000370: 9c0e 7ebe 2625 78bc 0e48 16be 9b19 28bf
00000380: 5714 413f 3dfb be3d ae20 15bf 2f7e b2be
00000390: fd1d 8bbd 538b af3d 4a9d ab3e dd66 183e
000003a0: 1c76 01bf e7de 3fbe f3ff 223e 4151 aabe
000003b0: 8915 bb3e f3d2 243e 84f5 a0be ea60 8a3e
000003c0: 213b e93d 0f21 ab3d b9eb 2ebf 1b75 48be
000003d0: 21c9 f53e 0ac4 db3d 1fc5 8dbe de44 0e3c
000003e0: 7ada b33e b4aa 343e 1473 093f 89a6 46bf
000003f0: 8c58 7c3f ce32 a5be a5b9 14bf e477 c3be
-0.7037208 0.43033904 -0.017421361 -0.074760355 0.20838295 -0.03335422 0.6476812 0.42371562
0.058209833 0.8080118 0.03135671 -0.23980977 -0.4251635 -0.45847103 0.0059224423 -0.3337539
0.4240597 -0.040303253 -0.39916253 -0.053826775 -0.031887487 -0.5121215 0.10109965 0.9117067
0.12133159 0.07303149 -0.2736634 -0.10924817 -0.2819098 -0.06065863 -0.3578031 0.073327035
-0.37316635 -0.23518515 -0.01543608 0.08028419 -0.44490635 0.29621792 0.3122435 0.42293072
0.5741165 -0.059412666 -0.07185457 0.30249548 0.34072864 -0.21204574 -0.16234171 -0.26497266
-0.14530739 -0.27127966 -0.25020966 -0.39220107 -0.22876373 0.21588625 0.009041249 0.20717868
0.114543445 -0.26427475 -0.33669552 0.5381684 -0.40995303 0.5016513 -0.13584419 0.06473124
-0.31161943 -0.41009155 0.48336047 0.12950577 -0.23354577 -0.37590292 0.11944259 -0.13497756
0.15927105 0.5720748 0.23644598 -0.06640451 0.06781831 -0.18433987 0.1101393 0.04030693
0.28975624 0.024141341 -0.32586893 -0.20777667 0.45657676 0.26939368 -0.8051022 0.3663502
0.059649035 -0.33549175 -0.029717172 -0.8197869 0.43429485 0.12383142 -0.22263114 -0.38500643
0.27402955 -0.32303292 -0.19743744 0.21050473 -0.04195199 0.09535021 -0.5873756 0.30958852
-0.0177667 -0.069857635 -0.02510886 -0.35156974 -0.4873909 0.64681363 -0.25320807 0.3275124
-0.17749879 -0.15558483 0.26725665 0.950086 -0.5117984 0.72249657 -0.21464197 -0.76826733
-0.078175895 0.14175217 -0.24412666 0.048976544 -0.06976052 0.59436274 -0.520455 0.6493061
-0.16532436 -0.59082603 -0.33790958 0.5506157 -0.0053979545 -0.2786549 0.1408602 -0.17224489
-0.49943966 0.35743237 -0.46827093 -0.25963458 0.6599907 -0.53514165 0.7583944 -0.06950605
-0.76650065 0.42873183 -0.32378128 -0.16238177 0.35391736 0.05478755 -0.32954073 -0.29139203
-0.5892306 0.18670742 -0.28325805 0.17577371 -0.0008797953 -0.16175327 -0.047264107 0.16442436
-0.21370803 -0.51028484 0.13548805 1.1403464 -0.025203979 -0.16102318 0.34902588 -0.08868716
0.45331898 -0.16337219 -0.15395023 0.24617693 -0.3296698 0.12967223 -0.20748211 0.23954998
-0.2903275 0.050332543 0.1960053 0.045600057 0.07153799 -0.4667967 -0.08457097 0.49036056
-0.116089284 0.23144533 -0.07227966 0.29105484 0.54153144 0.32166326 -0.47847956 -0.6287146
-0.13429013 0.64420307 -0.027059732 0.22919793 -0.34415552 -0.70102215 0.36165455 0.16376527
0.4754358 -0.7086652 0.31188703 0.4280223 -0.47910887 -0.09538796 -0.20664944 0.036612
0.086311646 -0.1491328 0.5247245 -0.42345157 -0.082873315 0.47165966 0.20910527 -0.18551016
-0.651368 0.19631238 0.5716598 0.16040094 -0.2481026 -0.015145576 -0.14675924 -0.6566407
0.7542166 0.09325264 -0.5825299 -0.34861895 -0.06792829 0.08571496 0.3351844 0.14882989
-0.50570846 -0.18737374 0.1591795 -0.33265117 0.36539868 0.16096096 -0.31437314 0.27027065
0.11388231 0.08355915 -0.68328434 -0.19575922 0.48005012 0.10730751 -0.27689454 0.008683411
0.35127622 0.17643243 0.5369122 -0.7759786 0.9857261 -0.32265323 -0.5809577 -0.38177407

encoder.layers.1.linear1.bias f4 [2048]
00000000: 308d 8dbe 0dce b33c e5be 10be 9e7a eebd
00000010: 30b9 113e d1a9 0cbf 6b14 8a3d b63b 53bd
00000020: 6f5d 37bc 0902 a8be 9b4e c0bc 12f7 d1bd
00000030: 51b3 73be 2d94 0fbd 2028 a33d 7422 acbe
00000040: 5bd7 353e d9a4 e13e ca02 393e fb27 eabc
00000050: 0361 88be f870 a4be 00a6 193e 273f aa3d
00000060: b457 21bf 5831 83be cdd2 3e3e 54d0 283c
00000070: 6459 fdbd 08e0 48be 3ef6 4bbe 0557 39bb
00000080: fdb0 4bbe e0b4 593c c55f 44bf c7d2 47be
00000090: 1c06 a33e a1dd 173c 81c9 263d a1e0 67be
000000a0: a11b 883e d961 efbd e7c9 f4bd 0f11 cb3e
000000b0: a359 7d3e 24c0 7f3d 87c9 b3be 6a31 acbe
000000c0: 4b5b d4be 301c 20be 7e02 0d3e f6da 66be
000000d0: bb1d a6be 9ec0 f0bd 6c43 c63c 903d c8be
000000e0: 7d60 13bf c3a1 5cbd ef14 02be 4b4c 5cbe
000000f0: 6af7 203e 7007 0ebf 4d4e d6bd 5982 14bf
00000100: edd8 69bd c1ec 35be 5cd3 5e3e b3d3 5d3c
00000110: 3141 873e d8db f7bd 5459 91be 036b 563e
00000120: 0caf 3dbe 00a6 a9be 67e3 753e 3347 8bbe
00000130: 2057 b53d c35a c73d 8170 34be e944 18be
00000140: bb33 bb3e 1f86 dbbe 2071 1dbe bd54 93be
00000150: 51e0 153d fe22 07bf 868b 38bd 8cc0 ea3d
00000160: 5afc 87be af50 c83e fce3 0dbc 2579 b9bd
00000170: 1361 cebd 0654 90be 6c4e f53e 8242 263e
00000180: e4ce 203e 1d73 93be 7820 8b3d acba 4cbe
00000190: c2d6 e7be bf32 63be 59a9 bfbe d5a3 00be
000001a0: 01e5 a03c f908 a03e 7a24 e43d 2667 aabd
000001b0: e182 3a3e 1922 71be 535d 9ebe 3c5c 10be
000001c0: df30 d1be 00fc ffbe 5b24 efbe 26cf c13e
000001d0: ee5f 8e3e 1f50 ac3e 6378 3d3e 4419 1bbf
000001e0: a3e3 273e 10dd 6fbe 78d2 f3be bc8a 25be
000001f0: 778c 18be 14a8 b4be dd78 05be c2e2 823d
00000200: 7815 dcbe 6dc4 cb3a c133 a53e f58c 293e
00000210: a5a7 3d3e 417f a73e 6ff1 5dbc c8fe 913e
00000220: c8b9 b2be c301 b9bd 543a a13e 2c56 cd3d
00000230: 44f1 d4be b40d 883e 240f e5be 9154 433d
00000240: 8f2a e63e 03b0 6f3e 31c7 74be ed95 3abe
00000250: d76b 06bf 4639 673d b2a4 93be 1796 9abd
00000260: 7177 f3bc 0762 08be 97ea 0dbe 3215 aa3d
00000270: 4d17 08bf 55b6 04be fc88 47be 0494 c9bd
00000280: 8ed8 9b3e def9 72be 3739 45be 961e c03d
00000290: a5ae 21be 01a1 b43e 92bf d2bd 9a66 233e
000002a0: 2406 64be 1f09 f23d 2f51 6b3e f160 c73e
000002b0: f8e5 a0be f1bc 1abb a9b3 283f 807c 9b3e
000002c0: 22d9 ecbd a3d3 9d3c 0d91 553e f0d8 7cbd
000002d0: 9b26 05bf 757d 5fbd 7e62 00bf ae5b c2be
000002e0: c653 33bf 1782 70be 5a96 6b3e b556 57be
000002f0: 03ff 643e fdc7 d0be e3f6 a33e 813d 153e
00000300: 5a53 8ebe 7e16 083d b3df 1bbf 1392 473d
00000310: 9610 9ebe e4a4 2e3e c11c 563e 03bb e93d
00000320: c097 16be 50aa 683e 8412 a4bd fab0 d8be
00000330: 0838 c1be 14ad b33e 2861 f43d bb92 2a3c
00000340: 1af4 a03d 1b4d adbe a3a9 cd3e b4ce a13e
00000350: e785 183e b037 08be ac5e 3ebe ef17 cc3d
00000360: 719d 21bf 501b 1b3e 6120 f0be a456 4cbe
00000370: 086a efbe f30f af3e 3d3c e9be 4bf0 cebc
00000380: 4858 febd 340a ecbc 531f 083f d89f f1be
00000390: bf04 8dbe 98e6 163e 024f 34bd 52ab 9d3e
000003a0: bd6d 2bbe c4b6 a6be fe13 24be 860e 7f3e
000003b0: 7668 b23e 97e8 933e dd26 493e f71a adbe
000003c0: 8983 15bd 0970 f7be 31b6 11bf 6c74 133e
000003d0: 5654 ebbd 962b 8c3e accf 6c3e fab3 5abe
000003e0: 7f48 613e da89 cd3d 636d a93e c12e c8bd
000003f0: 62f7 0bbf dfb6 08be 3a12 ecbe 22ca 2bbe
-0.2764678 0.021948839 -0.1413532 -0.11644481 0.142308 -0.5494662 0.06742176 -0.051570617
-0.01119171 -0.32814053 -0.023474982 -0.10252203 -0.23798873 -0.03505342 0.079666376 -0.33620036
0.17757933 0.4407108 0.1806747 -0.028583517 -0.26636514 -0.32117438 0.1500473 0.083128266
-0.6302445 -0.25623584 0.18635102 0.010303576 -0.123705655 -0.19616711 -0.19918153 -0.0028280627
-0.19891734 0.013287753 -0.7670863 -0.19513999 0.318406 0.009269149 0.040719513 -0.22644283
0.2658358 -0.11688585 -0.11952572 0.39661452 0.24741225 0.0624391 -0.3511469 -0.3363145
-0.414759 -0.15635753 0.13770482 -0.22544464 -0.32444558 -0.11755489 0.024202071 -0.39109468
-0.57569104 -0.053865205 -0.12703298 -0.21513478 0.15719381 -0.554801 -0.104641534 -0.58011395
-0.057091642 -0.17766096 0.21760315 0.013539243 0.26416925 -0.12102479 -0.28388464 0.20939259
-0.18523806 -0.3313446 0.24012528 -0.27202758 0.088545084 0.09734108 -0.17621042 -0.14870037
0.36562905 -0.42875764 -0.15375185 -0.28775588 0.036590878 -0.5278777 -0.045054935 0.11462507
-0.26559716 0.39124057 -0.008660313 -0.090563096 -0.10077109 -0.28189105 0.47911394 0.16236308
0.15703923 -0.28798762 0.06793302 -0.19993085 -0.45281035 -0.22187327 -0.3743389 -0.12562497
0.019640448 0.31256846 0.1113977 -0.08320455 0.18213989 -0.23548163 -0.30930576 -0.14097685
-0.40857598 -0.49996948 -0.46707425 0.37853354 0.27807564 0.33654878 0.18502955 -0.6058543
0.1639543 -0.23424172 -0.47621512 -0.16166204 -0.14897333 -0.35284483 -0.13034387 0.06390907
-0.4298513 0.001554621 0.32266048 0.16557677 0.18520983 0.32714275 -0.013546332 0.28514695
-0.34907365 -0.09033539 0.31489813 0.100262016 -0.4159032 0.26572955 -0.44738114 0.04768807
0.44954345 0.23406987 -0.2390411 -0.18221255 -0.525083 0.056451105 -0.2883659 -0.075481586
-0.02972004 -0.13318644 -0.1385902 0.08304824 -0.53160554 -0.12960179 -0.19485849 -0.09842685
0.30438656 -0.2372813 -0.19260107 0.09380834 -0.15789278 0.35279086 -0.102904454 0.15957108
-0.22267967 0.11818146 0.22980188 0.38941148 -0.31425452 -0.0023611153 0.6589914 0.30368423
-0.11564852 0.019265955 0.20856114 -0.061730325 -0.5201203 -0.054563005 -0.5015029 -0.3796057
-0.70049703 -0.23487125 0.23006573 -0.2102917 0.22362904 -0.4077758 0.32024297 0.14574243
-0.27797967 0.033224575 -0.6088821 0.04872329 -0.3087203 0.17055088 0.20909406 0.11412623
-0.14706326 0.22721219 -0.08011344 -0.42322522 -0.3773806 0.35092986 0.119325936 0.01041096
0.07859059 -0.3384789 0.40168485 0.31603014 0.1489483 -0.13302493 -0.18590802 0.099655025
-0.6313086 0.15147138 -0.46899703 -0.19954926 -0.46760583 0.34191856 -0.4555377 -0.025261065
-0.12419182 -0.028813459 0.53172797 -0.47192264 -0.27542683 0.14736402 -0.04402066 0.3079477
-0.1674108 -0.32561314 -0.16023251 0.24907884 0.34845322 0.2888839 0.19643731 -0.33809635
-0.036502395 -0.48327664 -0.5691863 0.1439988 -0.11490695 0.27377003 0.23126096 -0.21357718
0.22000311 0.10036059 0.33091268 -0.097745426 -0.5467435 -0.1335101 -0.46107656 -0.16776326

encoder.layers.1.linear2.weight f4 [5, 2048]
00000000: 448f 253e 634d 7e3d b7fa a6bd 4b62 a93d
00000010: 4e13 483e 155e 753d f956 89bd 5301 763e
00000020: 858a df3d e522 3cbc 7958 213e c696 b6be
00000030: 68ed 743e 5d67 723e 69db 833e 5c08 703c
00000040: 54c5 55be a137 1a3e 1ab4 933e 2a54 8c3d
00000050: b7f3 d5bc adb0 91be d948 41bd 163e ad3e
00000060: c7ab 5e3c b9d8 4b3e 94a2 023e 1f89 363e
00000070: 1fbd 9c3e fea1 853e 893b 003e 303c 87bd
00000080: 45e6 0b3e d247 953e 4bb2 643d 61e6 343e
00000090: 0293 a83e 5d6b 1a3e 25dd 083e 2518 533e
000000a0: c174 a3bd b4d6 023e 5117 903e 47d3 c63e
000000b0: 472f 48be f527 523e 9601 65be 61f9 5eba
000000c0: 5b9d 05bf 11c5 433e 37bf 913d b2ae 4e3e
000000d0: 828e a53c f01d 423b 1951 d13d 4543 a13e
000000e0: 046d b03c a8d4 d4be 5c51 ebbd 1977 e53d
000000f0: da19 6dbd 604e 383d 476b 993e b848 b63d
00000100: 399d 32bf d260 493d af2f 70be 3536 0b3e
00000110: 2f91 c1bd f6e9 10bd 0432 a13d 11e7 a7b9
00000120: d82a 403e 4ef4 273e eac8 cd3e 0cf6 353c
00000130: 0a6b 2fbd d1a4 85be e0ff 853d c6e7 01bf
00000140: a439 943b 7695 9c3e 01d3 19be c017 d6be
00000150: c207 8f3c 2be8 873c 3a5d efbd 3af7 973e
00000160: ba07 e2bb 4b71 1d3e be46 12be e4ff 303e
00000170: 30ce e83d 8f80 30bf 3466 233d 2d2e aabd
00000180: 29fd 3a3e bffd 4ebe 302f 523e 9f68 4e3d
00000190: 8cf0 063d 0bf2 133e b5cc 0a3e e367 a73e
000001a0: b41e 10be 15ab b83d 7cce d2bc 8431 883e
000001b0: 74dd 253e 6907 71bf 6570 ac3e 774f 863d
000001c0: 9310 153c 9366 753e b517 173d be34 7a3d
000001d0: 2aa4 9e3e 1ca3 9bbe 1bbf 253e 7756 a5bd
000001e0: a8a4 03bf 82dc 08bf f11d de3e f030 313e
000001f0: b824 ca3c 94fb ce3d 0dbf 77bf ab06 dabe
00000200: 369f 393e df92 59be 6550 d83d 2c60 ab3b
00000210: eb98 bb3c 8a47 823e 0668 303e 57cd 203e
00000220: 99f5 31be 6872 c7bd 3aec 793c a95f 433e
00000230: 67f6 3bbe a193 a4be 8479 be3e 54fc 53bd
00000240: 3db8 703d 279c fc3c 4a97 bbbd f8d2 703d
00000250: f40d 13bd dbb2 33be 2441 58bf 17fb 8d3e
00000260: 07d4 223e a6d0 163e d57c 353e 555b babe
00000270: 3ab8 2e3c aa85 41be 90cf dd3d 86e0 30bf
00000280: f7b6 fe3d 0aba 6f3d 5276 edbe 47eb 8e3e
00000290: e264 e1be 9083 21bd 7aa7 423e 1b93 253e
000002a0: 1607 12bf eab9 a2be 4d1b 5dbd c773 5d3d
000002b0: a2b9 4ebe 5d93 db3d 9b1b 283e 1a58 3d3e
000002c0: 1d09 5d3e 5171 213e 697e e83c a833 c9be
000002d0: bdf6 803c 0317 353e d009 21bd b422 893e
000002e0: 9676 043b 255b 42bc 2975 1ebd d9a2 b63b
000002f0: b70d f3bc a568 063e 0512 0b3e e049 f13d
00000300: 8488 813e 6fee f0be 8c24 1abe 4c23 053c
00000310: ccfa 803d a663 00bf 19b9 ccbe 68a0 8dbe
00000320: 4068 90be 7b5d c93e 505c a73d 52a5 0b3e
00000330: c35a d8be ea6b c6bd 93bc ebbe 39c3 b0bd
00000340: 54aa 583e dc03 673e ec4f ad3d c8a0 8a3e
00000350: 5cf1 513d 0353 5abe 1ac5 f6be 35d7 893b
00000360: aa89 99be f9f4 5b3e a926 333d 4aa0 8f3e
00000370: d260 8fbe f404 4e3e 3231 e63e acdb be3d
00000380: c36b 54be 59b5 f2bd dbb8 1e3e 5fed 923c
00000390: a6db 8fbe 8951 323e f823 5a3e ca9d 49bd
000003a0: 7173 993e 1169 ea3d c94a 0bbe c441 9a39
000003b0: 1c34 cd3d 447a 52bd 3956 373e 4746 a73d
000003c0: 78db 50bd 3bd2 69be 4e38 0bbd ab7f 1fbe
000003d0: dcf9 a73e 96ed 323d da15 8c3d c8a4 113e
000003e0: 5581 b0be de04 dc3d e2e6 83bc 39bc 4abd
000003f0: 3031 f0be 9d6e 4e3e 3418 233e a69a 0abf
0.16167933 0.06208552 -0.08153289 0.08270701 0.19538614 0.059904177 -0.06706042 0.24023943
0.109150924 -0.011482929 0.15756406 -0.35661906 0.23918688 0.23672242 0.25753334 0.0146504305
-0.20876056 0.15060283 0.28848344 0.068519905 -0.026117189 -0.28455105 -0.047188614 0.3383643
0.01359076 0.19906892 0.12757331 0.17825745 0.30613038 0.26100153 0.12522711 -0.06603277
0.1366206 0.29156357 0.055834096 0.17666008 0.32924658 0.15080018 0.1336561 0.20614679
-0.079812534 0.12777215 0.2814279 0.38833067 -0.19549285 0.20523055 -0.22363886 -0.0008505788
-0.5219323 0.19118144 0.071165495 0.20183828 0.020209555 0.0029619895 0.10220546 0.31496635
0.021536358 -0.41568494 -0.114901274 0.11204357 -0.057885982 0.04499662 0.2996466 0.08900589
-0.6977115 0.0491646 -0.2345569 0.13594897 -0.0945152 -0.035379373 0.07870868 -0.0003202488
0.18766344 0.16401789 0.40192348 0.011106025 -0.04282669 -0.26102307 0.06542945 -0.50744283
0.004523473 0.3058278 -0.15021898 -0.41814995 0.017459754 0.016590199 -0.116877034 0.29680806
-0.0068978937 0.15375249 -0.14284799 0.17285115 0.11367452 -0.68946165 0.03989239 -0.083095886
0.18260635 -0.20213984 0.20525813 0.050392743 0.032944247 0.14447801 0.13554652 0.32696447
-0.14074212 0.09017006 -0.025733225 0.26600277 0.16197759 -0.9415193 0.336795 0.065581255
0.00909819 0.2396491 0.036887843 0.061085455 0.30984622 -0.3039788 0.16186182 -0.080731325
-0.5142312 -0.5346147 0.43382218 0.17303824 0.024675712 0.101065785 -0.96775895 -0.42583212
0.1812714 -0.21247433 0.10562209 0.0052299704 0.022900065 0.25445205 0.17227182 0.15703331
-0.17378844 -0.09738618 0.015254075 0.1907946 -0.18355714 -0.32143882 0.37202084 -0.05175431
0.058769453 0.030836178 -0.091597155 0.058794945 -0.03590198 -0.17548697 -0.84474397 0.2773063
0.15901195 0.1472803 0.17723401 -0.36397806 0.01066404 -0.18898645 0.10830605 -0.69092596
0.124372415 0.05852703 -0.46379334 0.27913877 -0.4402228 -0.03943211 0.190092 0.16169398
-0.5704206 -0.31782466 -0.053981114 0.054065492 -0.20188001 0.10721467 0.1641678 0.1849064
0.21585508 0.15765883 0.02838059 -0.39297223 0.015742654 0.1768456 -0.039316 0.2678429
0.0020212284 -0.011862551 -0.03868595 0.005573612 -0.029669626 0.13125856 0.13581093 0.11781669
0.25299466 -0.4705691 -0.15053004 0.008126091 0.06297836 -0.5015205 -0.39984968 -0.27661443
-0.28204536 0.39329132 0.08171904 0.13637283 -0.42256746 -0.09688552 -0.46042308 -0.08630986
0.21158725 0.22560066 0.084625095 0.2707579 0.05125557 -0.21320729 -0.48197252 0.004206563
-0.29987842 0.21480168 0.04373804 0.28051978 -0.28003556 0.20119077 0.44959408 0.09319243
-0.20744233 -0.118509956 0.15500204 0.017935453 -0.28097266 0.17413916 0.21302783 -0.049222745
0.29970887 0.11445821 -0.13602747 0.00029422168 0.10019705 -0.051386133 0.17903985 0.08167701
-0.05099055 -0.22834103 -0.033989243 -0.15576045 0.32807815 0.04368361 0.06840105 0.14223015
-0.34473673 0.10743116 -0.016101304 -0.04949591 -0.46912527 0.20159383 0.15927202 -0.54142225

encoder.layers.1.linear2.bias f4 [5]
00000000: e3b4 e23d 3569 f23c 542d 923d ac6f 26be
00000010: 0648 00be
0.11069658 0.029591182 0.07137552 -0.16253537 -0.12527475

encoder.layers.1.norm1.weight f4 [5]
00000000: b8af 853f 2036 9a3f 38c5 7a3f be88 9a3f
00000010: e7b1 9f3f
1.044425 1.2047768 0.9795718 1.207298 1.2476166

encoder.layers.1.norm1.bias f4 [5]
00000000: e615 363b e388 953d 546f 0dbc 2517 2ebd
00000010: 1c2a ad3d
0.0027784049 0.073015 -0.0086325 -0.04250254 0.08455297

encoder.layers.1.norm2.weight f4 [5]
00000000: dcde 8e3f cb8b bb3f e5eb b33f e4e4 b23f
00000010: 904e 353f
1.1161761 1.4652036 1.4056364 1.3976102 0.70823

encoder.layers.1.norm2.bias f4 [5]
00000000: 94b8 85bc 555d 8e3d b8e1 0bbd d8d4 36be
00000010: c6aa 4dbe
-0.016323365 0.069513954 -0.03415081 -0.17854631 -0.20084676

encoder.layers.2.self_attn.in_proj_weight f4 [15, 5]
00000000: db99 f03e ef69 f53e f69f 033e 7914 69bd
00000010: 4037 f0be c162 cebe d15a b0bd a814 80be
00000020: d284 083f 1e19 0a3f 132a b83e ef99 e33e
00000030: c41e 193e b875 29bb 5028 f2be 18f1 24be
00000040: 5768 2cbf be0f f4be 00ee f4bd e9af 583f
00000050: 99e3 42be f317 503f e4c6 8e3f 2ad4 44be
00000060: d02c 233e efde e7bd 14e5 7f3f 58e7 023f
00000070: 82c4 6cbe eedd 45bd 045e 0ebf ab68 1e3d
00000080: ce6c b73e 8620 1abf 314b e93e c5e0 88be
00000090: 07a3 e9be 1144 81be 28fa 14be 3596 d7bd
000000a0: 64e7 3d3e 0d4f 50be bfd6 72bf 85db 653e
000000b0: 9ec9 12be 7e0f f1be 9b0c bd3e 5bd5 803f
000000c0: 6498 39bf 7fea 453c 4f0b c2be 4d9e 153f
000000d0: d38f 0d3e 0b3d 66be 3336 003e 11b2 79be
000000e0: 78d9 3dbe ad6a 30be 5435 063f 8b87 6c3e
000000f0: f7b4 cdbb 5ea0 4cbe f45a 043e c38d 32bf
00000100: e4e5 12bf 5345 6ebe ad9e 923e b6a4 4d3e
00000110: e6dc d63d ca75 74bd d5f0 1a3f bba3 09bd
00000120: 2a64 b03d 3f64 dc3d c802 113f
0.46992382 0.47932383 0.12853989 -0.05690429 -0.46917152 -0.40309718 -0.08611072 -0.2501576
0.5332767 0.53944576 0.359696 0.4445338 0.14953142 -0.002585752 -0.4729638 -0.16107595
-0.6734671 -0.4766826 -0.119594574 0.8464342 -0.19032134 0.81286544 1.1154447 -0.19221559
0.15935063 -0.11321818 0.9995892 0.5113425 -0.23121837 -0.04830735 -0.55612206 0.038674038
0.358252 -0.60205877 0.4556518 -0.26733986 -0.45632192 -0.25247243 -0.14548552 -0.105266966
0.185453 -0.20342655 -0.94858927 0.22447021 -0.14334723 -0.47082132 0.3692368 1.0065111
-0.72498155 0.012079834 -0.37899253 0.5844467 0.13824396 -0.22484224 0.12520675 -0.24384333
-0.18539989 -0.17228194 0.5242512 0.2309858 -0.006277676 -0.1998305 0.12925321 -0.6974756
-0.57382035 -0.23268633 0.28636685 0.20082363 0.10491352 -0.059682645 0.6052373 -0.03360341
0.08612855 0.10761308 0.5664487

encoder.layers.2.self_attn.in_proj_bias f4 [15]
00000000: 5ffc 503f ccaa 013f 92d6 87be 6547 c6be
00000010: 98e7 9fbe 8195 1aba 0fc0 d838 1e04 23ba
00000020: f73d fbb9 2546 c238 e481 973d b84c 2ebe
00000030: a45a 1e3e 1d86 453e 968b a3bd
0.8163509 0.5065124 -0.26530892 -0.38726345 -0.3123138 -0.00058969116 0.00010335456 -0.000621857
-0.00047920618 9.263706e-05 0.073978215 -0.17021453 0.15464264 0.19289441 -0.07985608

encoder.layers.2.self_attn.out_proj.weight f4 [5, 5]
00000000: da93 bfbe 627c bc3e 98a0 fb3e fc2e 42be
00000010: e761 963e 0082 943d 8688 0e3c fc48 7f3d
00000020: b12d b4be f140 5e3e 6e90 c63e 1738 163e
00000030: 564c f0bd ebb3 943e 1fa6 e3bd e688 833e
00000040: 01ef 9abe 93c4 0c3f 60d9 3cbe 9b05 d73e
00000050: b3df a63e 6a4a d3bd ca13 5b3e 5300 643b
00000060: 083c 673d
-0.3741749 0.36813647 0.4914596 -0.18963236 0.2937157 0.07251358 0.008699542 0.062325463
-0.3519111 0.2170446 0.38782066 0.14669834 -0.1173331 0.29043517 -0.111156695 0.25690383
-0.3026047 0.5498745 -0.18442297 0.41996464 0.32592544 -0.10316928 0.21394268 0.0034790232
0.056453735

encoder.layers.2.self_attn.out_proj.bias f4 [5]
00000000: d1ef 89bd 01d2 463d 261d afbd 20c1 f5bb
00000010: 2f67 34be
-0.067351945 0.04854012 -0.085504815 -0.007499829 -0.17617486
