results/nifty/doji/1/model_best.pt (torch, 675938 bytes, 90 tensors)

encoder.layers.0.self_attn.in_proj_weight f4 [18, 6]
000000 19 d6 d6 be b7 0e 3f be 94 ac e0 3b d7 2c c0 be
       -0.4196022 -0.18657957 0.0068565104 -0.3753421
000010 0c 76 53 bf 12 8d 52 bc 39 29 42 bf cf f6 46 bf
       -0.82602 -0.012851017 -0.7584415 -0.7772035
000020 44 e2 9d be 55 1e fb be 8f 14 5a bf 7d 50 49 bf
       -0.3083669 -0.4904658 -0.8518762 -0.7863844
000030 01 97 2f 3d 09 fb 50 be d6 f3 9a bd 37 39 a1 bd
       0.042868618 -0.20408262 -0.07566039 -0.07872241
000040 8d cb 43 be b0 ba f0 be 3c 34 9d be 9b c4 a4 be
       -0.19120617 -0.4701743 -0.30703914 -0.32181248
000050 0e 73 1a be e8 5a 74 3e e6 ca 1b bf 26 0b 39 3e
       -0.15082952 0.23862803 -0.60856473 0.18070659
000060 c2 53 ff 3e aa 35 3e 3e 76 94 55 be 7d c2 9e 3e
       0.4986859 0.18575159 -0.20857415 0.31007758
000070 11 f6 da 3e 9e f2 52 3f 54 0a 31 bb 10 3c bc 3e
       0.4276586 0.82401454 -0.0027014213 0.36764574
000080 3d ba 80 be 74 ef f1 3e 86 d2 95 3e 73 c6 25 3e
       -0.2514209 0.47253 0.2926218 0.16188984
000090 29 a0 ac be a8 d9 62 bf 1b 84 80 be d7 18 6f bc
       -0.33715943 -0.8861337 -0.25100788 -0.014593325
0000a0 90 9d b9 bb 8a 1f 7d 3e 21 9d ba be 1c 63 a4 be
       -0.005664535 0.24719062 -0.36448005 -0.32106864
0000b0 90 f6 55 bd af b9 35 bf 3f f3 f6 3e 36 00 cb 3e
       -0.052237093 -0.70986456 0.48232457 0.39648598
0000c0 82 22 ce 3e 2a 6c 84 bc c7 7e 8e be 73 52 8b bd
       0.40260702 -0.016164858 -0.27831098 -0.06802835
0000d0 94 10 4e 3e 65 3b 11 bf 58 9e 03 bd b4 ed 5f 3e
       0.20123512 -0.56731254 -0.03213343 0.2186802
0000e0 93 d5 26 be 5b 3c df be 30 63 a5 be 9c 1c 05 be
       -0.1629241 -0.43600735 -0.32302237 -0.12999195
0000f0 59 4d 08 bf 87 a7 86 be 40 91 04 bf e9 19 d6 3d
       -0.53243023 -0.26299688 -0.51784134 0.10454161
000100 3f cc 27 3d 3a 67 72 3e a6 4b 9d be 84 b3 e7 be
       0.04096627 0.2367219 -0.30721778 -0.45254147
000110 5d 72 cd be f3 5d 0d bf 85 bc d0 be fb aa 98 be
       -0.40126315 -0.5522148 -0.4076883 -0.29817948
000120 06 64 ca bb a0 c1 c8 3e b2 3d 03 bf 32 7b 8a 3e
       -0.0061764745 0.39210224 -0.51266015 0.27047116
000130 af 8c 39 3f 2f 5c 73 be c0 74 7a 3d c5 9e 73 3d
       0.7248029 -0.23765634 0.061146498 0.059477586
000140 6b 64 8b be 8c f8 ba 3e 51 0f 25 bf ef a3 6f 3e
       -0.2722505 0.3651775 -0.64476496 0.2340238
000150 5c 8b a6 be 7a 6c 4d 3d 4f 4c e1 3e 85 2e a7 3c
       -0.32528198 0.05015228 0.4400353 0.020407924
000160 69 7e 08 bf bd 43 d3 be b1 4f 00 bf 86 23 d0 3e
       -0.53317887 -0.41262618 -0.501216 0.40652102
000170 5f 59 7d 3e 4e b2 43 3e cd 6b 84 bd 6b f4 17 3e
       0.24741124 0.19110987 -0.06465874 0.14839332
000180 44 3b 0a 3e 6d 06 2f 3d 16 b5 5c 3e 98 67 91 be
       0.1349917 0.042730737 0.21553454 -0.28399348
000190 fc 4d 38 bf d9 7a c4 be c6 5f 25 be 3d 01 47 3d
       -0.71993995 -0.38374975 -0.16149816 0.048585165
0001a0 eb f0 44 3e 1a 7a fd 3e 4f 79 9c bd 80 94 83 be
       0.19232528 0.4950722 -0.07640325 -0.25699234

encoder.layers.0.self_attn.in_proj_bias f4 [18]
000000 3f fe 22 3d 70 19 cd bd 27 b7 a1 3e e6 ac 86 3e
       0.03979325 -0.100146174 0.31585047 0.26303786
000010 92 f5 3a bd 9c 50 ee 3d 1e 29 46 3b 04 4f 27 3c
       -0.04564435 0.11636469 0.003023691 0.01021171
000020 dc 4a a0 37 a8 94 17 b9 90 9d 0f bc c4 10 39 bc
       1.9108345e-05 -0.00014455861 -0.008765593 -0.011295501
000030 66 52 0a be 53 e2 56 bc 21 b1 f0 bc b4 3e 3a be
       -0.13507995 -0.013115483 -0.029381337 -0.18187982
000040 3d 80 f9 3d 32 59 14 be
       0.12182663 -0.1448715

encoder.layers.0.self_attn.out_proj.weight f4 [6, 6]
000000 27 6c af be 6d 3e 03 be d8 df 51 3e 99 32 8f 3e
       -0.342622 -0.12816782 0.20495546 0.2796829
000010 c7 32 08 3f c7 10 a1 be 0f 80 1b 3f c0 89 9a 3e
       0.5320248 -0.31458113 0.60742277 0.3018322
000020 c2 a8 a2 3d 61 9d a8 bd b2 0c a7 be 71 ae 3a 3e
       0.07942344 -0.08233143 -0.32626873 0.18230607
000030 37 85 4c 3e ec 08 00 3d a9 45 58 3e 42 ab 60 3e
       0.19972692 0.03125851 0.21120323 0.2194033
000040 36 84 9e be f2 d9 aa 3e 7b 2d 28 3d 69 36 e4 be
       -0.30960244 0.33369404 0.041059 -0.44572762
000050 7c dd 8d be 58 47 12 bd 49 f6 3a be 61 88 31 be
       -0.27708042 -0.03571257 -0.18258013 -0.1733718
000060 42 e3 58 be 13 85 d5 ba e5 85 84 bd 84 6c 45 be
       -0.21180442 -0.001629027 -0.06470851 -0.19279677
000070 72 f4 02 3e 17 8a a3 bd de 70 e0 bd 58 6b 99 bd
       0.12788561 -0.07985323 -0.10959028 -0.07491177
000080 41 a1 c3 3e 10 a8 a1 3e 42 05 8a 3e 41 be a5 be
       0.38208964 0.31573534 0.26957136 -0.32371715

encoder.layers.0.self_attn.out_proj.bias f4 [6]
000000 af 90 09 bd d3 3f 00 be 59 a6 e5 bd b8 a4 1d be
       -0.033585247 -0.12524347 -0.11213369 -0.15394866
000010 90 36 be 3d 56 a2 8f 3d
       0.09287751 0.07013385

encoder.layers.0.linear1.weight f4 [2048, 6]
000000 b4 04 e5 3d 91 bd 5e 3e 38 fc bf 3d 83 da 75 3d
       0.11182538 0.21752001 0.09374279 0.060022842
000010 ce a8 d5 be 45 27 b5 bd 8c cb 48 3c 0e 71 89 3c
       -0.4173035 -0.08845381 0.012255561 0.016777541
000020 37 c1 01 3f bc 25 53 bd d0 28 2c bf 62 bc 50 3c
       0.5068545 -0.05154966 -0.67249775 0.012740226
000030 6b 88 cf 3e bd 77 0d 3f 76 f3 9d 3e ff 0b 8c 3e
       0.40533766 0.5526083 0.30849808 0.27352902
000040 6a 8d be be 5c eb 9c 3d e8 93 99 bc d3 8d 07 3d
       -0.37217265 0.07662079 -0.018747285 0.03309424
000050 b7 af c4 be b1 ec 10 3f 68 dd e2 3e a6 1f ac be
       -0.3841531 0.5661116 0.44309545 -0.33617896
000060 3d 66 2d be a1 5c 56 3e ce a5 6d be fd 8e f5 bc
       -0.16933532 0.20933773 -0.2320778 -0.029975409
000070 88 6c 29 be b7 3a 9f bd da 37 95 be 4d d5 b7 3d
       -0.16545308 -0.07774871 -0.29144174 0.08976231
000080 dd b1 2b be a3 7c fe 3e 37 41 a0 bb c3 98 89 be
       -0.16767068 0.49704465 -0.0048905867 -0.2687436
000090 89 cb 07 3d 08 3f b8 3e 7e b8 e2 3c 8a 49 9e 3e
       0.03315309 0.3598559 0.027675863 0.3091548
0000a0 8e bb 39 be 5f 72 c1 bd c0 5b 89 bd 1c 86 c4 3d
       -0.18137953 -0.09445643 -0.06706953 0.09595892
0000b0 ad e7 28 be 20 1b 56 be 44 e4 5a bd 61 13 16 be
       -0.16494627 -0.20908785 -0.053440347 -0.1465583
0000c0 e9 17 4c be 0a a9 88 3d 16 7c 8c bd 2b 69 b0 be
       -0.19930996 0.06672867 -0.06859605 -0.34455237
0000d0 52 ef 88 3e d2 a6 f8 3e 97 88 08 be 43 70 be 3e
       0.26745087 0.48564774 -0.13333355 0.37195024
0000e0 d7 c2 db 3e 77 e7 8a 3e 4a 52 00 bf f4 10 6f 3d
       0.42922089 0.2712972 -0.50125563 0.058365777
0000f0 ed 6d f0 bd e1 63 88 be 12 a8 94 be 79 e0 9e 3e
       -0.11739717 -0.26638702 -0.29034477 0.31030634
000100 34 b7 1d 3d a4 48 8d be a6 3e 28 3d 00 8b 80 3d
       0.038504794 -0.27594483 0.04107537 0.06276512
000110 b2 1d 08 be ff fa 2d be f7 f9 b3 bd 1d de 0f be
       -0.13292578 -0.16990279 -0.087879114 -0.14049573
000120 43 8c 0f 3d c0 f1 17 3e c3 87 b1 bb 8a 7e 29 3e
       0.035045873 0.14838314 -0.0054177954 0.16552177
000130 5f a0 8d be 40 9b 33 be 63 80 99 be af 06 8d 3e
       -0.27661416 -0.17539692 -0.29980764 0.27544162
000140 71 75 c9 3e 4e 97 f5 3e d0 c5 98 be 90 a2 3b be
       0.39347413 0.47967 -0.2983842 -0.18323731
000150 24 92 42 3e 99 7c 9a bd d5 2b 56 3d af d2 a9 be
       0.1900106 -0.07543296 0.052287895 -0.3316855
000160 4e 64 6c 3e 56 46 bb bd 70 d3 59 3e 50 21 7a be
       0.23085138 -0.09144275 0.21272063 -0.2442677
000170 ae 3b 90 be 0d 12 8e bd 71 46 9a bd 24 49 58 3e
       -0.28170532 -0.06937037 -0.07532967 0.21121651
000180 6f d1 0f 3e 44 0a 0a 3e f2 f6 72 bd 96 b1 ae bd
       0.14044736 0.13480479 -0.059317537 -0.085299656
000190 95 0a 56 be 72 bf 24 be ac 93 af be 39 d8 46 be
       -0.20902474 -0.16088656 -0.34292352 -0.1941842
0001a0 07 61 c3 bc 07 bb 03 be dd 20 57 bd f3 43 83 bd
       -0.023849977 -0.12864314 -0.052521575 -0.06409445
0001b0 0e 68 c4 be 8d bf dd be 52 57 6e be d3 e3 06 be
       -0.38360637 -0.43310204 -0.23275498 -0.13172846
0001c0 a4 07 e7 3e 1b d9 5a 3e 9e 85 08 3f e3 4b 85 bd
       0.45123017 0.21371882 0.53328884 -0.06508615
0001d0 7d d4 be 3c e7 89 e3 3e db f3 f6 be 58 73 ca 3e
       0.023294682 0.4444115 -0.48232922 0.39541125
0001e0 a0 2a 8d be a7 82 95 bd c2 32 03 3e 8e d2 3f bf
       -0.27571583 -0.073003106 0.12812331 -0.74930656
0001f0 75 e4 5f 3e b0 b7 d4 be d1 66 e2 be f8 e3 a0 bb
       0.21864493 -0.41546392 -0.44219068 -0.0049099885
000200 37 ee fd 3d c8 f8 d6 be 8c 98 12 3f 68 b5 c6 3e
       0.123989515 -0.4198668 0.5726402 0.38810277
000210 97 16 cf be 78 e2 05 3e 2b e1 86 be 0c fc 73 be
       -0.40446922 0.13074672 -0.26343665 -0.23826617
000220 fe 63 57 3e 18 ab 25 3e df cc 21 bd ad b7 ba bd
       0.21034238 0.16178548 -0.03950202 -0.091170646
000230 82 15 48 be 7d df 0c bf bc 7e 85 be 1e 55 82 3e
       -0.19539455 -0.55028516 -0.26073253 0.25455564
000240 3c a8 d4 be 6f 73 88 3e b0 ee 93 bd 13 21 01 bf
       -0.41534603 0.2665057 -0.072232604 -0.5044109
000250 90 2e 07 3f 8f 13 ea 3e 02 47 87 be f7 9a 68 be
       0.52805424 0.45718047 -0.26421362 -0.22715364
000260 bd 79 28 3e e2 23 84 3d 2c 32 91 3d 3a 22 94 bd
       0.1645269 0.064521566 0.07089648 -0.07233091
000270 14 9c 71 be b2 0b e3 3e 95 12 eb bb 9a 58 d4 3e
       -0.23594695 0.4434486 -0.007173846 0.41473848
000280 24 cb f8 be cf 60 8f be eb ab c9 3e a8 78 a9 3e
       -0.48592484 -0.28003547 0.39388976 0.33099866
000290 19 55 c5 be d5 78 d4 be 9e 0f ad 3e 07 74 30 3f
       -0.38541487 -0.41498438 0.33800977 0.68927044
0002a0 45 af 7e bd 19 aa fa 3c 4f 01 3b 3e ba d2 88 3d
       -0.06217887 0.030598687 0.18262218 0.06680818
0002b0 8d d7 cb 3d c1 ef 5e 3d 03 fa c6 be 73 89 8b 3d
       0.099532224 0.054427866 -0.3886262 0.06813326
0002c0 a3 dc b5 3d ab 4e b1 3c 18 e9 b6 3d 71 65 03 be
       0.08879974 0.021643957 0.08931178 -0.12831666
0002d0 e7 17 69 3e 4b 49 7b bd 75 69 f6 bc 8a ef 62 bd
       0.22763024 -0.061349194 -0.030079583 -0.055404224
0002e0 5d 35 13 3e a2 d3 a3 3d e9 6e 8e 3d 97 02 15 3f
       0.14375825 0.0799935 0.06954748 0.58207077
0002f0 a9 bc 18 be 84 07 d1 3e 3b d4 b8 be 50 37 d2 bc
       -0.14915718 0.40826046 -0.3609942 -0.02566114
000300 74 3c 98 3e 1b 31 53 3e 6c c9 09 3f dc 06 04 3f
       0.29733622 0.20624201 0.5382297 0.51572967
000310 33 8b b2 be f4 24 5b 3d 9b aa ff bd 13 60 9d bd
       -0.34871826 0.053502038 -0.12483712 -0.0768434
000320 54 cd 6a 3e cb ae 53 be 20 ea a7 3d 08 03 a3 be
       0.22929889 -0.20672147 0.08198953 -0.3183825
000330 bd 5f 3c 3d 8f 2c 98 be 74 b0 1c 3e b4 f9 93 be
       0.04598974 -0.29721496 0.15301687 -0.28901446
000340 1a 8e 09 bc 6a b7 69 be 15 f4 f7 3d aa 2b 4e bd
       -0.008395696 -0.22823873 0.12107102 -0.05033461
000350 68 a0 a7 be 15 8f 86 be 9e e7 95 3e 2f cc 17 3f
       -0.32739568 -0.26281038 0.29278272 0.59295934
000360 a7 5e 2a be 6c 47 67 3e b4 21 3b 3e 1d 60 eb 3e
       -0.1663767 0.22585839 0.18274575 0.45971766
000370 66 1d 38 be 2f 07 29 be a9 2f d3 3d a1 99 17 3d
       -0.17979965 -0.16506647 0.10311825 0.037011746
000380 fb 1a 6a 3e 81 c4 02 bf 3e f7 cc 3d bc 1d be be
       0.22861855 -0.5108109 0.10008095 -0.3713206
000390 f7 d3 93 be 2f ed 97 3e 9e ad d8 3e 88 b9 0c 3f
       -0.28872654 0.29673144 0.4231996 0.549706
0003a0 2e 5a 17 be 03 75 6e bd ad 9a cf be a9 48 b7 be
       -0.14780495 -0.05821706 -0.40547696 -0.35797623
0003b0 61 1d ea be 8e ee 23 be 60 6b 2d 3e 00 2c 78 3e
       -0.4572554 -0.1600897 0.16935492 0.24235535
0003c0 69 5c 40 bd cd 14 dd 3e 59 b6 19 3f 80 80 87 3e
       -0.04696313 0.43179932 0.60043865 0.26465225
0003d0 27 59 eb be 51 39 00 3e 70 d0 52 3e 62 0a 0a 3f
       -0.45966455 0.12521864 0.20587325 0.5392209
0003e0 cf b4 63 bd e9 d5 16 3f 9f 82 8e be 61 e7 11 be
       -0.055592354 0.5892015 -0.2783403 -0.1424842
0003f0 c0 aa c4 be 40 c0 b9 be 92 5a 89 be b4 1e c4 bc
       -0.38411522 -0.36279488 -0.26826912 -0.023940422

encoder.layers.0.linear1.bias f4 [2048]
000000 27 a6 39 3d d8 aa 5b be 57 c6 64 bb 17 3a 85 be
       0.04532447 -0.2145189 -0.0034908259 -0.26020882
000010 ee 3f 4e bc 7f 82 76 bd 1f 15 45 be d7 9b 25 be
       -0.012588484 -0.060183045 -0.19246338 -0.1617273
000020 b0 d8 72 3d 36 9b 41 bd 52 95 08 3e 68 28 22 be
       0.05928868 -0.04726716 0.13338211 -0.15835726
000030 1c 86 4a be 7c 67 57 be d9 d0 d8 be b6 95 30 3e
       -0.19777721 -0.2103557 -0.42346838 0.1724461
000040 4a 2f a6 be f8 b6 d8 be 73 3f 39 3e fc e2 eb 3c
       -0.32457954 -0.42327094 0.1809061 0.028794758
000050 9f da 20 3e 32 57 82 be d4 9a d5 3d 5a c4 8f be
       0.15708397 -0.2545715 0.10429922 -0.28079492
000060 8c 22 03 3c 78 39 64 be 14 3e 9e be 46 bd 0f be
       0.008003842 -0.22287548 -0.30906737 -0.14037046
000070 99 ac a9 be 25 14 6b be 9c 08 1e bf 73 7b 66 3e
       -0.33139494 -0.22956903 -0.61731887 0.2250803
000080 9e 87 94 3e 46 69 28 bc fb d1 e1 be a2 21 1f be
       0.29009718 -0.010279005 -0.44105515 -0.15540174
000090 59 8e cf be e4 26 61 be 4e 6c ba bd d0 5e bc be
       -0.4053829 -0.21987492 -0.09102689 -0.36791086
0000a0 b3 86 b1 bd 43 d0 92 3d e3 86 d2 be ab 8b 83 be
       -0.0866827 0.07168629 -0.41118535 -0.25692496
0000b0 5b e7 d2 be 5e ed f0 3c d9 f9 1e 3d c6 ff 0b be
       -0.41192135 0.02941006 0.038812492 -0.13671789
0000c0 b1 69 bc bc 45 db d7 3d c8 ad ac be 3f 8b 2a 3d
       -0.022999616 0.10539869 -0.33726335 0.0416367
0000d0 49 9c 97 be 01 a1 35 be d4 3a da 3d 29 76 54 3e
       -0.29611424 -0.177372 0.10655752 0.207482
0000e0 c1 21 d0 bd 3d 55 5e 3d 60 f0 33 3d 5e 93 53 be
       -0.10162688 0.05428051 0.04393041 -0.20661685
0000f0 f8 b2 93 bd dc 1b ca 3e 64 32 72 bc 19 c3 7b bd
       -0.0721187 0.3947438 -0.014782522 -0.061465356
000100 da 0f 53 3e 4a fb 30 3e 72 a0 9a 3e b4 a5 83 be
       0.20611516 0.17283359 0.30200535 -0.2571236
000110 4c 07 3f bd b6 2e 7a be 92 a8 93 3d 1a 94 92 3c
       -0.04663782 -0.24431881 0.072098866 0.017892886
000120 d7 ac 64 3e 40 35 78 3d f2 34 06 be fc 0a 83 3e
       0.22331558 0.06059766 -0.13106135 0.25594318
000130 90 36 b3 be 9f 49 87 be b6 f6 86 bd ee e6 7d 3e
       -0.35002565 -0.26423356 -0.06590025 0.24795124
000140 1a 82 57 3e 14 73 c4 bd 68 36 c9 be 35 42 7b be
       0.21045724 -0.09592262 -0.3929932 -0.24536975
000150 ac 6c 98 bd a1 01 7f 3e 8b cc 03 bf 76 0a a1 bd
       -0.074426025 0.24902965 -0.5148398 -0.078633234
000160 47 d9 af 3e fb dd ac 3e 09 1e 84 3e 41 17 df be
       0.34345457 0.33763108 0.25804165 -0.4357243
000170 bc 06 ac be 39 83 cf be 2d 1d c0 bb 8d 33 57 3e
       -0.33598888 -0.40529802 -0.005862853 0.21015759
000180 64 84 c3 3d 9f 94 33 be 66 ac 97 be b4 48 4c 3e
       0.09546736 -0.17537163 -0.29623717 0.19949609
000190 f5 c6 bc be f3 18 3b 3e eb 99 ff 3d 22 8a dc bd
       -0.36870542 0.18271236 0.124805294 -0.10768534
0001a0 a5 8b c3 3e ed a6 af be 61 8e 12 be b2 d5 27 3e
       0.38192478 -0.34307042 -0.14312126 0.16390112
0001b0 e1 ef d4 3d e1 fb 1a be 87 c7 95 be c8 12 45 3e
       0.10397316 -0.15135147 -0.2925379 0.19245446
0001c0 6f ea b9 be 69 f8 f8 bd c0 57 52 be 53 7d 80 be
       -0.3631167 -0.121567555 -0.20541286 -0.25095615
0001d0 8a a5 a1 be 57 0a 1e be ce 12 5b bc 70 c8 f2 be
       -0.3157161 -0.15433632 -0.013371183 -0.47418547
0001e0 4f fc d6 3e 2d bd be bb e2 bb ab 3e 06 97 3b bd
       0.4198937 -0.0058208914 0.3354178 -0.045798324
0001f0 44 05 05 be 75 89 1b 3e e1 a8 b9 bd d2 3c 83 be
       -0.1299029 0.15189154 -0.09065414 -0.2563234
000200 b8 76 d1 be 1e 90 1f 3e 49 33 e0 3d cd 75 6a 3e
       -0.40910888 0.1558232 0.10947282 0.228965
000210 8b 3f fb bd a3 fe 4b be a9 5d 0f be f7 83 82 be
       -0.12267979 -0.19921355 -0.14000572 -0.25491306
000220 49 54 76 be 74 cb 85 3e 67 88 a9 3d a9 d0 4c 3e
       -0.2405559 0.26131785 0.0827797 0.20001473
000230 17 a0 cd be a4 3e 3c be c9 d9 05 be c7 8d d2 3e
       -0.401612 -0.1838327 -0.1307136 0.41123793
000240 9c 3f f2 be bc 25 80 be 2a 5d d6 be 65 22 57 3e
       -0.47314155 -0.2502879 -0.41867954 0.21009214
000250 a1 2c ca 3d 4b 7e e3 be ce 3e 52 3d 25 6f 94 bd
       0.098717935 -0.4443229 0.051329426 -0.07247762
000260 9f 73 ac 3c a2 b0 70 bd 90 ac f3 bd d8 3c 4e be
       0.021051226 -0.0587622 -0.11898148 -0.20140398
000270 bb 25 00 be 2a 0f 15 3e 0b 1b 9e be e0 5a 0b bf
       -0.12514393 0.14556566 -0.30880007 -0.5443554
000280 40 65 19 bf 3f 6d 2c 3e 54 6a a5 bd 91 f7 90 3e
       -0.5992012 0.16838549 -0.08076921 0.28313878
000290 d5 d3 24 3e f4 4a 00 bd 7a 71 b8 bd 3f 8f 95 be
       0.16096433 -0.03132148 -0.09006019 -0.2921085
0002a0 8a 0d 18 be 13 7f f3 3c e4 38 19 3d 8e 04 cc 3d
       -0.14848915 0.02972368 0.03740777 0.09961806
0002b0 9e b6 9e 3d 48 18 57 bd fd f9 50 be ae d5 57 3d
       0.07749675 -0.05251339 -0.20407863 0.052694015
0002c0 00 2b 7a 3d 00 e6 7a 3e 8d 18 a7 3d 9f 3b 85 be
       0.061076164 0.245018 0.081589796 -0.2602205
0002d0 6e 85 dc 3d 1b 37 b9 3d aa 4c ba bd 4e 9f 7d be
       0.10767637 0.09043714 -0.09096654 -0.24767801
0002e0 00 62 34 be 61 09 9a be d7 20 89 be ac 14 82 bb
       -0.17615509 -0.3008528 -0.26782867 -0.0039697494
0002f0 b1 9b 6a be d9 2e 08 be 1b 59 76 bd a6 f8 75 be
       -0.22910954 -0.13299121 -0.06014357 -0.24020633
000300 f8 ac fa 3d 35 14 d7 3e eb 8b cc 3d fc ac d7 be
       0.122400224 0.42007604 0.09987625 -0.42124164
000310 41 54 06 3e 05 b1 6f be de c4 a5 bd ef df 74 bd
       0.13118078 -0.23407371 -0.0809419 -0.059783872
000320 47 98 44 3e 92 2b b6 be cd 8d 51 be 3e f1 15 be
       0.19198714 -0.35580117 -0.20464249 -0.14642808
000330 0d 18 74 bd 23 cc ab be 92 96 9b bb e1 5b 35 be
       -0.05959325 -0.3355418 -0.004748174 -0.1771083
000340 0f ef 81 bd 4d fe 60 be 05 1b 96 be 93 6b b3 3e
       -0.06344425 -0.21972008 -0.2931749 0.3504301
000350 63 2a 23 be b2 8e 1f be a5 56 c5 be 22 a8 67 be
       -0.15934138 -0.15581778 -0.38542667 -0.22622731
000360 f4 f9 3c 3e 4b ae f2 3d 02 08 09 3e af 46 03 3e
       0.18454725 0.1184965 0.13381961 0.12819932
000370 d1 9e f2 bd de 09 36 be 7e a5 89 3e 52 4d ca bd
       -0.11846698 -0.17777202 0.26884073 -0.09878029
000380 e6 f6 ad be 74 bb 4e be 67 d4 e8 3d 5a 96 51 3e
       -0.3397743 -0.20188695 0.113686375 0.20467511
000390 b4 bd 85 3e 20 0b 46 3e 90 27 9a bd c8 85 34 3e
       0.26121294 0.19340181 -0.07527077 0.17629158
0003a0 0d d3 03 3d 4d 60 1b be c3 28 da ba e2 1e e1 bc
       0.032183696 -0.15173455 -0.0016644228 -0.027480546
0003b0 ae 7a 87 be a0 47 61 3e c2 d6 ca be df 95 9f bd
       -0.26460785 0.21999979 -0.39616972 -0.077922575
0003c0 80 9d 85 bc 68 31 44 be 11 9f 2f 3d cb 90 bd bd
       -0.016310453 -0.19159472 0.042876307 -0.09256133
0003d0 f0 58 bb bd 38 52 a2 3e 54 f1 7f be 47 64 45 3d
       -0.09147823 0.31703353 -0.24994403 0.048191335
0003e0 41 7d 28 be fe 2e eb be 84 4b 6e 3e a7 a8 0e be
       -0.1645403 -0.4593429 0.23270994 -0.13931523
0003f0 67 ab 80 bd 2e ab 3e be ac 5a 2c 3d ae 89 5b 3e
       -0.062826924 -0.18619987 0.04207866 0.2143924

encoder.layers.0.linear2.weight f4 [6, 2048]
000000 29 4e dc bd 1b af 21 be ae f2 be 3d a8 5e 81 bd
       -0.10757095 -0.15789454 0.09323631 -0.06316882
000010 a1 59 25 3d 35 11 ac 3d b2 d9 71 3e eb 77 f4 3c
       0.04036868 0.084017195 0.236182 0.029842338
000020 5f f4 86 bd f1 93 5a 3e de 19 bc bd 30 e5 b7 bc
       -0.06589579 0.21345498 -0.09184621 -0.022448152
000030 4c a5 7e 3d 75 79 be 3e 79 7b ba bd 42 09 5e be
       0.062169358 0.3720204 -0.09105582 -0.21683219
000040 11 c3 d1 3d 11 c1 b6 3c 26 ba 26 3e 20 d3 e2 be
       0.10242284 0.022308858 0.16281947 -0.443017
000050 3a af 73 bd 3f 4c 91 3e c8 65 fa 3a a3 88 1d be
       -0.05949328 0.28378484 0.001910382 -0.15384154
000060 1c 89 31 3c 58 b0 bc bd 52 09 e1 3e 33 b5 5a be
       0.010835912 -0.092133224 0.43952423 -0.21358185
000070 94 49 ab bc 68 c6 44 3d 92 f1 dc bc 7a 7d c2 bc
       -0.020909108 0.048040777 -0.026970658 -0.023741473
000080 b9 c9 72 bb e1 14 69 3d ff 7d af 3c f1 d1 dd bd
       -0.0037046506 0.056904677 0.021422384 -0.10831059
000090 37 4a d0 3e 52 04 57 bd 9d 57 ca 3e da e3 ff 3e
       0.4068162 -0.052494355 0.3951997 0.49978524
0000a0 51 14 bb bb 48 aa 51 3d e7 0c ef 3e 74 74 97 be
       -0.005709209 0.051187783 0.4668953 -0.29581034
0000b0 02 e9 78 be 43 8c c7 3c 21 ab a3 bd e3 c5 23 3d
       -0.24307635 0.024358874 -0.079916246 0.03998364
0000c0 b0 52 1c be 00 69 f2 3d d8 5a 80 3d 0a af b9 3d
       -0.15265918 0.118364334 0.06267327 0.09066589
0000d0 30 94 87 be 55 c7 b2 3d bc 33 34 bd 87 f2 2d bd
       -0.26480246 0.08729426 -0.04399465 -0.04246762
0000e0 dc 8f ae bc 9a e8 d7 bb ea d5 21 be 71 5b 09 be
       -0.021308832 -0.0065890076 -0.15804258 -0.13413788
0000f0 54 eb 58 bd e0 80 8b bd c2 e2 5a 3e 8d 87 a0 bd
       -0.0529588 -0.0681169 0.21375564 -0.07838354
000100 77 81 17 be ad ca 33 3e 9a 95 b9 3d 78 24 80 3e
       -0.1479548 0.17557783 0.09061737 0.25027823
000110 82 05 11 be d9 a9 bb be bd 67 4a bd 2a b8 3b 3c
       -0.14162257 -0.3665302 -0.04941534 0.011457482
000120 c0 26 7d 3d 7e 8d fe 3c a1 84 25 be 7d 00 18 3e
       0.061804533 0.031073328 -0.16163875 0.14843936
000130 67 dd 89 bd 0b 90 33 bd 00 95 92 be c0 aa db 3c
       -0.06731682 -0.043838542 -0.28629303 0.026814818
000140 45 07 a6 be fa cf 9e 3d eb d7 92 bd 8b 84 e7 bd
       -0.3242742 0.07754512 -0.07170089 -0.113045774
000150 0e 29 e3 bd 16 69 5b bd ad 08 6f 3e b1 58 15 3e
       -0.11091815 -0.053567015 0.23343153 0.14584614
000160 27 6b fd 3c 01 ef 29 be 8c b2 23 bd e8 14 46 3c
       0.030934883 -0.16595079 -0.039965197 0.012089945
000170 37 ed 94 3d 9d 11 00 bd d7 8d e2 bd 5f 07 4c 3d
       0.07271808 -0.031266797 -0.1106221 0.049811717
000180 2b fe f9 bd 7e d1 22 bf a7 0a 69 be 1d 9e 5b bd
       -0.12206682 -0.6360091 -0.2275797 -0.053617585
000190 d3 2f e0 3e 83 64 c8 bd 96 a9 0d 3e 9d 8b fe 3d
       0.43786487 -0.09784796 0.13834223 0.12428973
0001a0 7c 20 4f bc f6 2c c9 bd 81 97 c1 bd 9b b4 81 3c
       -0.012642022 -0.09823029 -0.09452725 0.01583319
0001b0 c9 5e 6f be 17 19 8f 3d 79 76 d5 bd 57 fa 34 3e
       -0.23376001 0.069872074 -0.104229875 0.17673622
0001c0 ac 1f 93 be 4f 94 53 3e 2d 63 23 be 55 a8 99 3e
       -0.287351 0.20662044 -0.15955801 0.3001124
0001d0 8f 31 90 3b 1e 25 db 3d 2a 09 ec 3b 21 19 45 be
       0.004400439 0.10700439 0.007203241 -0.19247867
0001e0 57 45 88 be 55 ed 0e be 4a 1b ab bd 94 ea 13 be
       -0.26615402 -0.13957722 -0.08354814 -0.14444953
0001f0 7d d8 52 bc 9c 6f e9 bc a4 e0 ba bd d0 5b 57 bc
       -0.012868998 -0.028495602 -0.09124878 -0.013144448
000200 af 36 b5 be ba 4c 2e 3e f8 99 bb bd 0d 81 a7 3e
       -0.35393283 0.17021456 -0.091602266 0.32715645
000210 35 b4 88 3d 2c 13 bf 3a 46 e4 ad 3d 41 46 d8 be
       0.06674997 0.0014577857 0.08490805 -0.422411
000220 59 fd e7 3d 9d dc 20 3e 8a 45 18 3e 2b 6c b7 bd
       0.11327619 0.15709157 0.14870277 -0.08956178
000230 4d 56 f3 bd e4 cb ae bd 91 c1 05 bd d9 1f 46 3e
       -0.11881695 -0.08534983 -0.032655302 0.19348086
000240 be 7f 0a be 6c ba f5 bd ee 78 ad bd 14 f4 3b be
       -0.13525292 -0.11998448 -0.08470331 -0.18354827
000250 06 44 47 bd 8e b6 aa be 42 16 58 bc 37 a1 ab 3e
       -0.048648857 -0.33342403 -0.0131889 0.33521435
000260 da 71 9a bd ac 9a 99 bd a0 5a b4 3e 0f 6e fb bd
       -0.07541247 -0.075002044 0.3522539 -0.122768514
000270 12 48 43 bd f1 18 13 3d db 55 4c 3e cc 50 81 3d
       -0.047676153 0.035912458 0.19954626 0.06314239
000280 67 0f 07 bf 6f 16 4c 3c e6 e9 e7 bc 14 eb a0 bc
       -0.5275788 0.01245652 -0.028309774 -0.019643344
000290 5f c1 ec 3d 9a c6 25 3e b8 f7 db bd 82 34 bf 3c
       0.1156032 0.16189042 -0.10740608 0.023340467
0002a0 3c 45 b6 bd 15 7d 14 be 02 3a 43 bd 84 7a e0 bd
       -0.08899924 -0.1450084 -0.047662742 -0.10960868
0002b0 e5 42 0a be 85 15 1d bd 41 4d e6 3d 64 02 60 bd
       -0.1350208 -0.0383506 0.11245204 -0.05468978
0002c0 f7 5c ff 3e 37 79 b2 bc 0b 81 86 3d 5a ff 69 3e
       0.49875614 -0.021786315 0.06567582 0.22851315
0002d0 7f ce 90 bd 7b 3e c0 3c cd 55 3b be 80 31 aa 3e
       -0.07070636 0.023467293 -0.18294449 0.3324089
0002e0 44 f8 ae bc d3 51 7b 3d 34 44 c7 3d 3d cd df 3d
       -0.021358617 0.06135733 0.097298056 0.10927818
0002f0 56 c6 00 3d 79 5b 35 bd 6b 6a 1d 3d 75 ec fa bd
       0.031439148 -0.04427669 0.038431566 -0.12252132
000300 4c 31 e2 bd af 44 6c bc f8 ae 66 bd 5e 68 c0 be
       -0.11044559 -0.014420672 -0.056319207 -0.37579626
000310 9e 4f 43 3e bc f8 b6 bd e3 8e 17 be 0e 92 8e 3d
       0.1907334 -0.08934161 -0.148006 0.069614515
000320 c0 d8 c0 bd c3 f9 57 b9 82 18 55 bc 64 fc 1a be
       -0.09416342 -0.00020597041 -0.013006331 -0.15135342
000330 7d f1 a2 bd d8 05 eb 3e 05 59 27 be c3 d5 b3 3e
       -0.079562165 0.45902896 -0.16342552 0.35124025
000340 22 20 01 3d 70 5b 4e bd 59 61 e3 bd 7f 93 de bd
       0.031524785 -0.05038017 -0.11102552 -0.108679764
000350 93 a3 02 bc 75 02 d4 3e 35 f0 12 3e a9 13 f6 bb
       -0.007973569 0.41408125 0.14349444 -0.007509668
000360 55 f7 86 3e f5 9d c3 bc 31 3f 04 3e ce cd 41 3e
       0.26360574 -0.02387903 0.1291473 0.18926165
000370 d2 f6 27 be c6 57 5d 3e 5c 44 0f be 9d 6b 44 bd
       -0.16402748 0.21615514 -0.13990921 -0.04795419
000380 f6 bb 7b 3e f8 5e 8a 3d 83 b3 6a 3e e3 13 74 3d
       0.2458342 0.06756395 0.22920041 0.059589278
000390 a2 a5 d3 3d 10 34 87 3c 29 ad 15 be fc 21 27 be
       0.10334326 0.016504318 -0.14616837 -0.16321558
0003a0 20 f0 cc bd 4d a5 83 3c f0 e1 68 bd b4 78 9c bd
       -0.10006738 0.016070032 -0.056856096 -0.0764021
0003b0 70 73 f5 3e 15 51 28 3e 7f 96 fa bd cf c3 4b 3e
       0.47939634 0.1643718 -0.12235736 0.19898914
0003c0 5d f1 36 bd dd da 74 3e 35 57 31 3e 40 59 a4 3e
       -0.044663776 0.23911615 0.17318423 0.32099342
0003d0 4e df 18 be 24 da 76 3d e3 56 7d be 98 05 bf 3c
       -0.14928934 0.06026663 -0.24740176 0.023318097
0003e0 c1 ab 08 3f 8a 6b 96 bd 1d c3 ec be 4f 40 3a bd
       0.53387076 -0.0734473 -0.4624261 -0.045471486
0003f0 ab 66 5a 3d 88 02 26 bd a7 86 55 3e 3e 5a 13 be
       0.053320568 -0.040529758 0.20852147 -0.14389893

encoder.layers.0.linear2.bias f4 [6]
000000 72 5e 00 be 33 3d 90 3c 89 10 8a 3d 76 90 30 3e
       -0.12536028 0.017607307 0.06741435 0.17242607
000010 59 91 f9 bd ee a6 0f 3d
       -0.12185926 0.035071306

encoder.layers.0.norm1.weight f4 [6]
000000 82 5a 28 3f aa 43 89 3f 4a e1 75 3f 4b a3 a4 3f
       0.65763104 1.0723774 0.9604689 1.2862333
000010 b7 24 94 3f 6b 1a 87 3f
       1.1573704 1.0554937

encoder.layers.0.norm1.bias f4 [6]
000000 a5 e8 00 3e b3 4a 8f 3c c5 45 8b bd 94 db 44 3b
       0.12588747 0.017491674 -0.06800417 0.0030038105
000010 8f de 93 bc 24 24 5b 3d
       -0.01805046 0.053501263

encoder.layers.0.norm2.weight f4 [6]
000000 c4 9d 6a 3f 77 b6 8e 3f 1b 4c 6c 3f 8d 2f 82 3f
       0.9164698 1.1149434 0.9230363 1.0170761
000010 16 db 80 3f 01 15 8e 3f
       1.006686 1.110016

encoder.layers.0.norm2.bias f4 [6]
000000 6b 61 2f 3e 19 24 2e bc 6d e6 f7 bc a0 97 8f bc
       0.17127006 -0.010628724 -0.030261243 -0.017528355
000010 33 94 95 3c eb a3 e2 bd
       0.018259143 -0.11066421

encoder.layers.1.self_attn.in_proj_weight f4 [18, 6]
000000 c8 ac f2 be d6 42 0c bd fb 39 fd 3d fe c4 01 3e
       -0.47397447 -0.034243427 0.123645745 0.12672803
000010 da 08 0d bf 13 5d 5b 3e 10 04 28 bf a5 fd 10 bf
       -0.5509163 0.21422224 -0.656312 -0.5663703
000020 79 8d 55 bc be c0 8d 3c 30 39 61 be da 20 a0 be
       -0.013034218 0.01730382 -0.21994472 -0.31275064
000030 e0 aa f3 bd 65 87 b3 3c 58 5e a7 be d2 86 26 bf
       -0.11897826 0.021915147 -0.32689166 -0.6504947
000040 10 0f e2 3e f9 9f 15 bf f5 40 f2 be 30 43 95 3b
       0.44152117 -0.58447224 -0.47315183 0.0045551285
000050 d0 44 a3 be 7a 24 b5 3e 24 46 5e be da 5c 9e bd
       -0.31888437 0.35379392 -0.21706444 -0.07732554
000060 ea bb c7 3e 34 8b e9 3b d5 07 bb be 0f 87 91 3e
       0.39010555 0.00712719 -0.36529413 0.28423354
000070 7b 82 0b 3f 00 6a b2 3e 19 53 59 3c 9c a7 1c 3f
       0.5449597 0.34846497 0.013264441 0.6119325
000080 9f b4 3e be bd 1d 0a 3f 20 ed 0c bd 29 c4 2c 3d
       -0.18623589 0.53951627 -0.034405828 0.04217926
000090 fe 74 84 be 51 00 bc be 27 20 8d 3c 0c c9 ee 3e
       -0.25870508 -0.3671899 0.017227245 0.46637762
0000a0 c9 0d 14 be 7b 3d b6 3d ec b5 fd be 06 a8 0a bd
       -0.14458384 0.08898445 -0.49552858 -0.033851646
0000b0 8d f2 3a 3d 4d 1b 98 be 5c 50 e1 3e 83 c3 f0 3d
       0.04564147 -0.2970833 0.44006622 0.11756041
0000c0 ea 90 4d 3e bf 4b 1e 3e e4 c7 ae bd dc ea 9b 3c
       0.20074812 0.15458582 -0.0853422 0.019032888
0000d0 8b 73 19 be 43 24 10 bf 0a f9 21 bd 6d 47 0f 3e
       -0.14985482 -0.5630533 -0.039544143 0.1399209
0000e0 32 2c ce 3d 0e a1 fd be fb ef a6 be ec fb 6a 3e
       0.10067023 -0.49536937 -0.32604966 0.22947663
0000f0 8d 5a 14 be e5 a7 23 be 40 4a f6 be 1a be c6 3e
       -0.14487667 -0.15982015 -0.48103523 0.3881691
000100 0d 7b 97 bd 47 9d 95 3e 4f d4 81 be df 4d a3 be
       -0.07396517 0.29221556 -0.2535729 -0.31895348
000110 e8 17 23 bf 62 5e 1c bf d1 b9 3a bd 9d 40 d4 be
       -0.63708353 -0.61081517 -0.045587365 -0.41455546
000120 14 a9 b4 bd 0f b0 a5 3e f3 45 90 be 2d 08 79 3e
       -0.088213116 0.32360885 -0.28178367 0.24319525
000130 d6 43 fa 3e 7d 7f 90 be 11 24 0d be 47 e6 0d be
       0.4887988 -0.28222266 -0.1378329 -0.13857375
000140 87 ae b6 be cd bd 0d 3e 27 16 72 be 4e 70 54 3e
       -0.3568003 0.13841935 -0.23641263 0.20745966
000150 d7 02 17 bf a7 f3 5d be 98 7d 83 3e 51 2c 27 3d
       -0.5898871 -0.21674977 0.25681758 0.040813748
000160 36 2e 2c be 1d a5 69 be 1a 93 03 bf e2 af ac 3e
       -0.16814503 -0.22816892 -0.51396334 0.33727938
000170 d0 c8 90 3e 5c ae 51 3e a5 bd b6 bd ee 70 14 3f
       0.28278208 0.20476669 -0.089228906 0.5798482
000180 52 55 8e bb 0a 28 62 be 3f 63 1e 3d 86 57 d2 be
       -0.004343667 -0.22085586 0.038668867 -0.410824
000190 de a9 80 be 1a 13 98 be 41 8e ca be f5 55 1f be
       -0.25129598 -0.29702073 -0.39561656 -0.15560134
0001a0 3c ee 6d 3e ef 0a 8e 3e 77 b5 6b be b8 75 4a be
       0.2323541 0.27742717 -0.23018442 -0.19771469

encoder.layers.1.self_attn.in_proj_bias f4 [18]
000000 90 70 35 bd 0c 9a b0 bd 32 58 a9 3c eb a8 34 be
       -0.0442968 -0.08623132 0.020671938 -0.17642562
000010 ac 85 5f be 25 c2 7c 3d 67 c2 7c b8 24 5b 14 b9
       -0.21828336 0.06170859 -6.0262533e-05 -0.00014148332
000020 71 83 17 38 04 d4 63 b7 5b ae c4 b7 f7 9f c9 38
       3.612362e-05 -1.3579618e-05 -2.3446211e-05 9.614223e-05
000030 72 87 fc bc ca 11 f1 bd 50 0e 85 3d 74 ac 0b be
       -0.030826304 -0.11770971 0.064968705 -0.13640004
000040 ee c6 e0 3c ed 66 0f be
       0.027438607 -0.14004107

encoder.layers.1.self_attn.out_proj.weight f4 [6, 6]
000000 c3 2b 94 be 62 8c a6 be 89 40 d1 3e 37 89 82 3e
       -0.28939638 -0.3252898 0.4086955 0.25495312
000010 b1 2f 0f 3e 83 fe f9 be 6f 67 b9 3e d1 da a4 3e
       0.13983037 -0.4882699 0.36211726 0.32198194
000020 2e 22 a3 3e 88 a5 00 be d8 98 1a 3e ad ab 41 3e
       0.31862015 -0.12563145 0.15097368 0.18913145
000030 eb a1 2d bd 5e 10 17 be 89 50 81 3e e9 8a 3f 3c
       -0.042390745 -0.14752337 0.25256756 0.011690834
000040 00 a6 77 be 63 0f 34 3d a0 17 1b be a9 b2 9f be
       -0.24184418 0.043959986 -0.15145731 -0.31190994
000050 ab 49 7e be a2 2a e5 3d 13 52 e2 3d 5f 3b ef be
       -0.2483279 0.11189772 0.11050811 -0.46724984
000060 bf ac 60 3e 2f fb 65 bd 5c 1a 09 be 77 dc 76 be
       0.21940897 -0.05614775 -0.13388962 -0.24107538
000070 94 31 78 3a 9a 7c 98 3d fc fa 37 bd 38 6c 5e be
       0.0009467837 0.07445641 -0.04491709 -0.2172097
000080 11 33 06 3e e6 16 24 bd f8 62 65 3e 10 6c 7e be
       0.13105418 -0.0400609 0.22401035 -0.2484591

encoder.layers.1.self_attn.out_proj.bias f4 [6]
000000 2c 7b 3c 3d 3b 3e cf 3d ac 1b 07 be 31 54 9c 3d
       0.046015903 0.101192914 -0.1319415 0.07633246
000010 46 ac 8a 3c 4e d3 bb bd
       0.01692785 -0.091711625

encoder.layers.1.linear1.weight f4 [2048, 6]
000000 1e 6e 9e bd 80 f7 2d bd 34 36 8c 3e 80 d1 d0 bd
       -0.07735847 -0.042472363 0.27385104 -0.10196209
000010 ee f8 ca be f5 ae 0f 3e 4b 77 a3 3c d0 24 6e be
       -0.39643043 0.14031585 0.019954344 -0.2325623
000020 03 a5 45 3e 56 0c 5f be 0c 5a 9e be 14 77 e7 bd
       0.19301228 -0.2178205 -0.30928075 -0.11302009
000030 82 cd 88 3e e9 77 50 3e eb f8 1f 3e cd 71 6f 3e
       0.2671929 0.20358242 0.15622298 0.23383255
000040 70 3a d8 3d 4b 71 0a 3e 0a da e4 3e b9 3f 66 39
       0.10558021 0.1351978 0.446976 0.00021958248
000050 7e df d8 be 86 a8 18 3f da 46 2c 3e 3e 9e d0 be
       -0.4235801 0.59632146 0.16823903 -0.4074573
000060 a1 d9 6d 3c 2d ae bb 3e 60 76 e3 bd 5c b0 f0 bd
       0.014517219 0.36656323 -0.111065626 -0.11752388
000070 61 f4 7a bd 8c 8a 05 bf e2 e0 bf be a3 7b f1 bd
       -0.061268214 -0.5216453 -0.3747626 -0.1179116
000080 33 09 3e be 55 26 cd 3e 30 fd 04 be bd 18 b8 bd
       -0.18558197 0.40068308 -0.12987208 -0.089890935
000090 65 b9 b2 3c 58 62 a1 3d 8b e8 ac 3d d1 98 84 3c
       0.021816919 0.07880086 0.084427916 0.01618615
0000a0 e5 a6 e9 be fe e8 ba 3e a4 16 c6 3e 46 d1 e6 3e
       -0.45635143 0.36505884 0.38689148 0.45081538
0000b0 2a 09 ec bd 25 50 0b bf dc 7a 94 be 23 82 a7 be
       -0.115251854 -0.54419166 -0.28999984 -0.32716474
0000c0 7d df c7 bd 5e cf 61 3e 19 47 15 3f 0d f1 f2 3d
       -0.09759424 0.2205176 0.5831161 0.11862383
0000d0 1c bf 98 be a8 d7 b5 3e 6b 7f f9 be fb 70 d0 bb
       -0.29833305 0.35516095 -0.48730025 -0.0063611246
0000e0 d6 61 c5 3e 63 e1 af 3e eb 7a a3 be ac b8 3e 3e
       0.38551205 0.34351644 -0.31929716 0.18625134
0000f0 fc 3d 83 be ae e3 3a be d3 ea 14 3d 52 30 b9 bc
       -0.25633228 -0.18250915 0.03635676 -0.022606049
000100 be 24 9b be 03 65 53 3e 61 d1 fa 3e 8f 92 73 3e
       -0.3030147 0.20644002 0.48987868 0.23786376
000110 d9 24 8c be 3c 45 98 bd 4e d5 35 3c 73 24 15 bf
       -0.27371863 -0.074350804 0.011098219 -0.5825874
000120 7a fe 07 3d 00 33 d7 3d dc 85 ed bc 9d dc 91 be
       0.033201672 0.10507774 -0.028994493 -0.28488627
000130 8e 4a 62 be 5e b8 d0 3c 1e ea dd be 9a 33 19 3d
       -0.22098753 0.025478538 -0.4334268 0.037402727
000140 5a 4a 1b 3f 43 8d 8c 3c 00 16 a1 be 10 b4 fd 3d
       0.60660326 0.017157203 -0.31462097 0.1238786
000150 b3 ea 46 3e fd 28 89 be e4 1c 2a be 07 10 48 bf
       0.19425468 -0.26789084 -0.16612583 -0.78149456
000160 87 ec 4f 3f 9a b4 4d 3e 48 ce 54 3e de f8 26 be
       0.8122029 0.20088425 0.20781815 -0.16305873
000170 81 96 b3 be 7f 29 24 be 1d 7a 8c bd 1c e1 d0 3e
       -0.35075763 -0.16031455 -0.06859229 0.40796745
000180 05 c4 1b 3f 7b 53 3b 3e 83 c1 89 be 03 69 11 3e
       0.6084598 0.18293564 -0.2690545 0.14200215
000190 bd e3 15 be c8 27 26 bf 93 9b 95 be 19 ac 30 be
       -0.14637657 -0.6490445 -0.29220256 -0.1725315
0001a0 61 73 9a 3b f0 58 64 be 89 67 d6 bb d9 f9 b2 bd
       0.0047134613 -0.22299552 -0.006543104 -0.08739061
0001b0 48 6b 22 be 8b 70 a3 be 7e 19 d1 bd bb 61 61 be
       -0.15861237 -0.319218 -0.102099404 -0.22009937
0001c0 79 34 b3 3e 14 1b af 3e 2e 57 11 3f 19 74 89 be
       0.3500097 0.34200346 0.5677365 -0.26846388
0001d0 b2 5f c7 be be b3 b3 3d c5 2d 02 be 08 3e 0a 3f
       -0.38940197 0.087745175 -0.12712772 0.540009
0001e0 f7 a5 af be 5f 51 81 be 2e 5b a9 bd c8 dd b8 be
       -0.3430631 -0.25257394 -0.08269344 -0.36106706
0001f0 c0 47 11 3f f2 50 5c be 7f 4c 4b be cc 2d df 3d
       0.56750107 -0.21515253 -0.198534 0.10897407
000200 fa 5b c8 3e 51 d2 1e bf cf c2 40 3f 30 75 8c 3e
       0.39132673 -0.6203967 0.75297254 0.27433157
000210 36 96 e0 3d 0e be 3a 3e 2f 3a 2a be 4a 9f f3 bd
       0.109661505 0.18236563 -0.16623758 -0.11895616
000220 f3 64 4c 3d 5d 9c 39 be d0 17 83 be 8b d1 b9 bd
       0.04990096 -0.18126054 -0.25604105 -0.0907317
000230 25 21 bb 3d 95 5e 1f 3d 4b e8 42 bf 58 cb 6e 3e
       0.09137181 0.03890856 -0.761357 0.23319757
000240 49 54 05 be 38 13 49 3e 38 7d 80 3e a1 34 e0 be
       -0.13020433 0.19636238 0.25095534 -0.43790153
000250 c2 14 0f 3f 63 07 60 3e 33 f1 64 be c9 81 22 be
       0.5589105 0.21877818 -0.22357635 -0.15869822
000260 ff a4 a3 3d 37 da b1 bd 8e 24 bf 3e 39 aa f2 bd
       0.07990455 -0.08684199 0.37332577 -0.11848874
000270 81 c6 ee be 1c 54 4b be 32 ef 4d 3e 7b 68 96 3e
       -0.4663582 -0.19856304 0.20110777 0.29376587
000280 ca 07 89 be 3f 9a ec 3c 65 81 90 3e a3 99 9f 3e
       -0.26763755 0.028882144 0.2822372 0.31171903
000290 6c b6 df ba d2 59 26 3c 30 7b 88 3e b9 60 b7 3e
       -0.0017067916 0.010153251 0.26656485 0.3581598
0002a0 17 d7 52 be 98 dd 55 3d 30 3b 29 3f 4e 27 c6 3d
       -0.20589863 0.05221328 0.6610594 0.096754655
0002b0 71 4c a7 be ee 0d 5a 3e 68 b5 3f bd 4d 19 bb 3e
       -0.32675508 0.21294376 -0.04680386 0.3654274
0002c0 24 ca 62 3e c4 28 2a be 6b c2 8e bd bb 9f ca be
       0.22147423 -0.16617113 -0.06970676 -0.3957499
0002d0 4a f8 c8 3e cc 56 da be 6b d9 1b be 4f a4 07 bf
       0.3925193 -0.42644346 -0.15219657 -0.5298509
0002e0 9b fc 3e 3f 12 c0 9f 3e bc 60 4e bd 57 12 b4 3e
       0.74604195 0.31201226 -0.05038522 0.35170242
0002f0 1d 98 74 be c4 0d 6f 3e da 7a 85 be d0 39 15 3e
       -0.23886152 0.23345095 -0.2607029 0.14572835
000300 ad fb 62 3d 23 bc 9c 3c 06 00 2c 3f 6f 0a e1 3e
       0.055415798 0.01913268 0.67187536 0.43953273
000310 4c f2 c1 be 90 09 02 3f b3 31 f1 3d 62 c0 1a be
       -0.3788017 0.5079584 0.117770575 -0.1511245
000320 70 d0 5f 3e 76 89 ab 3d 54 39 f5 bd b6 ab ce be
       0.21856856 0.08375828 -0.11973825 -0.4036538
000330 d9 9a 8d 3d 75 99 6b be eb 6f a1 3d 7f da 8c be
       0.069143005 -0.23007758 0.07882675 -0.2751045
000340 95 2c 81 bd d3 0c 9c be 10 9a 5e 3e b0 dd d2 3c
       -0.063073315 -0.30478534 0.21738458 0.025740474
000350 1e f3 66 be 05 13 92 be d3 92 02 3f b4 ab e4 3e
       -0.2255368 -0.28530136 0.51005286 0.4466225
000360 9f cc d3 3e 5c 8c b0 bd 22 62 19 be 83 12 f3 3e
       0.4136705 -0.086205214 -0.14978841 0.4747506
000370 ad b5 8b bd 66 b6 b5 be 4d fa 07 3f b6 fe 77 3d
       -0.06821761 -0.3549072 0.53116304 0.060545646
000380 ba 17 76 3d 8e dc ee bd b5 cf a2 be f0 99 55 bf
       0.06008122 -0.11663161 -0.31799093 -0.83438015
000390 de c3 8e bd 7f 9e 10 3e aa c2 05 3f b2 d3 a3 3e
       -0.069709525 0.14122961 0.5225016 0.31997448
0003a0 ee b6 e8 bc 4e 4c 23 be 07 31 bd 3b 0a b1 00 bf
       -0.02840754 -0.15947077 0.005773667 -0.5027014
0003b0 4a d2 03 bf e2 aa 54 be 42 b8 a3 3d 7a 84 f1 3e
       -0.5149275 -0.20768312 0.07994129 0.47171384
0003c0 d2 00 02 bf 0f d1 8c 3d 6e 32 2d 3f ba 13 f3 3e
       -0.507825 0.06875812 0.67655075 0.47475988
0003d0 e0 20 34 bf 4c 93 e5 3e 9f dd 21 3e 8a 60 95 3e
       -0.70362663 0.4483894 0.15807198 0.29175216
0003e0 67 7c 6a be 32 70 e2 3e 47 51 96 be 6b aa eb 3d
       -0.22899018 0.44226223 -0.29358885 0.11507114
0003f0 a7 d8 90 bd 96 c1 e4 be b3 e4 0f be 50 5a ec bd
       -0.07072573 -0.44678944 -0.14052086 -0.11540663

encoder.layers.1.linear1.bias f4 [2048]
000000 e2 a7 5f be a3 8e 0b bf 37 9f b6 be 9a 15 45 be
       -0.21841386 -0.5451452 -0.35668346 -0.19246522
000010 b0 de ef 3b ca ec 3d bd 6a 64 d1 bd be 07 18 3d
       0.0073202476 -0.046368398 -0.102242306 0.03711676
000020 89 45 3b be fd 2c 6a be 7f ea 86 3e f5 32 86 3e
       -0.18288244 -0.22868724 0.2635078 0.26210752
000030 6d a0 48 be 90 4b 37 be dc 3b 2c be e0 86 aa 3e
       -0.19592448 -0.17899919 -0.1681971 0.33306026
000040 54 d7 fa bd 8f 7e 01 bf b4 96 b8 3e c4 3a 21 bd
       -0.12248102 -0.5058374 0.36052477 -0.039362684
000050 61 48 ca 3d 51 49 b8 be 31 c9 ae bd b1 e2 b8 be
       0.098770864 -0.35993436 -0.08534468 -0.36110452
000060 7d 4a bc be c1 98 09 be d2 01 bd be 24 9c 01 bf
       -0.3677558 -0.13437177 -0.3691545 -0.50628877
000070 73 39 55 be 88 9a 98 3d c1 64 c3 be a9 7f 7d 3e
       -0.20822696 0.074513495 -0.38162807 0.2475573
000080 3c 56 46 3e 1e 1c b2 3c 97 a9 e2 be b0 d3 34 be
       0.19368833 0.021741923 -0.44270012 -0.17658877
000090 e8 4e 9f be 4c 03 a9 3c c7 71 1f 3e 23 4b 99 bd
       -0.31114888 0.020631455 0.15570746 -0.07485034
0000a0 e9 4f 14 be 3f 92 bf 3e ba 48 ae bd fb bf 92 be
       -0.14483608 0.37416264 -0.08509965 -0.28662094
0000b0 b0 bc d5 be 35 62 87 3e 78 49 39 3d 91 26 8a bc
       -0.4174552 0.26442114 0.04523608 -0.016864093
0000c0 70 29 95 3d a3 aa 37 3d df 50 8e be d7 ce 1e 3e
       0.07283294 0.044840466 -0.27796075 0.1550859
0000d0 5d b0 b1 be 2f 94 43 be eb f3 57 bd ea ea 75 3d
       -0.34704867 -0.19099496 -0.052722853 0.060038485
0000e0 c5 a6 c7 bd 10 db 3f bd 04 06 03 3e 1e 4c 68 be
       -0.09748606 -0.046839774 0.12795264 -0.22685286
0000f0 d6 0c 6c be f1 16 c0 3e fe 51 b3 3e 72 8a 10 3e
       -0.23051772 0.37517503 0.35023493 0.14115313
000100 6f b2 53 3e 40 9b 4f 3e dd 4f 6c 3e e1 2a 51 be
       0.20673536 0.20274067 0.2307734 -0.20426513
000110 11 7b 58 3d 11 77 83 bd de 74 2a 3d 16 c9 f6 bd
       0.05285174 -0.064191945 0.04161536 -0.12050073
000120 20 c7 92 3e 23 de 97 3e 52 46 85 be 32 e4 bc 3d
       0.28667545 0.29661664 -0.26030213 0.09223212
000130 43 8e ec be 54 24 e3 be 68 2b 39 3e 70 30 85 3e
       -0.46202287 -0.44363654 0.18082964 0.26013517
000140 92 5d 29 3e 79 3b ce 3d 7b ee 0b bf de dd e6 bd
       0.165396 0.10069937 -0.5466077 -0.112727866
000150 7a 40 36 3e 5d 34 d6 3e 3a 4c ed be 09 ec 1d bc
       0.17798033 0.41836825 -0.4634722 -0.009638795
000160 d5 dd 75 3d 5f 0d 18 bd 7f aa 0c 3e 34 26 b3 be
       0.06002601 -0.037122127 0.13736914 -0.34990084
000170 5d c2 d3 be 63 33 79 be 41 db 13 3d 75 84 95 bc
       -0.41359225 -0.24336009 0.03609777 -0.018251637
000180 2d b6 07 bd 69 93 eb be 6f f1 86 3e 85 75 70 bd
       -0.03313272 -0.46010903 0.26356074 -0.058705825
000190 18 0b c8 be 26 8b b8 3e 5d 9d 6f 3e 62 e1 73 3e
       -0.39070964 0.36043662 0.23399873 0.23816445
0001a0 b3 24 88 3e 72 a8 d3 be 06 bd e1 3d 47 23 20 3e
       0.265905 -0.4133945 0.110223815 0.15638457
0001b0 63 f6 11 3e fb 5a 55 be 5d cd d9 be d6 fb 63 3e
       0.14254145 -0.20835488 -0.42539492 0.22264037
0001c0 22 c2 e8 bd ee c4 bd 3d eb c9 64 be ed f0 8b be
       -0.11365153 0.09266077 -0.2234265 -0.2733225
0001d0 30 0d 9d bd 41 92 27 be 7f 27 2f be 39 54 ab be
       -0.07668531 -0.16364385 -0.1710491 -0.33462694
0001e0 2e e7 e4 3d e2 88 cc bd cd 80 a2 3e f9 5b 28 3e
       0.111769065 -0.09987046 0.31738892 0.16441335
0001f0 6e 46 10 3e e0 a0 68 3e 01 bf 2f be c2 f3 d7 3b
       0.14089367 0.22717619 -0.17162706 0.0065903375
000200 08 69 ae be e8 21 1b bc f1 f4 0d 3e 3a c7 47 3e
       -0.34064507 -0.009468533 0.13862969 0.19509593
000210 31 22 9e be bf 1b 62 be 24 ec 96 3e 5e 99 43 be
       -0.3088546 -0.22080897 0.29477036 -0.19101474
000220 ec e6 13 bf c2 ed 81 3d a8 a3 dd bc 3d 00 56 3d
       -0.57774234 0.06344177 -0.027055576 0.05224632
000230 53 5b 40 be 1c d5 f1 bc 4e 5a 01 3e 01 8f bd 3e
       -0.18784837 -0.029520564 0.12632105 0.37023166
000240 e9 0f a6 be 34 7f 68 be 63 2b d5 be 0f c3 57 ba
       -0.32434013 -0.22704774 -0.41634664 -0.0008230665
000250 54 b2 1b bd fb d1 88 be ac 8c f1 bc 8c 30 07 be
       -0.038011864 -0.26722702 -0.029486023 -0.13202113
000260 cc ac 80 bd 61 2c ab bd 9f 8f 4b be c5 93 b1 bd
       -0.062829584 -0.08358074 -0.19879006 -0.08670763
000270 41 2b ae bd 9b 52 59 bd 59 0f 7d be 2d e0 98 be
       -0.08504344 -0.053057294 -0.24712886 -0.29858533
000280 47 1a 16 bf 84 dd f1 3d 4f bf f1 3d cd c8 1f 3e
       -0.58633846 0.11809829 0.11804067 0.15603943
000290 e9 36 8a 3d c8 31 bf be ed 3b 68 be e0 c1 96 be
       0.067487545 -0.37342668 -0.2267911 -0.2944479
0002a0 4d 9e 28 3e cf 93 ee 3c f1 c9 51 3e 2b e7 24 be
       0.16466637 0.029123215 0.20487191 -0.16103809
0002b0 b6 43 18 bd 7c 27 fc bd 46 78 10 bd 52 48 46 3e
       -0.03717395 -0.123122185 -0.03527095 0.19363526
0002c0 71 0a f8 bd fa ee 22 3d 3c eb 15 3e 2b 1b 11 be
       -0.121113665 0.039778687 0.14640516 -0.1417052
0002d0 0e 14 83 3e 63 5d 7f 3d e2 a4 3b 3d 56 0d 74 3c
       0.25601238 0.06234492 0.04581154 0.014895758
0002e0 6f 08 50 be 1c 8b 28 be 5d 27 26 3d 1b 81 7d be
       -0.20315717 -0.16459316 0.040564884 -0.24756281
0002f0 93 ce 2c 3d 62 e3 6d bd bb 31 46 be 36 61 c5 3d
       0.042189192 -0.058078177 -0.19354908 0.09637682
000300 9f 62 4c bd c5 c6 37 3e f7 6f e0 bd d4 39 88 be
       -0.04989874 0.17946918 -0.109588556 -0.2660662
000310 e9 0e c3 3d 7d 7d c4 bb 2b de 99 bd 5d e2 79 be
       0.09524328 -0.0059964047 -0.07513078 -0.24402757
000320 0a cc 99 3d 11 71 03 be 96 ea 50 be 54 87 99 be
       0.075096205 -0.128361 -0.20401987 -0.2998606
000330 39 84 50 be e3 d5 19 be d2 1a 35 3e 4e 9e ce bd
       -0.20362939 -0.15022998 0.17686012 -0.10088788
000340 f7 8e db 3d 40 72 9d bc d6 be 2d be df eb 01 3d
       0.10720628 -0.019219518 -0.1696733 0.031719085
000350 af 6b 31 3e 07 48 92 bd 90 62 6e be 26 fe 0d bf
       0.17326234 -0.071426444 -0.23279786 -0.55465925
000360 ab 41 b3 3e 58 6d 85 3e 77 7e 49 bc 47 dc 2f 3e
       0.35011038 0.26059985 -0.012298218 0.17173873
000370 e5 55 98 be cf 89 ad be 60 10 52 3e c5 e9 c0 be
       -0.29753032 -0.33894202 0.20514059 -0.37678352
000380 95 85 a1 be 7c cd c4 be 2d 0f 52 3e 39 53 33 bc
       -0.31547228 -0.38438022 0.20513602 -0.010945135
000390 f1 ee c3 3e 28 8a 0d bd ca 40 8a bd 90 67 88 3b
       0.38268235 -0.034555584 -0.06750639 0.0041627362
0003a0 34 6a 85 be f2 cf 6b 3e 6c 9e 66 bd 83 30 ec 3c
       -0.2605759 0.23028544 -0.056303427 0.028831726
0003b0 30 2c 97 3d c8 59 c3 3e 7e 5c 6f be 57 eb 6b 3c
       0.07381475 0.38154435 -0.23375127 0.014399371
0003c0 80 98 35 3e 1e b2 c8 be fe 6c c3 3d 56 b5 cb bd
       0.17733955 -0.39198393 0.09542273 -0.099466965
0003d0 6a ee ce be 7f 5f 9d 3e d8 23 3a be 4a e4 09 3e
       -0.4041627 0.3073692 -0.18177736 0.13465992
0003e0 75 cd 7b be 53 b1 04 bf eb e3 88 3e 94 b0 5a 3c
       -0.24590094 -0.51833075 0.26736388 0.013347764
0003f0 8b 1e b9 3c 9a 35 9e be ae 1d 41 be dd 16 81 be
       0.022597572 -0.3090027 -0.18858978 -0.25212756
