results/tata/doji/1/model_best.pt (torch, 675938 bytes, 90 tensors)

encoder.layers.0.self_attn.in_proj_weight f4 [18, 6]
-0.12179638 -0.03315344 0.19915336 0.47434175 0.4893389 0.060037777 0.19445306 -0.20258269
-0.2637703 -0.47008103 -0.37819633 -0.13133991 -0.4041805 -0.02906672 -0.08084794 0.31784907
-0.1583703 0.14780499 -0.1087861 -0.21452379 -0.26762065 0.4950069 0.38690987 0.46571577
0.3279376 -0.35689038 -0.029092018 0.31581557 -0.1325 0.047158483 -0.35454217 0.36249515
0.13623242 -0.28741622 -0.17420495 -0.16443089 0.36504403 -0.27526343 0.492797 0.34374177
0.4023354 0.51113933 -0.18909398 0.04301335 -0.47997212 0.49129474 0.16721995 0.26840276
0.24488653 -0.05112471 0.18162191 -0.3357218 -0.12906033 -0.4304711 0.25651821 -0.39283594
-0.39422846 0.4287223 -0.1800487 -0.16812502 -0.5027346 -0.4156041 -0.36573026 0.46744895
0.46055382 0.41755238 0.0941005 -0.19325542 -0.1840043 -0.4677366 0.38351247 -0.13013588
-0.17208393 -0.44903502 -0.37561378 -0.51476955 -0.45152134 -0.21675193 0.120040745 -0.007654619
0.25994822 -0.38743883 0.22433949 0.07902425 0.20973828 0.20119324 0.34868768 -0.07031586
0.1511479 -0.004216718 0.015629131 -0.31295136 0.16527706 -0.06287536 0.10745339 -0.13240324
0.23514047 -0.31998298 -0.41530704 -0.3576976 0.3686084 0.060499668 -0.4219857 0.23430315
-0.22150935 0.20075282 -0.408104 -0.4549225
00000000: 6170 f9bd e7cb 07bd dcee 4b3e ecdc f23e
00000010: a18a fa3e 2cea 753d b41e 473e d671 4fbe
00000020: e70c 87be 76ae f0be f3a2 c1be f87d 06be
00000030: bff0 cebe 541d eebc 9b93 a5bd 1dbd a23e
00000040: d32b 22be 315a 173e 3fcb debd 20ac 5bbe
00000050: 9305 89be 8b71 fd3e 0d19 c63e 4c72 ee3e
00000060: 70e7 a73e 56ba b6be 6252 eebc 94b2 a13e
00000070: 14ae 07be 4129 413d 8d86 b5be f798 b93e
00000080: 8380 0b3e 3828 93be c862 32be 9260 28be
00000090: 0de7 ba3e 54ef 8cbe e34f fc3e ecfe af3e
000000a0: e8fe cd3e 07da 023f daa1 41be c42e 303d
000000b0: e8be f5be fc8a fb3e b53b 2b3e 166c 893e
000000c0: 89c3 7a3e 2568 51bd 18fb 393e bae3 abbe
000000d0: 6428 04be b566 dcbe 5b56 833e cb21 c9be
000000e0: 50d8 c9be 7d81 db3e b05e 38be f728 2cbe
000000f0: 37b3 00bf 10ca d4be ff40 bbbe 7855 ef3e
00000100: b6cd eb3e 6dc9 d53e c3b7 c03d c0e4 45be
00000110: a06b 3cbe 2c7b efbe bf5b c43e 5742 05be
00000120: c536 30be ebe7 e5be 7350 c0be f0c7 03bf
00000130: ce2d e7be 38f4 5dbe ecd7 f53d 99d3 fabb
00000140: ef17 853e 625e c6be 40b9 653e 77d7 a13d
00000150: a2c5 563e 9a05 4e3e 3187 b23e c301 90bd
00000160: 84c6 1a3e 652c 8abb aa08 803c 293b a0be
00000170: 643e 293e ccc4 80bd 8610 dc3d b794 07be
00000180: aac8 703e cfd4 a3be 20a3 d4be 2424 b7be
00000190: 3dba bc3e 80ce 773d 820e d8be 2aed 6f3e
000001a0: 59d3 62be 2692 4d3e 02f3 d0be 9aeb e8be

encoder.layers.0.self_attn.in_proj_bias f4 [18]
0.04530276 0.044273682 0.03805513 0.034926213 0.02868604 -0.026828097 -1.3994537e-06 -1.3100987e-06
-4.7316527e-07 -2.0593374e-07 2.9129075e-07 -2.6495368e-07 -0.046867967 0.04968278 -0.051917154 0.031286895
-0.014774402 -0.026270915
00000000: 638f 393d 5258 353d b2df 1b3d ca0e 0f3d
00000010: fcfe ea3c 99c6 dbbc ddd4 bbb5 a6d6 afb5
00000020: 5707 feb4 a31e 5db4 b262 9c34 f53e 8eb4
00000030: a0f8 3fbd 2c80 4b3d 15a7 54bd b026 003d
00000040: 5510 72bc 1a36 d7bc

encoder.layers.0.self_attn.out_proj.weight f4 [6, 6]
-0.22120667 -0.21074471 -0.051134806 -0.20693669 0.37310788 -0.21454057 -0.33887446 0.35494307
-0.29629743 -0.22910362 0.3556347 0.29656276 0.33182967 -0.2949511 0.3141357 0.21351035
0.16013728 0.35404027 0.25905702 -0.21824741 -0.3292802 -0.32707492 -0.18564431 -0.25453895
-0.08044601 0.43429902 -0.28891543 0.14674006 -0.1639067 -0.3024656 -0.13847235 -0.34583712
-0.049250852 -0.012075498 0.3715278 -0.044203497
00000000: 0084 62be 76cd 57be bb72 51bd 36e7 53be
00000010: ff07 bf3e 86b0 5bbe f480 adbe 19bb b53e
00000020: 4cb4 97be 249a 6abe c015 b63e 13d7 973e
00000030: 94e5 a93e d503 97be 65d6 a03e 75a2 5a3e
00000040: 07fb 233e c444 b53e 1fa3 843e 407c 5fbe
00000050: 6a97 a8be 5d76 a7be 8b19 3ebe ee52 82be
00000060: e1c0 a4bd 715c de3e b9ec 93be 0743 163e
00000070: 28d7 27be c5dc 9abe b2cb 0dbe 9011 b1be
00000080: 43bb 49bd 4fd8 45bc e438 be3e ba0e 35bd

encoder.layers.0.self_attn.out_proj.bias f4 [6]
-0.02833846 -0.002387059 -0.038445324 -0.043270893 0.039016884 0.024621444
00000000: 0f26 e8bc 3470 1cbb d878 1dbd d23c 31bd
00000010: 2bd0 1f3d e9b2 c93c

encoder.layers.0.linear1.weight f4 [2048, 6]
0.19185975 -0.22622727 0.26648572 0.20347732 -0.043037485 0.19229332 0.027732229 -0.23628345
0.09407198 -0.37300962 0.2702789 0.17521161 -0.3626959 -0.17329672 -0.19884491 0.04309292
-0.37163344 -0.3382002 0.065626256 -0.1310182 0.3300272 0.021311393 -0.087123774 -0.091213904
-0.11415789 0.20354226 -0.09393806 -0.266331 -0.007073118 -0.03437627 0.016974907 0.28889626
-0.18308349 0.28402603 -0.32416934 0.041520827 0.21256469 -0.35923538 -0.0757544 -0.030605359
0.41963023 0.31311312 0.18886165 0.09494396 -0.23399098 0.15264398 0.33327526 -0.18407598
-0.26089466 -0.016709413 0.19388635 -0.35149935 -0.024074737 0.22758958 -0.13148719 -0.24356562
0.16565707 0.22448973 -0.07088935 -0.17063533 0.20027308 0.18797423 -0.23398595 0.31999248
0.06298537 0.28088132 0.053625442 -0.060655802 0.10399376 0.12448475 -0.07978052 0.38859138
0.079436876 -0.12775181 -0.2967933 -0.3692259 -0.2884073 0.13621207 -0.037056774 0.2812985
-0.38231698 -0.040546406 -0.016588528 -0.1391003 0.2988482 0.054042988 -0.40206826 0.23517889
0.4082567 0.036253754 -0.103976764 0.22216316 0.34158024 -0.38513884 -0.091443434 -0.35649166
0.1226357 0.0100285765 0.20428245 0.10198132 0.37719953 0.0012031356 -0.060356487 -0.18365306
0.12723204 0.029148532 -0.32301715 -0.109428436 -0.21778566 -0.012046944 -0.08696716 0.40799716
-0.3562752 -0.047472134 -0.16071698 0.2658166 0.1419589 0.1574762 0.24401554 -0.00014736329
0.08716135 0.27892217 -0.33942655 -0.10365066 0.07403818 0.3761716 -0.09847199 0.0056485175
0.16689834 0.18296771 -0.33574 0.33195993 0.1527496 0.049525037 0.21882977 -0.025229378
0.21191336 -0.28758582 0.3183416 -0.19143175 0.10003819 -0.3365368 -0.34522423 -0.099301964
-0.109773025 0.018584047 0.015494559 -0.30167696 -0.18647161 -0.030107057 0.38057366 -0.30277428
-0.38504857 -0.37086472 0.32615542 0.3378899 -0.18213587 -0.21297188 -0.054173723 -0.2075447
-0.12004731 0.27215534 -0.34397262 -0.29304874 -0.18618238 0.32713377 -0.35816422 -0.2629962
-0.11070963 0.12988056 0.30767792 0.00036136396 0.1844581 0.268716 -0.07511443 0.06416159
0.27300462 0.19323081 0.22458154 -0.40905917 0.10362778 -0.37840548 0.30544433 0.03819381
0.20305416 0.26822206 -0.0020747199 -0.022077661 0.23120402 -0.3520837 -0.35835925 0.30862
-0.20003322 -0.31049383 0.21265914 0.29429513 -0.24100855 -0.16386127 -0.1612034 -0.09920691
0.36872047 0.40294233 -0.26871017 0.005965836 0.37413958 -0.19146644 0.051229525 -0.26139212
-0.02252796 0.02523666 -0.22854604 0.08308883 -0.31683338 -0.08835973 -0.04570193 -0.065438256
0.082435906 -0.3012949 -0.29507476 -0.22390334 -0.34080005 -0.048263274 -0.2139026 0.19190681
-0.24742168 -0.056201298 -0.36260405 0.269751 0.12784854 -0.14694111 0.09513297 0.020355575
-0.3650595 0.057450227 0.32445148 0.13235743 0.19028923 -0.2690906 -0.29028806 0.21197681
0.04973926 -0.24608569 -0.1521328 -0.38789567 0.2628357 0.09211713 0.33122286 -0.10869795
-0.24075666 0.27647546 0.1756179 0.27504173 -0.27965972 0.34595755 0.25695577 -0.08066117
00000000: e276 443e 1fa8 67be d170 883e 5c5c 503e
00000010: 1348 30bd 8ae8 443e b32e e33c 4af4 71be
00000020: cfa8 c03d 1efb bebe ff61 8a3e ac6a 333e
00000030: 47b3 b9be b274 31be 009e 4bbe 3482 303d
00000040: bd46 bebe 9428 adbe 0f67 863d a329 06be
00000050: 53f9 a83e 3b95 ae3c f36d b2bd 5bce babd
00000060: 9dcb e9bd 626d 503e 9962 c0bd 895c 88be
00000070: 9dc5 e7bb 22ce 0cbd f60e 8b3c 36ea 933e
00000080: 3d7a 3bbe dc6b 913e 86f9 a5be be11 2a3d
00000090: 8faa 593e b3ed b7be 1f25 9bbd 17b8 fabc
000000a0: c6d9 d63e 5d50 a03e f364 413e fb71 c23d
000000b0: 559b 6fbe b44e 1c3e 0ea3 aa3e 6a7e 3cbe
000000c0: fc93 85be 2ee2 88bc 258a 463e b9f7 b3be
000000d0: 6238 c5bc 3e0d 693e 94a4 06be 4469 79be
000000e0: 02a2 293e a3e0 653e 6f2e 91bd 07bb 2ebe
000000f0: 6314 4d3e 517c 403e 039a 6fbe 0ed6 a33e
00000100: 79fe 803d adcf 8f3e 5aa6 5b3d 3872 78bd
00000110: aefa d43d dcf1 fe3d f863 a3bd 73f5 c63e
00000120: cdaf a23d 5fd1 02be 4bf5 97be 2d0b bdbe
00000130: 1faa 93be 2d7b 0b3e d8c8 17bd 5b06 903e
00000140: 0dbf c3be fd13 26bd aae4 87bc 4f70 0ebe
00000150: a202 993e 2e5c 5d3d e4db cdbe bcd2 703e
00000160: 0607 d13e d17e 143d c5f1 d4bd bd7e 633e
00000170: 9be3 ae3e eb30 c5be b246 bbbd 1386 b6be
00000180: 6d28 fb3d e64e 243c 6b2f 513e 95db d03d
00000190: 4c20 c13e 88b2 9d3a 5d38 77bd 8c0f 3cbe
000001a0: 1e49 023e e7c8 ee3c 8162 a5be 041c e0bd
000001b0: 3403 5fbe 8c60 45bc d71b b2bd 01e5 d03e
000001c0: b469 b6be 2472 42bd fe92 24be 1d19 883e
000001d0: ad5d 113e 7141 213e 36df 793e 8885 1ab9
000001e0: a681 b23d e3ce 8e3e 51c9 adbe cc46 d4bd
000001f0: 54a1 973d 9099 c03e afab c9bd 3317 b93b
00000200: 66e7 2a3e e35b 3b3e 1de6 abbe a7f6 a93e
00000210: 646a 1c3e c4da 4a3d e914 603e d7ad cebc
00000220: d1ff 583e 733e 93be acfd a23e af06 44be
00000230: d3e0 cc3d 8d4e acbe 3bc1 b0be d45e cbbd
00000240: aed0 e0bd 923d 983c e4dc 7d3c 6775 9abe
00000250: 6af2 3ebe 13a3 f6bc 8dda c23e 3b05 9bbe
00000260: 1625 c5be fbe1 bdbe d8fd a63e e8ff ac3e
00000270: d381 3abe 4d15 5abe 44e5 5dbd 9986 54be
00000280: 5ddb f5bd f257 8b3e 2e1d b0be 7c0a 96be
00000290: 98a6 3ebe 147e a73e 4d61 b7be 70a7 86be
000002a0: bbbb e2bd 69ff 043e f687 9d3e 7375 bd39
000002b0: 96e2 3c3e 2595 893e 98d5 99bd 2767 833d
000002c0: 43c7 8b3e 4cde 453e b4f8 653e 3470 d1be
000002d0: cd3a d43d 5dbe c1be 3363 9c3e 1d71 1c3d
000002e0: 6eed 4f3e 6754 893e 06f8 07bb 36dc b4bc
000002f0: bfc0 6c3e 5144 b4be dd7a b7be 7103 9e3e
00000300: 82d5 4cbe 0cf9 9ebe 51c3 593e daad 963e
00000310: f2ca 76be 40cb 27be 8112 25be fe2c cbbd
00000320: eec8 bc3e 754e ce3e 6194 89be 0f7d c33b
00000330: 398f bf3e c70f 44be 0dd6 513d 30d5 85be
00000340: 8e8c b8bc 1dbd ce3c f907 6abe 7a2a aa3d
00000350: fc37 a2be f2f5 b4bd f231 3bbd 7e04 86bd
00000360: 28d4 a83d 5343 9abe 0a14 97be eb46 65be
00000370: 587d aebe b6af 45bd 4809 5bbe 3883 443e
00000380: 1c5c 7dbe 5533 66bd 3da7 b9be ce1c 8a3e
00000390: baea 023e bb77 16be 13d5 c23d bcc0 a63c
000003a0: 14e9 babe ee50 6b3d 811e a63e b588 073e
000003b0: 2edb 423e 3ec6 89be a3a0 94be 7310 593e
000003c0: 65bb 4b3d e3fd 7bbe b3c8 1bbe 439a c6be
000003d0: 6792 863e e8a7 bc3d 0b96 a93e 089d debd
000003e0: ea88 76be 318e 8d3e 2ed5 333e 45d2 8c3e
000003f0: 8f2f 8fbe 5921 b13e b58f 833e af31 a5bd

encoder.layers.0.linear1.bias f4 [2048]
0.02497359 -0.093027554 0.31835175 0.20704193 0.24594732 -0.08062986 -0.029188996 0.17214106
-0.03350804 -0.34711763 -0.2821639 0.0036077164 0.23254634 0.15882392 0.3641597 0.094011426
-0.36962703 0.11524192 -0.05703933 -0.040265724 -0.2893196 -0.008198992 0.19638014 -0.33121875
-0.21342373 -0.17542306 -0.34643036 0.2644863 0.24224919 0.13848065 0.07181873 0.37413436
-0.048488706 0.25590575 0.07085585 0.39129108 -0.20592535 0.14259079 0.19251658 -0.1467477
0.40982005 -0.22336967 0.23640293 0.087017216 -0.008777061 -0.05607521 -0.1820684 -0.20049642
-0.35785612 0.26785433 0.14485236 -0.061093476 0.29568088 -0.19098231 -0.34720117 0.24442708
-0.018329162 0.21721886 0.1115439 -0.33044824 -0.27579007 -0.20471098 0.2572705 -0.13598283
0.2638566 -0.23995727 0.3663186 -0.09322535 0.32841116 -0.34470215 0.03587483 0.02983302
-0.2078644 0.0816342 0.2585851 -0.22074379 0.31667334 0.36982703 0.003247532 0.21762778
0.10359713 -0.046887975 -0.32029298 -0.063644186 -0.29220378 -0.31007037 0.34858206 -0.058165703
-0.3330075 0.18628705 -0.2874429 0.24062343 -0.0033925413 -0.21065997 -0.12104144 -0.2733117
0.23493521 0.07548316 0.31608722 0.15504643 -0.42928636 -0.0031331806 -0.20624559 0.36148983
0.37297094 -0.2777618 -0.06635119 -0.044783592 -0.42575267 -0.015453538 0.3175892 -0.37613642
0.101434395 -0.40035525 0.015285476 0.25224265 -0.09846314 -0.12886207 0.27219507 0.23495662
0.050231546 -0.2631034 -0.31188676 -0.24847075 0.33494607 -0.3734157 0.30897012 0.15326658
-0.21351288 -0.36878875 -0.090637445 -0.15252271 -0.042274103 -0.2092381 0.36523637 0.27854928
-0.09900001 0.36453 0.04154562 0.18285641 0.13455427 -0.03085497 0.3318017 -0.32357445
0.28136328 0.18001615 0.3275962 -0.35530528 -0.29160798 0.10415708 0.18091804 -0.1309824
-0.011429276 0.1791406 0.33278143 -0.38143322 -0.3907097 0.2232888 0.054665364 0.30450603
-0.18346624 -0.06668734 0.17736083 0.123156175 0.36723977 -0.0310536 -0.11398029 0.06663385
0.06981538 -0.2979218 -0.2673284 0.07339683 0.3714831 0.3738624 -0.023843812 -0.19768196
0.23139247 0.1727435 -0.40442604 0.21474831 -0.2337484 0.3421582 0.0071369396 0.12736735
0.22486068 -0.27976382 0.2886926 -0.2639841 -0.28742647 0.4460281 -0.19175099 -0.1173454
0.11547225 -0.22188455 -0.22895825 -0.2380616 -0.02009941 0.15740035 0.09412755 -0.38235167
-0.03867936 -0.40142757 -0.24923404 -0.17205785 0.10096039 0.16040452 0.108735904 0.2575266
-0.0124278795 0.07776371 0.15917227 0.2775192 -0.25079408 0.32483134 0.066119894 -0.3292289
0.17720301 -0.09310407 -0.35683978 -0.19982964 0.38543937 -0.0053555435 0.0854738 -0.3755829
0.0402876 -0.20778763 0.19836171 0.24401483 0.0925609 0.36653796 -0.110348746 -0.15177636
0.18822424 0.41901657 0.1374782 -0.17530979 0.07448813 0.14935294 0.06846759 -0.1338449
-0.012972757 0.18324085 -0.14041299 -0.3650088 0.32396173 -0.15604791 0.2566141 0.3570153
0.4748415 -0.2542102 0.3754479 0.051565133 0.052365053 -0.023887616 0.03193068 0.30827546
00000000: 6a95 cc3c 3b85 bebd 00ff a23e cd02 543e
00000010: 9dd9 7b3e 4521 a5bd c31d efbc bf45 303e
00000020: ba3f 09bd 67b9 b1be c977 90be 706f 6c3b
00000030: a120 6e3e bda2 223e 2473 ba3e 1089 c03d
00000040: c13f bdbe f503 ec3d 13a2 69bd aced 24bd
00000050: b321 94be 1155 06bc e017 493e 8195 a9be
00000060: c08b 5abe 1aa2 33be 525f b1be c06a 873e
00000070: 2c10 783e dfcd 0d3e b315 933d 8a8e bf3e
00000080: 189c 46bd 1406 833e df1c 913d 4e57 c83e
00000090: 18de 52be 5203 123e 1123 453e 0745 16be
000000a0: efd3 d13e 05bb 64be 9c13 723e 1536 b23d
000000b0: a9cd 0fbc 1faf 65bd 2370 3abe ef4e 4dbe
000000c0: eb38 b7be 3424 893e 2d54 143e 273d 7abd
000000d0: 7c63 973e de90 43be 5ac4 b1be 184b 7a3e
000000e0: 0a27 96bc 9f6e 5e3e 2171 e43d 8330 a9be
000000f0: 5b34 8dbe c19f 51be f5b8 833e 153f 0bbe
00000100: 3618 873e 5cb7 75be 1d8e bb3e efec bebd
00000110: 8225 a83e cd7c b0be 7cf1 123d 6164 f43c
00000120: 68da 54be d52f a73d 4465 843e a90a 62be
00000130: 0223 a23e f859 bd3e 8cd4 543b d1d9 5e3e
00000140: bb2a d43d 9b0d 40bd 71fd a3be e257 82bd
00000150: bc9b 95be 8bc1 9ebe 5979 b23e 293f 6ebd
00000160: f67f aabe 08c2 3e3e b72b 93be fd65 763e
00000170: 6655 5ebb 3fb7 57be 93e4 f7bd 83ef 8bbe
00000180: db92 703e ea96 9a3d 2fd6 a13e 7ec4 1e3e
00000190: 6ccb dbbe 0c56 4dbb 0b32 53be 3215 b93e
000001a0: 0cf6 be3e cb36 8ebe 22e3 87bd 006f 37bd
000001b0: 41fc d9be d630 7dbc 0d9b a23e f494 c0be
000001c0: d6bc cf3d 5dfb ccbe ef6f 7a3c f325 813e
000001d0: 0ba7 c9bd 6bf4 03be 275d 8b3e 7898 703e
000001e0: 98bf 4d3d 7db5 86be 9faf 9fbe 1e6f 7ebe
000001f0: 0d7e ab3e 5830 bfbe 5531 9e3e eaf1 1c3e
00000200: 1fa3 5abe e1d1 bcbe 20a0 b9bd ea2e 1cbe
00000210: 9c27 2dbd 8342 56be 4300 bb3e 039e 8e3e
00000220: 84c0 cabd ada3 ba3e bd2b 2a3d b63e 3b3e
00000230: 98c8 093e 90c3 fcbc eae1 a93e 8dab a5be
00000240: d90e 903e 2756 383e b0ba a73e 93ea b5be
00000250: a44d 95be 4f50 d53d 9442 393e 4020 06be
00000260: dc41 3bbc a270 373e 5462 aa3e 374b c3be
00000270: 1a0b c8be d2a5 643e cae8 5f3d 37e8 9b3e
00000280: 93de 3bbe 5f93 88bd 149e 353e 4e39 fc3d
00000290: da06 bc3e 1f64 febc 806e e9bd 5477 883d
000002a0: 5efb 8e3d 3589 98be 45df 88be 1451 963d
000002b0: 0833 be3e e46a bf3e 1954 c3bc 246d 4abe
000002c0: 26f2 6c3e ace3 303e ee10 cfbe fbe6 5b3e
000002d0: be5b 6fbe 5c2f af3e fddc e93b 966c 023e
000002e0: e141 663e 343d 8fbe 84cf 933e ed28 87be
000002f0: 9029 93be cc5d e43e 5f5a 44be c952 f0bd
00000300: b77c ec3d b435 63be 0874 6abe 6cc6 73be
00000310: 85a7 a4bc 8f2d 213e f2c5 c03d 99c3 c3be
00000320: 406e 1ebd ea87 cdbe 3537 7fbe ef2f 30be
00000330: 52c4 ce3d 1541 243e eeb0 de3d 87da 833e
00000340: 4e9e 4bbc 9442 9f3d 0efe 223e ff16 8e3e
00000350: 1568 80be 4b50 a63e de69 873d b190 a8be
00000360: b574 353e 59ad bebd b4b3 b6be 24a0 4cbe
00000370: 4f58 c53e 8e7d afbb e30c af3d 674c c0be
00000380: 9c04 253d 48c6 54be 551f 4b3e 06df 793e
00000390: 9290 bd3d ddaa bb3e 86fe e1bd 436b 1bbe
000003a0: dbbd 403e 5789 d63e 16c7 0c3e 6984 33be
000003b0: 3c8d 983d faef 183e bc38 8c3d a30e 09be
000003c0: b08b 54bc 7da3 3b3e 6cc8 0fbe 6fe2 babe
000003d0: 50de a53e 06cb 1fbe ec62 833e b6ca b63e
000003e0: 6d1e f33e d727 82be b53a c03e f635 533d
000003f0: bd7c 563d f6af c3bc bfc9 023d 48d6 9d3e

encoder.layers.0.linear2.weight f4 [6, 2048]
0.03890987 0.040574342 0.023136623 0.033992037 0.047768623 0.01822066 0.049744204 0.035455853
0.045829684 0.00034392436 0.012944314 0.035872847 0.041418765 0.049145903 0.05529825 0.0495412
0.0045119175 -0.011882198 -0.004872409 0.053692568 0.03767331 0.039562464 0.03357063 0.024975315
-0.0013638829 0.0587646 0.02887601 0.009968417 0.044074208 0.04541146 0.039795965 0.02418407
-0.0067141303 -0.002209219 0.040349763 0.057419937 0.008181676 0.028358985 0.018973984 0.014253242
0.031865716 0.040702533 0.023894092 0.05733983 0.04111623 0.0034338485 0.06033311 0.03345536
-0.006183049 0.0609808 0.0129751675 0.055448174 0.071296245 0.05049937 -0.005856062 -0.0028225936
0.0412751 0.05595605 0.050951093 -0.014459383 0.011006818 0.033025555 0.0080003245 0.039207425
0.020678326 0.011062823 0.03964341 0.03142916 0.011709239 0.07895769 0.0012829455 0.031073347
0.00095371885 0.0088950945 0.060603406 0.034399144 0.028730344 0.020608684 0.011203146 0.07300934
0.027658531 0.040679216 0.04966387 0.042375896 0.010833946 0.030342298 0.028284404 0.072817296
0.052536126 0.030308288 0.07295967 0.032956712 0.051902566 0.03653267 -0.006129475 0.02451378
0.04296911 0.05964854 0.02021033 0.013998205 0.022164753 0.081939265 0.019874092 0.028728532
0.057471946 0.07823249 0.04320098 0.016489474 0.047115207 0.011715057 0.033011608 -0.019189239
0.06727897 0.023284677 0.00798407 0.041479792 0.050943244 -0.009040144 0.038934812 0.030609129
0.023330696 0.020649891 0.05663765 0.0014602004 0.030442175 0.042247865 0.030254759 0.016258776
0.04316817 -0.0059423978 0.051637538 0.04765711 0.023980599 0.050098486 0.053528354 0.059707128
0.04286774 0.026554367 0.030533535 0.03637868 0.032831494 0.0066155293 0.011218902 0.026843667
0.011908643 0.020110836 0.029939357 0.008247256 0.022346864 0.00043655842 0.057826623 -0.0034091761
0.0031473658 0.054088853 0.047968574 -0.0019729442 0.016545277 0.058418736 0.044501353 0.07014162
0.042641614 0.010187243 0.04114913 0.026442755 0.037941463 0.041688066 0.015106386 0.0012156923
0.061822526 0.06973191 0.014104075 0.043454137 0.040362548 0.016125262 0.05967134 0.029785631
0.041888025 0.045095123 0.017009439 0.06953614 0.023781616 0.0025823624 0.053824037 0.04959941
0.04036583 0.06587089 0.06179419 0.030074976 0.029977994 0.043177214 -0.023075733 0.054387208
-0.0028184762 0.015551584 0.008140589 0.011077546 0.0064428933 0.0134050865 0.039158974 0.003761486
0.013211478 0.0052203396 0.03923704 0.011802767 0.04403544 -0.008026205 0.034285046 0.07580424
0.031901654 0.029769981 0.039781924 0.03934016 0.018545004 0.05183498 0.07114229 0.028067466
0.07916417 0.022467615 0.014434516 0.07088868 0.062281184 0.040856324 0.071726434 -0.004137374
0.027452072 0.0014836405 0.008633394 0.022224879 0.006522278 0.017716661 0.021264829 0.04782239
0.041992944 0.03552457 0.07369546 0.059465803 0.043372165 0.06187756 0.014081547 0.025486765
0.008057977 0.020946188 0.022688933 0.019184066 0.049657155 0.005939497 0.03783524 0.04589081
0.04520501 0.05701908 0.022256408 0.0043884562 0.020233007 0.01206136 0.0052153617 0.040587906
00000000: f55f 1f3d 4831 263d 0489 bd3c 3c3b 0b3d
00000010: 08a9 433d 7e43 953c 94c0 4b3d 283a 113d
00000020: e8b7 3b3d bf50 b439 6314 543c 68ef 123d
00000030: b9a6 293d 374d 493d 6b80 623d b7eb 4a3d
00000040: b5d8 933b 8dad 42bc bba8 9fbb bdec 5b3d
00000050: 544f 1a3d 400c 223d 5b81 093d 0899 cc3c
00000060: 51c4 b2ba 26b3 703d 628d ec3c 9252 233c
00000070: 2887 343d 5e01 3a3d 1801 233d ac1d c63c
00000080: 3502 dcbb 8bc8 10bb cb45 253d 2b31 6b3d
00000090: 700c 063c 1a51 e83c 546f 9b3c 6e86 693c
000000a0: a085 023d b3b7 263d 8bbd c33c 2bdd 6a3d
000000b0: 7e69 283d 6b0a 613b da1f 773d 7d08 093d
000000c0: 2d9b cabb 01c7 793d cc95 543c a01d 633d
000000d0: c403 923d 6dd8 4e3d 35e4 bfbb 43fb 38bb
000000e0: 1410 293d 2c32 653d 18b2 503d 0ce7 6cbc
000000f0: f155 343c ce45 073d cb13 033c f797 203d
00000100: 9865 a93c d840 353c 2161 223d ddbb 003d
00000110: 1cd8 3f3c 92b4 a13d 8228 a83a 888d fe3c
00000120: fd02 7a3a bbbc 113c 473b 783d 1ee6 0c3d
00000130: e65b eb3c 8bd3 a83c 668d 373c ec85 953d
00000140: 2594 e23c 409f 263d 586c 4b3d 5992 2d3d
00000150: dd80 313c 6990 f83c b2b4 e73c 3c21 953d
00000160: 1f30 573d 1649 f83c e16b 953d 9efd 063d
00000170: c997 543d 48a3 153d c3d9 c8bb 1fd1 c83c
00000180: 6100 303d 0752 743d 2290 a53c ba58 653c
00000190: db92 b53c c6cf a73d fece a23c 1958 eb3c
000001a0: b467 6b3d 5b38 a03d 83f3 303d ef14 873c
000001b0: e0fb 403d 83f0 3f3c 2e37 073d c032 9dbc
000001c0: 8ec9 893d 82bf be3c 9ecf 023c b7e6 293d
000001d0: dda9 503d 1d1d 14bc 1c7a 1f3d ffbf fa3c
000001e0: 0420 bf3c f629 a93c e1fc 673d 3264 bf3a
000001f0: de61 f93c 190c 2d3d d4d8 f73c 2031 853c
00000200: 1bd1 303d 72b8 c2bb e281 533d 1a34 433d
00000210: f672 c43c 1234 4d3d 8c40 5b3d 768f 743d
00000220: 1596 2f3d 8b88 d93c 7721 fa3c d001 153d
00000230: 517a 063d 15c7 d83b 7ccf 373c 40e7 db3c
00000240: 781c 433c 7bbf a43c 6243 f53c 801f 073c
00000250: c510 b73c e1e1 e439 9cdb 6c3d 7c6c 5fbb
00000260: 0944 4e3b 468c 5d3d b27a 443d 834c 01bb
00000270: f689 873c 7c48 6f3d 0d47 363d 69a6 8f3d
00000280: f9a8 2e3d 65e8 263c fd8b 283d 7a9e d83c
00000290: 8268 1b3d 1bc1 2a3d c680 773c dd57 9f3a
000002a0: 9e39 7d3d 9bcf 8e3d c714 673c f7fc 313d
000002b0: 3353 253d 2019 843c ef69 743d ff00 f43c
000002c0: c792 2b3d aab5 383d 6157 8b3c f768 8e3d
000002d0: aad1 c23c da3c 293b 9876 5c3d c028 4b3d
000002e0: a456 253d 51e7 863d e81b 7d3d cc5f f63c
000002f0: 6994 f53c 97da 303d 5209 bdbc 1fc5 5e3d
00000300: 2fb6 38bb 12cc 7e3c 1b60 053c 987e 353c
00000310: e81e d33b 02a1 5b3c 2965 203d 4383 763b
00000320: f474 583c 620f ab3b 05b7 203d 6560 413c
00000330: 815e 343d 5880 03bc 7a6e 0c3d 413f 9b3d
00000340: 4fab 023d 2de0 f33c 5ff2 223d 2623 213d
00000350: b1eb 973c ea50 543d 0db3 913d beed e53c
00000360: d320 a23d 010e b83c c07e 6c3c 162e 913d
00000370: 8e1a 7f3d f658 273d 4fe5 923d cf92 87bb
00000380: 2be3 e03c b776 c23a 1473 0d3c f310 b63c
00000390: d5b8 d53b 8822 913c 9433 ae3c 69e1 433d
000003a0: cb00 2c3d 3682 113d a5ed 963d 6a92 733d
000003b0: 03a7 313d 5373 7d3d 4ab6 663c 9fc9 d03c
000003c0: 9b05 043c 5797 ab3c 24de b93c e727 9d3c
000003d0: 4d65 4b3d 1da0 c23b 20f9 1a3d 01f8 3b3d
000003e0: e328 393d d78c 693d 1253 b63c 0acd 8f3b
000003f0: b1bf a53c 039d 453c a0e5 aa3b 813f 263d

encoder.layers.0.linear2.bias f4 [6]
0.015041009 -0.019449087 -0.0044986987 0.05385534 -0.03432332 -0.026319653
00000000: 906e 763c b153 9fbc d269 93bb 6b97 5c3d
00000010: 9c96 0cbd 509c d7bc

encoder.layers.0.norm1.weight f4 [6]
0.9880071 0.99912864 1.0411739 1.0197982 0.99345255 0.98043966
00000000: 09ee 7c3f e5c6 7f3f 3045 853f bf88 823f
00000010: e852 7e3f 18fe 7a3f

encoder.layers.0.norm1.bias f4 [6]
-0.026595043 -0.009582945 -0.031928506 -0.035561647 0.030656477 0.019653184
00000000: d9dd d9bc c901 1dbc 77c7 02bd 17a9 11bd
00000010: 4b23 fb3c b7ff a03c

encoder.layers.0.norm2.weight f4 [6]
1.0070486 0.9754291 0.9868188 1.0339231 1.0132798 0.9707197
00000000: f8e6 803f b9b5 793f 28a0 7c3f 9857 843f
00000010: 27b3 813f 1681 783f

encoder.layers.0.norm2.bias f4 [6]
0.02449107 0.008032986 -0.015327669 0.035088837 -0.025066884 -0.008299806
00000000: 7fa1 c83c c99c 033c e720 7bbc 50b9 0f3d
00000010: 1159 cdbc e9fb 07bc

encoder.layers.1.self_attn.in_proj_weight f4 [18, 6]
-0.12894359 -0.07267816 0.1569743 0.44637924 0.4652492 0.07068432 0.1583241 -0.20973843
-0.26136616 -0.4754115 -0.41337985 -0.17205061 -0.44625956 -0.07429064 -0.11442944 0.2575046
-0.16141066 0.17019609 -0.11883512 -0.1934491 -0.2662044 0.5216477 0.3377365 0.39208806
0.31756505 -0.42223737 -0.07645243 0.28443733 -0.17357701 0.06556164 -0.34856248 0.3922951
0.18376692 -0.26411697 -0.15333545 -0.16595945 0.37035978 -0.26249796 0.4855403 0.33324665
0.39310256 0.49322388 -0.20586348 0.042005792 -0.45304015 0.47320265 0.21152137 0.25768742
0.24208257 -0.07578156 0.17023607 -0.30183008 -0.12977189 -0.44241697 0.23836541 -0.393344
-0.3778691 0.38090935 -0.14945889 -0.17711745 -0.5027817 -0.4062209 -0.37635347 0.48183742
0.47478318 0.4412017 0.08825005 -0.20619409 -0.146094 -0.4968717 0.3633043 -0.10715235
-0.15751077 -0.43350735 -0.36364406 -0.4971553 -0.39841506 -0.14038175 0.08226863 -0.030964967
0.19443451 -0.44185096 0.17011143 0.041464776 0.24850076 0.21181631 0.35907567 -0.04899733
0.21438055 0.08429581 -0.05424091 -0.35375404 0.14448948 -0.15025972 0.11281594 -0.13371032
0.26246348 -0.29681 -0.38139674 -0.33295 0.38516718 0.07960301 -0.38490897 0.23282829
-0.20238857 0.21954006 -0.34493968 -0.3798044
00000000: ca09 04be 4ad8 94bd dfbd 203e d28b e43e
00000010: 2535 ee3e f1c2 903d b61f 223e acc5 56be
00000020: c9d1 85be 2369 f3be 86a6 d3be 092e 30be
00000030: 227c e4be b125 98bd fb59 eabd a5d7 833e
00000040: d648 25be e247 2e3e d45f f3bd 8517 46be
00000050: f14b 88be b48a 053f cceb ac3e c4bf c83e
00000060: e397 a23e 7f2f d8be 1793 9cbd c5a1 913e
00000070: 2cbe 31be 2e45 863d c876 b2be e7da c83e
00000080: 652d 3c3e 573a 87be f803 1dbe 46f1 29be
00000090: cc9f bd3e 2266 86be bd98 f83e 4e9f aa3e
000000a0: bd44 c93e d787 fc3e e0cd 52be 440e 2c3d
000000b0: e1f4 e7be 9e47 f23e 0f99 583e 9bef 833e
000000c0: 7ee4 773e 5d33 9bbd 5d52 2e3e 7989 9abe
000000d0: ece2 04be 7a84 e2be 1016 743e 6364 c9be
000000e0: 0f78 c1be 8d06 c33e c00b 19be 475e 35be
000000f0: 4db6 00bf 30fc cfbe 67b1 c0be 65b3 f63e
00000100: c816 f33e 30e5 e13e 71bc b43d 8b24 53be
00000110: aa99 15be f865 febe 0503 ba3e b172 dbbd
00000120: 814a 21be adf4 ddbe 8e2f babe 248b febe
00000130: 0ffd cbbe 3cc0 0fbe 757c a83d 3eaa fdbc
00000140: d719 473e 4a3a e2be b131 2e3e f8d6 293d
00000150: fc76 7e3e 60e6 583e c4d8 b73e 6db1 48bd
00000160: 9386 5b3e 48a3 ac3d b72b 5ebd 401f b5be
00000170: 0df5 133e afdd 19be 0b0c e73d 5ceb 08be
00000180: 9d61 863e 7bf7 97be 6f46 c3be 6c78 aabe
00000190: a234 c53e e706 a33d ca12 c5be 8a6a 6e3e
000001a0: f33e 4fbe 1ccf 603e ef9b b0be b975 c2be

encoder.layers.1.self_attn.in_proj_bias f4 [18]
-0.010875288 0.019282442 -0.026276229 0.044602163 -0.0102306865 0.010159373 -2.7556314e-07 -2.0529728e-06
-1.7135029e-06 -1.0525799e-07 3.330096e-06 -6.066834e-06 0.001956035 -0.015462606 -0.0051246844 -0.044445675
-0.00500657 -0.015217681
00000000: 442e 32bc 36f6 9d3c 3f41 d7bc c2b0 363d
00000010: 9c9e 27bc 8073 263c 1cf1 93b4 cec5 09b6
00000020: 83fb e5b5 310a e2b3 9d7a 5f36 b591 cbb6
00000030: d230 003b df56 7dbc f8ec a7bb ab0c 36bd
00000040: 270e a4bb 9553 79bc

encoder.layers.1.self_attn.out_proj.weight f4 [6, 6]
-0.30256456 -0.24135941 -0.039946813 -0.25489715 0.32059303 -0.19699875 -0.3198456 0.37360966
-0.29375094 -0.2330562 0.3637554 0.28286725 0.34947446 -0.24431093 0.3096777 0.17554438
0.21487918 0.29345942 0.2177664 -0.20990592 -0.27762124 -0.37768805 -0.21773551 -0.27848974
-0.07078371 0.41587383 -0.34035158 0.18082978 -0.15019679 -0.26679805 -0.13655151 -0.37666318
-0.048305314 0.030864937 0.33324906 -0.019462867
00000000: bee9 9abe ec26 77be 459f 23bd e181 82be
00000010: c524 a43e 0aba 49be cdc2 a3be c449 bf3e
00000020: 8666 96be 49a6 6ebe 263e ba3e fad3 903e
00000030: 51ee b23e a52c 7abe 138e 9e3e e8c1 333e
00000040: 4a09 5c3e 5040 963e 28fe 5e3e 94f1 56be
00000050: 5f24 8ebe 5460 c1be 0ff6 5ebe 3596 8ebe
00000060: 0df7 90bd 6aed d43e 9042 aebe 712b 393e
00000070: 30cd 19be c199 88be 29d4 0bbe ffd9 c0be
00000080: cbdb 45bd 77d8 fc3c 9f9f aa3e 9770 9fbc

encoder.layers.1.self_attn.out_proj.bias f4 [6]
0.03361819 0.0017817088 -0.00528188 0.037893906 -0.023615189 -0.015800418
00000000: 3ab3 093d 3a88 e93a 9f13 adbb a436 1b3d
00000010: a474 c1bc e16f 81bc

encoder.layers.1.linear1.weight f4 [2048, 6]
0.20039044 -0.21339634 0.26006675 0.24901034 -0.07173802 0.13006808 0.014770719 -0.23713653
0.15466453 -0.33114234 0.24688621 0.15393847 -0.33355573 -0.15010336 -0.21115115 0.08662197
-0.42568827 -0.350861 0.13487379 -0.09011804 0.27874288 0.07918015 -0.14778973 -0.15892984
-0.1143579 0.19574374 -0.10805149 -0.24798486 -0.022996256 -0.016312324 0.03351292 0.30738577
-0.1883863 0.33399922 -0.37372494 0.009910787 0.21711308 -0.3751238 -0.059002407 0.0027162957
0.3832979 0.31443912 0.17922492 0.08587523 -0.2251961 0.14166442 0.34680143 -0.17778392
-0.2709501 -0.036628537 0.18105385 -0.38010186 -0.035315715 0.24277507 -0.14822774 -0.24577993
0.17033756 0.20124844 -0.046329252 -0.15892877 0.17672978 0.21109892 -0.23060592 0.25333568
0.10684064 0.26341784 0.025827853 -0.046474062 0.08823142 0.109190695 -0.09751282 0.36087024
0.089697435 -0.08125193 -0.31695166 -0.3664253 -0.3041167 0.0969732 0.0056799576 0.2852418
-0.42046824 -0.002171445 -0.05060922 -0.14020321 0.26892367 0.040414643 -0.3717612 0.26343265
0.3858159 0.024065064 -0.048858482 0.27361426 0.28780693 -0.3642307 -0.12279293 -0.40333036
0.12051995 0.01938063 0.20910618 0.1140894 0.36225736 0.013725655 -0.051941223 -0.20296331
0.10905539 -0.00015886727 -0.32317895 -0.04554254 -0.21396136 -0.027515903 -0.08652489 0.37432662
-0.33736327 -0.04078757 -0.14045742 0.25883222 0.14236957 0.1391803 0.24164699 0.013723268
0.0659719 0.29170775 -0.29984093 -0.09209136 0.06636903 0.34794718 -0.08439968 0.03400126
0.15426834 0.20485242 -0.34912637 0.28519553 0.1698787 0.040381283 0.1867536 -0.06988633
0.25567573 -0.26768488 0.33454177 -0.189542 0.10739421 -0.3116692 -0.3733439 -0.1361433
-0.122050464 0.0017838789 0.008242451 -0.29825532 -0.19074625 -0.01462862 0.34339792 -0.306806
-0.3336949 -0.3494061 0.32156268 0.3244232 -0.15904507 -0.19688307 -0.03034605 -0.1821734
-0.106926374 0.24222901 -0.3072074 -0.28401598 -0.20987794 0.3457009 -0.38554212 -0.27164063
-0.121116735 0.12516466 0.31059098 0.024726763 0.16956997 0.26126513 -0.1055756 0.07196649
0.32612318 0.22700122 0.19687378 -0.4235884 0.115426876 -0.40942147 0.2526683 0.032543965
0.16674918 0.31814173 -0.0058577354 -0.01404884 0.2540761 -0.30719945 -0.40272033 0.30714715
-0.17875093 -0.30629918 0.19906907 0.32151672 -0.2599047 -0.17964652 -0.14832856 -0.122759424
0.35236028 0.37712646 -0.26745018 0.04123434 0.34584168 -0.1964211 0.07892926 -0.2538057
-0.022693342 0.029887442 -0.23593557 0.06900755 -0.31828773 -0.053045753 -0.07523689 -0.06702273
0.06978212 -0.3283531 -0.29717112 -0.23861213 -0.34340873 -0.014499753 -0.20876567 0.19637965
-0.27097577 -0.06920803 -0.3711952 0.29902452 0.12676065 -0.1431772 0.08603929 0.027811423
-0.4001708 0.07119605 0.33129114 0.1565223 0.17163005 -0.32980418 -0.28310925 0.2086749
0.0045212884 -0.27201664 -0.10728442 -0.37860405 0.25338405 0.09878597 0.31802526 -0.09956785
-0.24434094 0.28893578 0.14568321 0.25956556 -0.2334667 0.36420575 0.20674284 -0.08195744
00000000: 2733 4d3e 9284 5abe 7827 853e 91fc 7e3e
00000010: 62eb 92bd 9130 053e e300 723c ebd3 72be
00000020: 6160 1e3e 7d8b a9be bdcf 7c3e 0ca2 1d3e
00000030: d1c7 aabe b2b4 19be 0238 58be dc66 b13d
00000040: d0f3 d9be 0ea4 b3be 5b1c 0a3e cf8f b8bd
00000050: 63b7 8e3e 3429 a23d 3156 17be 81be 22be
00000060: 7a34 eabd 0c71 483e 194a ddbd beef 7dbe
00000070: a562 bcbc 6ca1 85bc d844 093d ab61 9d3e
00000080: 57e8 40be f201 ab3e e058 bfbe db60 223c
00000090: e452 5e3e 3a10 c0be 82ac 71bd e103 323b
000000a0: 9f3f c43e 2afe a03e bd86 373e 5adf af3d
000000b0: ce99 66be 7a10 113e f58f b13e fd0c 36be
000000c0: f9b9 8abe ce07 16bd 2e66 393e b69c c2be
000000d0: 36a7 10bd 079a 783e 03c9 17be bcad 7bbe
000000e0: f86c 2e3e 1214 4e3e bec3 3dbd 39be 22be
000000f0: a7f8 343e 512a 583e f523 6cbe 37b5 813e
00000100: 44cf da3d b4de 863e ef94 d33c 965b 3ebd
00000110: adb2 b43d 5f9f df3d cdb4 c7bd fcc3 b83e
00000120: 4ab3 b73d 6967 a6bd 7d47 a2be 199c bbbe
00000130: 2fb5 9bbe e399 c63d f01e ba3b 370b 923e
00000140: 9d47 d7be cd4e 0ebb 9d4b 4fbd 6e91 0fbe
00000150: 5db0 893e d389 253d 7c57 bebe a5e0 863e
00000160: a989 c53e 1924 c53c d51f 48bd 2b17 8c3e
00000170: 6e5b 933e 727c babe dc7a fbbd 5181 cebe
00000180: 2ad3 f63d 21c4 9e3c ee1f 563e b4a7 e93d
00000190: cc79 b93e 92e1 603c 52c0 54bd 9dd5 4fbe
000001a0: 6f58 df3d 9c95 26b9 b677 a5be d08a 3abd
000001b0: b018 5bbe 0869 e1bc f633 b1bd bda7 bf3e
000001c0: e1ba acbe de10 27bd 12d4 0fbe a885 843e
000001d0: 54c9 113e 4885 0e3e 4f72 773e 8fd7 603c
000001e0: 471c 873d b85a 953e c084 99be 659a bcbd
000001f0: 7cec 873d 2226 b23e bdd9 acbd e844 0b3d
00000200: 85f8 1d3e d5c4 513e b1c0 b2be 2605 923e
00000210: aff4 2d3e d866 253d 563c 3f3e 9020 8fbd
00000220: eee7 823e fe0d 89be 0f49 ab3e 4c17 42be
00000230: 7ff1 db3d 1b93 9fbe ef26 bfbe 2669 0bbe
00000240: 98f5 f9bd 0bd1 e93a 580b 073c ecb4 98be
00000250: fc52 43be e1ac 6fbc dad1 af3e ad15 9dbe
00000260: 0fda aabe 5be5 b2be dda3 a43e cc1a a63e
00000270: b6dc 22be b79b 49be 4898 f8bc aa8b 3abe
00000280: 37fc dabd e20a 783e 4a4a 9dbe 8b6a 91be
00000290: 3eea 56be b5ff b03e c765 c5be 7b14 8bbe
000002a0: 0d0c f8bd 2a2b 003e c805 9f3e c88f ca3c
000002b0: c0a3 2d3e 8bc4 853e 0538 d8bd 2b63 933d
000002c0: 9ef9 a63e 0273 683e 4899 493e 94e0 d8be
000002d0: ed64 ec3d b19f d1be bd5d 813e d24c 053d
000002e0: 4cc0 2a3e 79e3 a23e 3ff2 bfbb 1b2d 66bc
000002f0: 4316 823e 3f49 9dbe 5c31 cebe 6442 9d3e
00000300: 7c0a 37be 3fd3 9cbe c3d8 4b3e d79d a43e
00000310: 3b12 85be 42f5 37be 71e3 17be 4b69 fbbd
00000320: 9168 b43e b816 c13e 3bef 88be 57e5 283d
00000330: 2912 b13e 9d22 49be aaa5 a13d d2f2 81be
00000340: 63e7 b9bc 82d6 f43c 1899 71be d553 8d3d
00000350: 9cf6 a2be 8146 59bd cc15 9abd 3743 89bd
00000360: eee9 8e3d e61d a8be d026 98be bd56 74be
00000370: 45d3 afbe 5f90 6dbc abc6 55be bf17 493e
00000380: 56bd 8abe f1bc 8dbd 4c0d bebe be19 993e
00000390: 8bcd 013e 0b9d 12be 5e35 b03d c8d4 e33c
000003a0: 30e3 ccbe 3ccf 913d fe9e a93e 6247 203e
000003b0: cabf 2f3e 18dc a8be b2f3 90be dfae 553e
000003c0: 5127 943b c445 8bbe efb7 dbbd 64d8 c1be
000003d0: 8ebb 813e 4c50 ca3d 35d4 a23e 3bea cbbd
000003e0: 8334 7abe 64ef 933e fb2d 153e c7e5 843e
000003f0: e511 6fbe 2d79 ba3e 65b4 533e 4dd9 a7bd

encoder.layers.1.linear1.bias f4 [2048]
0.07087283 -0.14257818 0.3880694 0.2901971 0.24383438 -0.01650813 -0.045418043 0.15660487
-0.0022370373 -0.3629209 -0.2857238 0.023427727 0.25529364 0.1961692 0.33764 0.1384884
-0.38463888 0.13716 -0.05787532 -0.055312496 -0.33096644 0.0053800205 0.18277343 -0.29555193
-0.21369743 -0.2270386 -0.37140715 0.31592718 0.23504527 0.15158866 0.1096973 0.41609597
-0.018911935 0.26951465 0.04377919 0.41016683 -0.20007445 0.16533381 0.24206813 -0.1343266
0.36744064 -0.20444039 0.26758853 0.06889557 -0.029031746 -0.04495897 -0.20291585 -0.18974209
-0.28606623 0.24310791 0.1664285 -0.064801924 0.26449373 -0.22217609 -0.36366332 0.26816094
-0.013355399 0.24155816 0.13716146 -0.3248721 -0.28155884 -0.23764777 0.26168585 -0.11887152
0.27501342 -0.23569515 0.41168508 -0.08252496 0.3238073 -0.3884951 0.030944241 0.03699139
-0.18547277 0.08786159 0.1895743 -0.2379111 0.306182 0.33856258 0.0229431 0.20692854
0.1673474 -0.0650698 -0.32769507 -0.09379753 -0.30377203 -0.30352136 0.3839391 -0.101817906
-0.3198433 0.20642105 -0.3465062 0.26702607 -0.02194193 -0.1583416 -0.10389227 -0.29839647
0.23357587 0.09853441 0.3209603 0.15742454 -0.40289056 -0.04582438 -0.20492211 0.42605528
0.33511308 -0.30312437 -0.08907154 -0.043271158 -0.38323954 -0.019437827 0.31312978 -0.37746754
0.061399125 -0.3919667 0.025138224 0.22182737 -0.09357606 -0.110813394 0.27292275 0.2084776
0.030869512 -0.2961506 -0.3293381 -0.2482044 0.3763395 -0.3843188 0.29821932 0.1907285
-0.22332072 -0.38353398 -0.09931851 -0.17378725 -0.051058464 -0.21308383 0.39643908 0.2691756
-0.12833695 0.3780333 -0.0054003834 0.1658152 0.19353929 -0.010218464 0.34714687 -0.3179282
0.28017366 0.20333041 0.3366845 -0.36134374 -0.28774017 0.08616313 0.17383555 -0.10559438
-0.047873035 0.16873775 0.31973925 -0.37616226 -0.39009252 0.2134346 0.07018636 0.33545294
-0.20036787 -0.048999086 0.14301017 0.14980009 0.35269383 -0.020669505 -0.06442134 0.082842626
0.07469219 -0.33836025 -0.26342535 0.10221367 0.36901718 0.3987248 -0.06881107 -0.24304204
0.24937454 0.18674698 -0.3946408 0.19209144 -0.1816786 0.33274782 0.017844897 0.090020336
0.18727572 -0.3249998 0.2660147 -0.27798602 -0.24785899 0.39281192 -0.24265336 -0.08985685
0.09389479 -0.20830752 -0.22732142 -0.2356239 0.0352974 0.22521248 0.18650462 -0.3806462
0.017033627 -0.40085408 -0.22759543 -0.1930447 0.108767346 0.16108344 0.14427562 0.25542286
0.02882499 0.07155048 0.15472504 0.26195464 -0.24134013 0.33252144 0.031888235 -0.33573326
0.14582546 -0.07120586 -0.3654452 -0.22586596 0.3936611 -0.028949222 0.07936236 -0.3490361
0.06972752 -0.21976575 0.18923903 0.2608468 0.13423762 0.4198274 -0.07998202 -0.13451254
0.23452584 0.41372526 0.09768018 -0.22299342 0.045892477 0.13353726 0.058794357 -0.10258218
-0.0088077895 0.20842147 -0.12758914 -0.32705265 0.31435522 -0.1260006 0.29327014 0.37325808
0.43346274 -0.2409735 0.3713641 0.08918886 0.029573226 -0.0016427173 0.06855839 0.33243752
00000000: c625 913d 0400 12be 08b1 c63e b794 943e
00000010: b8af 793e 0f3c 87bc 4508 3abd 075d 203e
00000020: 429b 12bb c5d0 b9be 644a 92be 81eb bf3c
00000030: d9b5 823e 94e0 483e 26df ac3e e7cf 0d3e
00000040: 63ef c4be ac73 0c3e ac0e 6dbd 5b8f 62bd
00000050: 6f74 a9be e24a b03b f528 3b3e 9552 97be
00000060: 80d3 5abe cf7c 68be 1429 bebe 35c1 a13e
00000070: b5af 703e 0f3a 1b3e faa8 e03d 880a d53e
00000080: 34ed 9abc d3fd 893e cf51 333d 6301 d23e
00000090: 51e0 4cbe 444d 293e b5e0 773e ea8c 09be
000000a0: 2e21 bc3e d258 51be 5d01 893e 1f19 8d3d
000000b0: fcd3 edbc e626 38bd 2cc9 4fbe c04b 42be
000000c0: 4677 92be 48f1 783e 3c6c 2a3e dfb6 84bd
000000d0: b96b 873e 2182 63be 1432 babe 644c 893e
000000e0: 9ad0 5abc 065b 773e 0e74 0c3e a355 a6be
000000f0: 7b28 90be f059 73be b0fb 853e e972 f3bd
00000100: 8fce 8c3e 125a 71be 63c8 d23e d902 a9bd
00000110: 12ca a53e d4e8 c6be c77e fd3c 4984 173d
00000120: 93ec 3dbe c7f0 b33d c41f 423e f89e 73be
00000130: e3c3 9c3e 1358 ad3e 2bf3 bb3c 13e5 533e
00000140: 1e5d 2b3e 5143 85bd a6c7 a7be eb18 c0bd
00000150: 0288 9bbe 2767 9bbe aa93 c43e e885 d0bd
00000160: 80c2 a3be 0a60 533e 4369 b1be a4b7 883e
00000170: 90bf b3bc 4d24 22be 78c5 d4bd 6cc7 98be
00000180: 832e 6f3e 69cc c93d e954 a43e e633 213e
00000190: ac47 cebe 58b2 3bbd 1ad7 51be eb23 da3e
000001a0: f193 ab3e 1e33 9bbe 246b b6bd 193d 31bd
000001b0: f937 c4be 143c 9fbc 8c52 a03e 6d43 c1be
000001c0: a67d 7b3d dcaf c8be adee cd3c b726 633e
000001d0: cea4 bfbd 22f2 e2bd 88bc 8b3e 277b 553e
000001e0: 0fe2 fc3c 0da1 97be 019f a8be 4b29 7ebe
000001f0: 92af c03e 6fc5 c4be 34b0 983e 554e 433e
00000200: 30ae 64be 915e c4be 8167 cbbd 49f5 31be
00000210: ae22 51bd a632 5abe 10fa ca3e 62d1 893e
00000220: c36a 03be 958d c13e b3f5 b0bb 76cb 293e
00000230: 2a2f 463e 586b 27bc 3cbd b13e 7cc7 a2be
00000240: ec72 8f3e d935 503e e961 ac3e 0c02 b9be
00000250: ae52 93be 4c76 b03d f201 323e de41 d8bd
00000260: 8416 44bd 97c9 2c3e ddb4 a33e 5798 c0be
00000270: 35ba c7be 9a8e 5a3e debd 8f3d 7dc0 ab3e
00000280: 3c2d 4dbe 44b3 48bd 4271 123e 3265 193e
00000290: 4994 b43e 1853 a9bc 56ef 83bd 65a9 a93d
000002a0: 38f8 983d 8e3d adbe b0df 86be 6755 d13d
000002b0: d2ef bc3e a825 cc3e d1ec 8cbd 03e0 78be
000002c0: 0a5c 7f3e 9a3a 3f3e 5c0e cabe 9eb3 443e
000002d0: f409 3abe ec5d aa3e 762f 923c 955c b83d
000002e0: 35c5 3f3e 6066 a6be 1433 883e 2f54 8ebe
000002f0: bfce 7dbe a51e c93e 1f7a 78be de06 b8bd
00000300: e94b c03d 914e 55be f2c6 68be 6447 71be
00000310: 0294 103d 1a9e 663e 11fb 3e3e 0fe4 c2be
00000320: 1b8a 8b3c bf3c cdbe c70e 69be 83ad 45be
00000330: 6ac1 de3d 0ff3 243e fdbc 133e c9c6 823e
00000340: 6322 ec3c 0f89 923d 3e70 1e3e eb1e 863e
00000350: de21 77be 4040 aa3e 3d9d 023d 3be5 abbe
00000360: 4553 153e 61d4 91bd a21b bbbe 6849 67be
00000370: f38d c93e eb26 edbc bc88 a23d dcb4 b2be
00000380: 4dcd 8e3d 460a 61be e0c7 413e b68d 853e
00000390: 9675 093e 9ef3 d63e 9dcd a3bd a8bd 09be
000003a0: 8b27 703e ccd3 d33e 8c0c c83d 6358 64be
000003b0: c0f9 3b3d febd 083e 5ad2 703d 9b16 d2bd
000003c0: 8c4e 10bc 706c 553e baa6 02be 7273 a7be
000003d0: 2bf3 a03e 4d06 01be 8127 963e af1b bf3e
000003e0: d4ee dd3e c2c1 76be 6f23 be3e a6a8 b63d
000003f0: 8d43 f23c 7250 d7ba 5768 8c3d 4035 aa3e

encoder.layers.1.linear2.weight f4 [6, 2048]
0.056703325 0.0042193998 0.051291574 0.06809306 0.03905306 0.041709825 0.04512565 0.04914377
0.036727313 0.049891878 0.029030701 0.039193507 0.051312704 0.05361366 0.05543046 0.067164816
-0.010161966 0.021961555 0.028562918 0.062356945 0.04352166 0.04499989 0.05685093 0.067630254
0.023681458 0.06088725 -0.000641931 0.0437518 0.040157676 0.060288638 0.035067238 0.031696502
0.044243075 0.037800074 0.064529695 0.057266075 0.038015995 0.033239804 0.039916225 0.029497173
0.031754434 0.05497551 0.039580174 0.042909022 0.0483227 0.018687816 0.024431413 0.045275733
0.032793745 0.044516455 0.03484115 0.05138032 0.054892547 0.071886696 0.003026063 0.023764145
0.043524917 0.057344027 0.07987749 0.023719162 0.026394779 0.018776096 0.021565009 0.06192329
0.02529622 0.040389754 0.06589689 0.038562853 0.021169923 0.045328144 0.045532145 0.06684648
0.04345002 0.014907282 0.03783876 0.04560475 0.037805606 0.039101597 0.02475797 0.06118413
0.047937166 0.048882198 0.027790692 0.04735641 0.02753251 -0.010775156 0.05367522 0.05457808
0.074908234 0.04158384 0.027405683 0.07143625 0.03803501 0.062179673 0.023411974 0.03076078
0.04039912 0.05560274 0.0178008 0.036730215 0.016076317 0.036848146 0.01894992 0.047259394
0.0589672 0.05559806 0.033143297 0.02653663 0.036020834 0.051121973 0.03642181 -0.030404741
0.05813203 0.044114515 0.01826306 0.03259704 0.066261426 0.0129646035 0.044502147 0.021806978
0.027294258 -0.015447905 0.021684894 0.020033607 0.04755878 0.0035509986 0.04812165 0.040324517
0.030164566 0.0356043 0.052817445 0.010748511 0.046619028 0.058342412 0.06508696 0.072590046
0.013034382 0.045045458 0.031153124 0.054049436 0.0601482 0.025586026 0.036043137 0.010739213
0.038307298 0.033629846 0.052378234 0.022563215 0.040465157 0.030482525 0.06076748 0.03221186
0.018845985 0.06322029 0.041581668 0.0038253833 0.03284875 0.06704478 0.053565193 0.066623844
0.03405408 0.030326905 0.03695454 0.042670768 0.038261857 0.049451172 0.032122087 0.019805003
0.059121747 0.055738408 0.03162622 0.05869385 0.05299913 0.031392854 0.032117177 0.038387597
0.046738774 0.048780836 0.013556811 0.061426993 0.048388034 0.01599339 0.056961443 0.030788338
0.019994235 0.050548032 0.067985624 0.012136897 0.06333931 0.034330852 0.016011488 0.045233496
0.018095003 0.052719455 0.026366433 0.006127373 0.045191698 0.055533253 0.06141759 0.030208413
0.0455396 0.03577073 0.050523244 0.051478725 0.054836437 0.02387507 0.055320233 0.057188373
0.048392933 0.03137482 0.04829711 0.034357883 0.009203843 0.056331124 0.044579886 0.024926817
0.050131496 0.051078573 -4.082448e-05 0.06647724 0.06453517 0.026773242 0.071160704 0.042957027
0.057588983 0.0449538 0.0156614 0.033253197 0.047482263 0.036509395 0.043437157 0.006176109
0.056855474 0.04778534 0.059528008 0.047413744 0.021001603 0.06576161 0.02673006 0.022701198
0.015858337 0.021718249 0.05390835 0.03221943 0.04891103 0.03026696 0.054938763 0.05944777
0.044238046 0.04228091 0.045320585 0.051901225 0.038154192 0.046901807 0.053627428 0.07593952
00000000: bf41 683d e442 8a3b 1d17 523d 6074 8b3d
00000010: 1af6 1f3d ecd7 2a3d acd5 383d fa4a 493d
00000020: 616f 163d 6d5b 4c3d cbd1 ed3c 5f89 203d
00000030: 452d 523d ff99 5b3d 0d0b 633d b58d 893d
00000040: 607e 26bc b8e8 b33c c8fc e93c ff69 7f3d
00000050: c543 323d ce51 383d 85dc 683d bb81 8a3d
00000060: 9eff c13c e964 793d 4347 28ba 1635 333d
00000070: 607c 243d 38f1 763d aaa2 0f3d 31d4 013d
00000080: 3a38 353d 40d4 1a3d 2528 843d d58f 6a3d
00000090: a9b6 1b3d 7626 083d 327f 233d 0ea4 f13c
000000a0: f010 023d 002e 613d d21e 223d 5fc1 2f3d
000000b0: 06ee 453d 3117 993c 6324 c83c 0c73 393d
000000c0: bc52 063d e356 363d 98b5 0e3d 2c74 523d
000000d0: 02d7 603d 5539 933d ea50 463b 06ad c23c
000000e0: 2f47 323d 92e1 6a3d cf96 a33d b04e c23c
000000f0: dd39 d83c 54d0 993c 1aa9 b03c 47a3 7d3d
00000100: 053a cf3c ba6f 253d f3f4 863d 15f4 1d3d
00000110: 8c6c ad3c 01aa 393d ea7f 3a3d cfe6 883d
00000120: a6f8 313d ac3d 743c d1fc 1a3d 0ccc 3a3d
00000130: 0dda 1a3d ff28 203d 3ad1 ca3c 369c 7a3d
00000140: c359 443d b338 483d 4ea9 e33c ccf8 413d
00000150: dc8b e13c 488a 30bc 8cda 5b3d 448d 5f3d
00000160: 7d69 993d d153 2a3d e281 e03c 2b4d 923d
00000170: 99ca 1b3d 1db0 7e3d 78ca bf3c 08fe fb3c
00000180: 8c79 253d b3bf 633d fcd2 913c 6c72 163d
00000190: 7bb2 833c 15ee 163d dd3c 9b3c 1193 413d
000001a0: 9787 713d cbba 633d 44c1 073d 5963 d93c
000001b0: 958a 133d 4665 513d 092f 153d 5d13 f9bc
000001c0: da1b 6e3d 6cb1 343d 6a9c 953c 7984 053d
000001d0: 12b4 873d 7d69 543c e247 363d 8ca4 b23c
000001e0: 3598 df3c 3619 7dbc 85a4 b13c 851d a43c
000001f0: ffcc 423d dfb7 683b 351b 453d 522b 253d
00000200: ae1b f73c d1d5 113d 1b57 583d 861a 303c
00000210: 98f3 3e3d 74f8 6e3d 504c 853d 17aa 943d
00000220: 298e 553c 9681 383d d634 ff3c f162 5d3d
00000230: f55d 763d c999 d13c f8a1 133d 86f3 2f3c
00000240: 1de8 1c3d 73bf 093d 8f8a 563d 7ed6 b83c
00000250: cbbe 253d 7db6 f93c 52e7 783d 95f0 033d
00000260: e562 9a3c a479 813d 8a51 2a3d 48b3 7a3b
00000270: 698c 063d c64e 893d 2d67 5b3d 1572 883d
00000280: 4a7c 0b3d 2170 f83c a55d 173d 8bc7 2e3d
00000290: 77b8 1c3d 508d 4a3d 7392 033d 1a3e a23c
000002a0: a529 723d f54d 643d 7f8a 013d f668 703d
000002b0: 9e15 593d cb95 003d 4d8d 033d 503c 1d3d
000002c0: 2871 3f3d 6ace 473d 631d 5e3c df9a 7b3d
000002d0: 8832 463d 9204 833c 6750 693d d337 fc3c
000002e0: f3ca a33c 740b 4f3d 0c3c 8b3d d6d9 463c
000002f0: 0ab8 813d 829e 0c3d 862a 833c c246 393d
00000300: f93b 943c 5bf0 573d 6bfe d73c 21c8 c83b
00000310: ee1a 393d d676 633d 0391 7b3d a277 f73c
00000320: bb87 3a3d 5484 123d 76f1 4e3d 5bdb 523d
00000330: 2c9c 603d a795 c33c 7897 623d 5b3e 6a3d
00000340: ab37 463d e282 003d 31d3 453d daba 0c3d
00000350: b7cb 163c 77bb 663d 6699 363d 5333 cc3c
00000360: af56 4d3d c437 513d f43a 2bb8 3825 883d
00000370: 042b 843d 8f53 db3c b4bc 913d b5f3 2f3d
00000380: 6de2 6b3d 7a21 383d 564c 803c 8134 083d
00000390: c37c 423d e08a 153d 29eb 313d f560 ca3b
000003a0: 49e1 683d 90ba 433d a4d3 733d ea34 423d
000003b0: 8e0b ac3c 06ae 863d 00f9 da3c ddf7 b93c
000003c0: 58e9 813c 78ea b13c 01cf 5c3d 85f8 033d
000003d0: ef56 483d 6af2 f73c 7807 613d 817f 733d
000003e0: f432 353d bf2e 2d3d 14a2 393d 6196 543d
000003f0: 9247 1c3d 1c1c 403d 6fa8 5b3d 2e86 9b3d

encoder.layers.1.linear2.bias f4 [6]
0.030057568 -0.022431582 0.00061923126 0.041381337 -0.045142714 -0.046405505
00000000: 4a3b f63c 70c2 b7bc e853 223a 7a7f 293d
00000010: 91e7 38bd b313 3ebd

encoder.layers.1.norm1.weight f4 [6]
0.99252135 0.96820194 0.98149854 1.0288565 1.0075848 0.97362745
00000000: e115 7e3f 15dc 773f 7d43 7b3f 92b1 833f
00000010: 8af8 803f a63f 793f

encoder.layers.1.norm1.bias f4 [6]
0.026819063 0.0028275715 -0.0017436591 0.035124958 -0.019830605 -0.017531656
00000000: a7b3 db3c c74e 393b 7e8b e4ba 30df 0f3d
00000010: cb73 a2bc 8c9e 8fbc

encoder.layers.1.norm2.weight f4 [6]
1.0365514 0.9288916 0.9663277 1.0255252 1.0318038 0.9603997
00000000: b7ad 843f d7cb 6d3f 4161 773f 6944 833f
00000010: 2612 843f c1dc 753f

encoder.layers.1.norm2.bias f4 [6]
0.04623182 0.0070590195 -0.003790314 0.03461667 -0.044441745 -0.02560987
00000000: 945d 3d3d 594f e73b eb66 78bb 36ca 0d3d
00000010: 8c08 36bd cacb d1bc

encoder.layers.2.self_attn.in_proj_weight f4 [18, 6]
-0.16806634 -0.051088654 0.16860516 0.4395352 0.46667245 0.06861742 0.18745826 -0.20467462
-0.28637964 -0.4837783 -0.40465468 -0.18938638 -0.44699514 -0.025042515 -0.12236646 0.2805117
-0.1810519 0.16144499 -0.13476552 -0.2483873 -0.24132591 0.45762214 0.38968432 0.43217006
0.3237432 -0.42663568 -0.09198466 0.30041686 -0.19458169 0.020763403 -0.33893132 0.41923302
0.1978869 -0.27409446 -0.1342996 -0.16246206 0.36503494 -0.29041874 0.493821 0.35516
0.43541178 0.4562688 -0.2083037 0.07498738 -0.4758762 0.49640465 0.13865891 0.3217332
0.26040122 -0.058508396 0.19889034 -0.34944203 -0.096986435 -0.47048903 0.27660394 -0.40663794
-0.39456564 0.39446703 -0.17727181 -0.17672521 -0.49722508 -0.4107482 -0.39545572 0.4896639
0.46043503 0.45750296 0.09995458 -0.21225142 -0.14846261 -0.49927485 0.3506819 -0.10034276
-0.15112264 -0.45006576 -0.37120822 -0.5090888 -0.38534525 -0.15682295 0.04119496 -0.08836834
0.2244263 -0.44055265 0.18275468 0.082665905 0.27195084 0.23485067 0.3133696 -0.014389821
0.18185559 0.031695094 -0.09607115 -0.29235265 0.17520382 -0.1659637 0.14497301 -0.10712215
0.25753856 -0.29644048 -0.37965572 -0.32694656 0.3859656 0.070523545 -0.3939569 0.21921489
-0.20963985 0.23228529 -0.34579244 -0.40982357
00000000: 9519 2cbe 5642 51bd d5a6 2c3e c20a e13e
00000010: b1ef ee3e 4a87 8c3d 0ff5 3f3e 3996 51be
00000020: 5aa0 92be cab1 f7be e62e cfbe 81ee 41be
00000030: 8cdc e4be f625 cdbc 449b fabd 3b9f 8f3e
00000040: ab65 39be d651 253e f9ff 09be 3e59 7ebe
00000050: 241e 77be 734d ea3e b484 c73e 6545 dd3e
00000060: abc1 a53e fe6f dabe 7462 bcbd 3dd0 993e
00000070: 6c40 47be 0318 aa3c 6888 adbe b6a5 d63e
00000080: dda2 4a3e 1c56 8cbe d685 09be 745c 26be
00000090: dce5 ba3e c4b1 94be 1bd6 fc3e 88d7 b53e
000000a0: 4bee de3e 109c e93e 914d 55be fc92 993d
000000b0: 0ca6 f3be c028 fe3e 9afc 0d3e 37ba a43e
000000c0: 4f53 853e 80a6 6fbd e9a9 4b3e 11ea b2be
000000d0: d3a0 c6bd f0e3 f0be 089f 8d3e d932 d0be
000000e0: 8204 cabe 95f7 c93e be86 35be 74f7 34be
000000f0: 4994 febe 974d d2be 2c79 cabe 3ab5 fa3e
00000100: 24be eb3e d43d ea3e fdb4 cc3d 7058 59be
00000110: 9506 18be f4a0 ffbe 948c b33e 8180 cdbd
00000120: e5bf 1abe 056f e6be 010f bebe a553 02bf
00000130: f94b c5be 3296 20be 0cbc 283d 76fa b4bd
00000140: 02d0 653e 1e90 e1be 0b24 3b3e be4c a93d
00000150: 243d 8b3e b27c 703e fb71 a03e 49c3 6bbc
00000160: 5a38 3a3e b7d2 013d f3c0 c4bd 3faf 95be
00000170: a168 333e 63f2 29be ce73 143e dc62 dbbd
00000180: 18dc 833e 0cc7 97be 3c62 c2be 8a65 a7be
00000190: 489d c53e a66e 903d b8b4 c9be de79 603e
000001a0: d4ab 56be 32dc 6d3e b50b b1be 65d4 d1be

encoder.layers.2.self_attn.in_proj_bias f4 [18]
-0.0147523405 0.016030047 -0.012436226 -0.0123958485 0.017236698 -0.0045727505 3.474394e-06 1.4899756e-06
2.0004911e-06 7.6553755e-07 7.4879467e-06 -9.781713e-06 -0.0018616085 -0.025902223 0.037125096 -0.07151487
-0.002422868 -0.0031031244
00000000: cdb3 71bc 7251 833c 50c1 4bbc f517 4bbc
00000010: fa33 8d3c 03d7 95bb a229 6936 2cfb c735
00000020: 2d40 0636 577f 4d35 f940 fb36 231c 24b7
00000030: 3701 f4ba e630 d4bc 7c10 183d 6376 92bd
00000040: fbc8 1ebb ca5d 4bbb
